process/mlruns/850336352745823845/models/m-142061042b8c4c7589a772410f26613e/artifacts/data/model.pth (torch, 139858 bytes, 11 tensors)

weight_ih_l0 f4 [200, 10]
00000000: 8cb5 d33d 7477 dfbd 48bd 123d f2ea df3d
00000010: fc3f a4bd f980 00be 1af0 b13d 4aa4 df3d
00000020: 37ee 033e c538 083e 527a a73d 2209 b8bd
00000030: 6071 273c 9f8f babd c660 84bd e21a 04bd
00000040: a80b 4ebd e026 d23c f0fb 603d 5059 8d3d
00000050: abd4 9abd 22c7 9d3d 40c6 563b c024 02bd
00000060: e0d4 9bbb fc55 343d ef5a 0c3e 7878 a13d
00000070: 20b5 c63d 1002 e9bd 50eb 4b3c d434 85bd
00000080: c866 a8bd 255f e9bd 407e 843d e210 10be
00000090: 1ab8 06be fd3d c0bd 54be d3bd a8d7 71bd
000000a0: 84ea 6f3d 1e2b f43d 582d 723d 8c82 733d
000000b0: c470 ac3d 7fc0 0bbe 36bb ca3d eaa6 d5bd
000000c0: a01d e8bb 8055 abbb b35a 013e 4e56 0fbe
000000d0: 0d46 0a3e 3cdc 763d b022 de3d a2c8 fb3d
000000e0: a0cf c13c 5b0f 103e 85c4 0f3e 6092 b2bb
000000f0: a419 d9bd f283 44bd b4fc 723d fe72 06bd
00000100: 704f cb3c b469 cbbd 493b f4bd de35 6cbd
00000110: ccd6 213d 86ad 1cbd 8e10 cebd ccfc 373d
00000120: a637 6cbd 2072 1f3c 06d7 d63d 3f08 99bd
00000130: f4f1 08bd 34c8 c1bd 803f 21bd d001 383d
00000140: ea25 e1bd 9075 2ebc 5522 01be 19e4 073e
00000150: 366b aabd d29e a73d a0b9 263c 7093 8d3c
00000160: 80d9 d73d 22e5 b2bd 0d36 8bbd b0a7 51bd
00000170: 4560 a7bd 5c37 583d 0d8a 0fbe 8cce 5b3d
00000180: 0068 89bb e276 40bd f0e0 40bc 5498 293d
00000190: 1ee0 ee3d c930 89bd db73 bebd 0665 a63d
000001a0: 980b 4e3d d26a 36bd 1053 583d 767a c53d
000001b0: 6040 04be 362b 7abd 3e97 bfbd 0834 5e3d
000001c0: c07c 933d acb3 b23d 80ff 1f3b fc96 01be
000001d0: d063 d33c 79ea 05be 7a50 0cbd f823 803c
000001e0: 9875 a3bd 6aff ec3d 77e6 0e3e bcf0 0fbd
000001f0: f58a 053e 0b8b 023e 0e47 12bd 405c a43b
00000200: 5cbb fdbc 6893 303d c874 b73d c412 0dbe
00000210: 7c30 ce3d 1ed6 7ebd 600a 1e3d 5810 8f3d
00000220: 709f 7cbc 80b5 35bb 644a 8a3d 80b4 84bb
00000230: e054 cfbb d865 c2bd a448 883d 78d8 a6bd
00000240: 3edf dcbd e0bc 713d 78d1 f6bc 60b6 123c
00000250: b0f5 7a3c 52ac b23d 6061 ac3c f61f edbd
00000260: da43 d03d 0627 c13d 0cfa 993d 20c5 aabb
00000270: 560d 2bbd b8a2 ec3c 3180 97bd 8e25 b1bd
00000280: 2870 81bc 7c0c b0bc 7a19 f73d 9ee1 bcbd
00000290: b43f 8a3d 1276 ecbd 3009 41bd 2ec5 b33d
000002a0: a601 d33d e08c bf3c 68cb d33d 70e1 41bc
000002b0: 1983 99bd f015 2a3d e03f 09bc 78a8 833c
000002c0: 6a61 d03d 0641 f93d 4c2b 1b3d eb20 043e
000002d0: 8054 b83c 4091 7e3d 8714 003e 7d29 e5bd
000002e0: 58b4 90bc d0b6 ffbc a462 f6bc a797 01be
000002f0: c8b6 b7bd 4e65 17bd 192c 81bd b0fd 033c
00000300: 2efc e03d 4bf5 83bd 46ca bc3d c692 963d
00000310: 20f6 afbb 88aa 00be f848 17bd 6e87 aabd
00000320: d8a1 e0bd a6a0 92bd 7aad 6fbd 2046 173c
00000330: 8c96 713d 1d78 003e d0c8 eebc a386 023e
00000340: a15a f2bd 3287 13bd cc96 43bd 5a56 893d
00000350: 2284 d73d 3487 8abc 894d 9fbd 6898 31bd
00000360: 4e6b a1bd c055 88bd 605e 693d 3697 27bd
00000370: 98ae 3a3d 0047 98bb 4c55 463d 9021 4ebd
00000380: 2ad8 b63d be5b e03d fdd1 89bd f0bf 913d
00000390: aa28 b23d c32b eebd 6e18 fc3d e232 ef3d
000003a0: 4209 f6bd 460f eebd 6e90 50bd aa9c bbbd
000003b0: 2100 0e3e fa43 fb3d a6d5 04bd 7457 89bd
000003c0: 380e eebc 686a 8c3c 0333 aabd 440a 1e3d
000003d0: 7844 583d 9479 8bbd fa81 b93d 785e acbc
000003e0: 20d7 b53c f0e6 3f3d 6855 573d c681 b53d
000003f0: 65ea 9abd 14fc c1bd 7f13 0b3e cda1 b0bd
0.10337362 -0.10911456 0.035825044 0.10933484 -0.080200166 -0.12549199 0.08688374 0.109200075
0.1288384 0.13302906 0.081776276 -0.08986117 0.010219902 -0.09109425 -0.064637706 -0.0322522
-0.050304085 0.025653303 0.054927766 0.06901801 -0.075600944 0.07703997 0.0032771975 -0.03177333
-0.0047556013 0.044027314 0.13706563 0.07884306 0.097025156 -0.113773465 0.01244624 -0.06504217
-0.08222729 -0.113951005 0.06469393 -0.1406894 -0.13156167 -0.09386823 -0.103390366 -0.059043556
0.05857326 0.119222865 0.059125274 0.05945067 0.08419946 -0.1364765 0.09898989 -0.10432227
-0.0070836097 -0.0052286983 0.12632255 -0.13997766 0.13503285 0.060268626 0.1084646 0.12294127
0.023658574 0.14068358 0.1403981 -0.005449578 -0.10600594 -0.047977395 0.059323028 -0.03282451
0.024818152 -0.09932271 -0.1192537 -0.05766856 0.039511487 -0.038251422 -0.10061751 0.04491882
-0.057670258 0.009731799 0.10490231 -0.07472276 -0.03343387 -0.09462014 -0.0393672 0.044923604
-0.1099356 -0.010648146 -0.12610753 0.13270606 -0.0832123 0.081845894 0.010176092 0.017282218
0.10539532 -0.0873511 -0.06797419 -0.05118531 -0.08172659 0.05278717 -0.14017506 0.053663775
-0.004193306 -0.046988375 -0.011772379 0.041405037 0.11663841 -0.06698758 -0.092994414 0.081247374
0.050304025 -0.044535466 0.05281359 0.09642498 -0.12915182 -0.061076365 -0.09355019 0.05424884
0.072015285 0.08725676 0.0024413764 -0.12655252 0.02580443 -0.13077725 -0.034256436 0.015642151
-0.079814136 0.11572154 0.13955103 -0.03514169 0.13041289 0.12748353 -0.035712294 0.00501588
-0.030973129 0.043109328 0.08957821 -0.1377669 0.100678414 -0.062215917 0.038584113 0.06985539
-0.015418872 -0.002772659 0.0675247 -0.0040498376 -0.0063272566 -0.094920814 0.0665448 -0.08146757
-0.107847676 0.059018016 -0.03012918 0.008954614 0.0153173655 0.08724274 0.021042526 -0.11578362
0.10169192 0.09431271 0.07518396 -0.0052114874 -0.041760765 0.028886184 -0.073974974 -0.08649741
-0.01580055 -0.021490328 0.12065406 -0.092227206 0.06750432 -0.115459576 -0.047127903 0.087778434
0.10303049 0.023382604 0.10341531 -0.011833534 -0.07495708 0.041524827 -0.008377045 0.016071543
0.1017483 0.12170605 0.037883088 0.12903182 0.02250123 0.06215024 0.1250783 -0.11189554
-0.01766412 -0.031215101 -0.030076332 -0.12655507 -0.0897041 -0.036961846 -0.06307239 0.008056089
0.109855995 -0.0644327 0.09218268 0.073522136 -0.0053699166 -0.12565053 -0.036934823 -0.083266124
-0.10968369 -0.071595475 -0.05851505 0.009233028 0.058981463 0.1254582 -0.02914849 0.12746672
-0.11833692 -0.036017604 -0.047751233 0.067059234 0.10523249 -0.016910173 -0.077784605 -0.043358237
-0.07881795 -0.066569805 0.05697477 -0.04091569 0.04557666 -0.0046471357 0.04842119 -0.050324976
0.08927949 0.109549984 -0.06729505 0.07116687 0.08699162 -0.11629441 0.12309347 0.11679627
-0.120134845 -0.11624007 -0.05091899 -0.09160741 0.13867237 0.12268825 -0.032430314 -0.067061335
-0.029059514 0.017140582 -0.08310511 0.03858401 0.052799672 -0.068102986 0.09057994 -0.02104114
0.022197306 0.0468511 0.052571684 0.08862643 -0.075642385 -0.09471908 0.13581656 -0.08624611

weight_hh_l0 f4 [200, 50]
00000000: e407 b73d 7460 b4bd a854 d2bd e6e9 0dbe
00000010: 0bb5 073e 0c79 e3bd 5aa9 58bd d4ae 1c3d
00000020: 20c1 febb 6499 93bc 80e7 bf3b 387a c2bc
00000030: db83 fabd eced aebd d8ec a83c 20ef c13d
00000040: 5c6d b3bd 68e7 5f3d be73 e33d 6847 e83c
00000050: b4bd 00bd 73f1 fabd b27b d23d 6275 0dbd
00000060: 36a1 fd3d 2598 033e 52d5 883d e94b 8cbd
00000070: f275 dabd 123c fc3d a818 b43d c4fb 233d
00000080: 48b9 81bd cc86 a5bc c0be a03c 8092 31bd
00000090: f358 0b3e 9257 bcbd f2f2 f13d fe12 f23d
000000a0: b168 bebd 2c3e 203d 40a0 7fbb 7237 84bd
000000b0: 50f2 26bd 1000 f6bc 3664 ad3d befc c13d
000000c0: ba59 0abe b00c 063d c895 fd3c 04c4 6d3d
000000d0: d8e9 993c a006 80bb 8815 c5bd 2f93 e4bd
000000e0: b8ae be3c 6ca2 14bd 92ed db3d 2075 5e3c
000000f0: d42c 9ebc 0b1b debd 8c69 c0bd 1017 94bd
00000100: 86cd bebd 60f1 763c e099 963b 3c7e 00be
00000110: 440b 9abd 306d 0f3d a0ae 24bc 9ef3 dd3d
00000120: 00bb a3ba 5498 8cbd c8fc 3e3d 5452 0bbd
00000130: 6309 00be 6806 c13c ecfe 15bd 35ef abbd
00000140: 402c 3abc 28b9 093d d57c 0fbe 1aa9 ed3d
00000150: 00f8 923b 4c7b c3bc 3d19 0e3e 88da fb3c
00000160: f2e5 d73d 11d3 06be dab7 f63d 087a dfbd
00000170: c8e6 c2bd 20a1 183c 54cf 6fbd e83f e4bd
00000180: 4250 fa3d 1bf1 8ebd acee 0c3d c423 2abd
00000190: 008b aabd f45a b8bd 4627 f13d 60ba 03bc
000001a0: 74d2 a63d e40e d9bd ceb1 89bd 2460 463d
000001b0: 84d6 46bd 7eae e43d aa3f fa3d 20a6 8e3b
000001c0: 2058 ca3b 1e43 7fbd ee08 b63d e7a4 013e
000001d0: 4c3f f4bd e4f2 f8bd 469f 9cbd 54e6 0f3d
000001e0: e8f5 923d 8e86 e1bd d816 643d 3246 c8bd
000001f0: 5607 27bd 66e1 8a3d 0f68 9abd e4c5 d5bc
00000200: 8afa 2fbd 70bd 34bc 263e 953d 14ff c2bd
00000210: 4e19 913d 4c23 cdbc 4c85 52bd c2e7 803d
00000220: d230 f73d 8451 6abd 96f8 abbd 5ca2 0ebd
00000230: 5077 1dbc 5860 56bd c478 8dbd 62a5 a2bd
00000240: 907a a93c c6be bebd 788c 043d 50dd ecbc
00000250: e1ff b4bd a41b 53bd 0243 c53d f038 b3bc
00000260: ee32 63bd b287 f93d a2be 11bd f40d d3bd
00000270: eaa6 33bd 90ea ce3d ea3c 44bd 45d5 05be
00000280: e196 8fbd a24a ef3d c7e3 c1bd 6628 e23d
00000290: 8207 a63d 3cad 01bd d8aa efbd 5ab7 e6bd
000002a0: 0072 02ba d2e9 d13d bacc f03d 0837 b5bd
000002b0: 68cf 383d 26d8 9c3d 2c2d 28bd 8c70 233d
000002c0: 2cb7 cbbc 89cd fdbd 84a6 cf3d c918 0f3e
000002d0: 25a7 0ebe 148a af3d 4913 afbd a0f7 e6bb
000002e0: c839 abbd 8cfb eebc 0dcf 00be c894 babc
000002f0: 04d5 8bbd 60e4 f23b 8846 ec3c 609b ffbb
00000300: 4780 fabd f0a7 30bc 9c4e febd 8a17 cb3d
00000310: d898 0ebe ca15 fabd c645 42bd 58d7 c5bc
00000320: a09b 4d3c 0ad6 e83d d04c ae3d 3098 24bc
00000330: 8eb3 0dbe 98fd 993d 2149 febd 64e8 a2bd
00000340: 1c0c 823d 4b5f 073e 842a 8bbc 4089 4fbd
00000350: 926f b0bd bc28 f5bd 10be 91bc 83a6 fbbd
00000360: b247 e63d 4a8e 56bd 3d07 9abd 232f a3bd
00000370: 7e6a 0bbd 81d7 003e 427f 913d 30de 3c3c
00000380: 56cd f6bd b403 6dbd 40d3 c43d 9f9a 9fbd
00000390: f3b2 f0bd 0a44 babd 40f5 e7bd c81a 0f3d
000003a0: 70cc 8bbc 80de 663d 443a 9fbc a117 d6bd
000003b0: 8b89 d6bd 0684 d8bd 3e74 89bd e0eb 323d
000003c0: 9098 c8bd ba3f 983d 988f b43d 9a3a f33d
000003d0: 784b 8c3c a2e1 d7bd c05d 4f3d 98af 33bd
000003e0: abd9 d4bd c0aa 9e3c ba6c 863d f5a9 f5bd
000003f0: 205b b63c 3e5b 0cbd abfe eabd 12a3 ed3d
0.08937052 -0.088074595 -0.10270053 -0.13858756 0.13252656 -0.11107072 -0.05289588 0.038252667
-0.007774487 -0.018017478 0.0058564544 -0.023739919 -0.12232181 -0.08541474 0.020620748 0.094694376
-0.08761093 0.054664046 0.111060604 0.028354362 -0.031430915 -0.12253084 0.10277499 -0.034535773
0.12384264 0.12851007 0.066813126 -0.06850416 -0.106670275 0.12316145 0.08793765 0.040035024
-0.06334168 -0.020205878 0.019622207 -0.043352604 0.1360815 -0.0919639 0.11813916 0.11820029
-0.09297312 0.03912179 -0.0039005429 -0.06455888 -0.04075843 -0.030029327 0.08466379 0.09472035
-0.1351079 0.032726943 0.03095521 0.058048263 0.018788263 -0.0039070398 -0.096232474 -0.111608855
0.023276672 -0.03628771 0.10738672 0.013577729 -0.019308485 -0.10845002 -0.093951315 -0.07230961
-0.09316544 0.015072197 0.00459598 -0.12548155 -0.0752168 0.03501624 -0.0100513995 0.10837482
-0.0012491643 -0.06864992 0.04662779 -0.03401406 -0.12503581 0.023562625 -0.036620066 -0.083952345
-0.011363089 0.033623844 -0.14012463 0.11604519 0.0044851303 -0.023862503 0.13876815 0.030743852
0.105419055 -0.13166453 0.12046786 -0.109119475 -0.09516674 0.009315759 -0.058547333 -0.11145002
0.12222339 -0.06979581 0.034407303 -0.041538015 -0.083272934 -0.09001723 0.11775069 -0.008040041
0.081456095 -0.10598543 -0.06723367 0.04843153 -0.04854442 0.11166094 0.12219174 0.0043532997
0.006175056 -0.062319867 0.08888422 0.12660562 -0.119261354 -0.12155703 -0.076475665 0.035131767
0.07175809 -0.110119924 0.055685848 -0.09779014 -0.04077848 0.067812726 -0.07539379 -0.026095338
-0.042963542 -0.011031494 0.072872445 -0.095213085 0.070849046 -0.025041245 -0.051396653 0.06294204
0.120698586 -0.057206646 -0.083970234 -0.034822807 -0.009610966 -0.052337974 -0.069078 -0.079417005
0.020688325 -0.09313731 0.032360524 -0.028914124 -0.088378675 -0.051540032 0.09631921 -0.021877736
-0.055468492 0.12184085 -0.035582192 -0.10305396 -0.043860354 0.10103333 -0.047909655 -0.13069637
-0.070112 0.11684157 -0.09467273 0.11042862 0.08106901 -0.03165935 -0.11702508 -0.1126544
-0.0004976094 0.10249676 0.117577985 -0.08848387 0.045119673 0.076584145 -0.041058704 0.039902255
-0.024867617 -0.12392718 0.10139182 0.13974299 -0.13930948 0.08571258 -0.085486 -0.007048562
-0.0836063 -0.029172681 -0.12578984 -0.022776023 -0.06827739 0.0074124783 0.028842226 -0.0078005046
-0.12231498 -0.010782227 -0.12417337 0.09916599 -0.13925493 -0.12211187 -0.047429822 -0.024150535
0.012549311 0.1136895 0.085107446 -0.01004605 -0.13838026 0.07519072 -0.12416292 -0.07954481
0.06349966 0.13219945 -0.016988046 -0.050668 -0.0861503 -0.1197066 -0.017790824 -0.12287619
0.112441435 -0.05238179 -0.07520912 -0.07967975 -0.034037106 0.12582208 0.071043506 0.011527583
-0.120508835 -0.05786486 0.09610605 -0.077931635 -0.11752882 -0.09095009 -0.113260746 0.03493765
-0.017065257 0.056364536 -0.019436963 -0.104537256 -0.10475453 -0.105720565 -0.067116246 0.04368198
-0.09794724 0.0743403 0.08816451 0.11876412 0.01712583 -0.10541083 0.050626516 -0.04386863
-0.10393079 0.01936853 0.06563707 -0.11995307 0.022260249 -0.034266703 -0.11474355 0.11603369

bias_ih_l0 f4 [200]
00000000: 22e4 a73d 4612 883d 0c78 983d 59f7 f7bd
00000010: 9655 73bd ed39 f2bd 701b 933c 8c6e d8bd
00000020: 1840 803c 3301 013e 2e53 fe3d 40ec dc3d
00000030: 8089 99ba 92f8 5fbd 848a cdbd 4f50 90bd
00000040: 6924 0c3e 48fa 833d b8b7 62bd 80ad 953d
00000050: f8c7 ea3c 3234 af3d acb7 643d b0b0 99bd
00000060: 2c4f 55bd a0cc b03c 828a c03d d187 0b3e
00000070: a0b4 c23c 089d b9bd 72a9 9d3d 18f1 b13d
00000080: 0c00 333d e08a a53b 5da6 f1bd f33f 00be
00000090: 3c1b 253d 14c9 343d b05e cf3d ccec 1d3d
000000a0: 9183 8ebd 804c 8ebd 1ac4 56bd bc6d d8bd
000000b0: 50af 413d 40ee bc3c d6f2 f43d e03f 0fbe
000000c0: 88bb b33c 2efd aabd 585a ac3d fc0d cd3d
000000d0: 92b6 e6bd 14e4 39bd 3c21 04bd 2eb8 9ebd
000000e0: fbd5 083e b76b 03be 5082 fa3c 9e9d 26bd
000000f0: e6a0 b63d 0e28 91bd 3aee ed3d c944 acbd
00000100: 8e64 9b3d a061 ba3b 6270 aebd 409b ddbc
00000110: fca3 483d 9ac6 d8bd cc13 91bd 0f59 b0bd
00000120: 8086 c13a 8091 85bc ecd6 85bd b4d6 84bd
00000130: a3d7 eabd 9e6d 5abd e88c ab3c 33c8 fbbd
00000140: 5260 30bd e479 05be 0897 9e3c 5268 f03d
00000150: b7f1 003e 4c7c 283d da96 0cbd 785f cdbd
00000160: 08de 543d f616 943d 003d c9bb 3e1f c93d
00000170: d606 b53d 123a 98bd 9020 ad3c b09d 133c
00000180: d6f6 853d e297 c7bd ae4a 8abd d00f c83c
00000190: e0e4 f0bb 92c8 f13d 8283 e83d 4094 4e3c
000001a0: 124d 0abd d33f 0e3e 1fa2 053e d029 43bd
000001b0: 276d 0b3e 885f a2bd e2cb e33d a4fc 9a3d
000001c0: 4a40 08be ce86 3fbd a004 aa3d 5293 c03d
000001d0: 6841 393d a466 07bd 0807 d13d 7848 db3d
000001e0: 6a3d e93d 1a88 08be 2013 893b b455 12bd
000001f0: e059 89bd 3f1e 0abe c4d8 3b3d 0e59 94bd
00000200: f0a4 383c 14df fdbd d256 ca3d d8b1 4e3d
00000210: f6b6 f53d 70e5 833d e64b 06be bf42 87bd
00000220: e7b4 99bd 7af3 8b3d 7e83 9c3d 74b6 61bd
00000230: 6c7b 0a3d 2269 ef3d 786b 22bd 2c17 a93d
00000240: 645f 96bc 1e4f e4bd d65b 8a3d a082 dd3d
00000250: 8854 d5bd 8042 11bb ec61 5d3d b0c6 d23c
00000260: 9ea9 99bd 360a b6bd 6b3c d2bd 40c0 eebb
00000270: 5026 9d3c 0867 31bd 27c5 b5bd 4278 9cbd
00000280: 3e43 bf3d 70be bc3d 39b1 0c3e 6eb1 f43d
00000290: b6f5 a5bd 943a 7e3d 5c4c 113d fc55 a43d
000002a0: 90d2 763d c825 f5bd 3052 e43c 8862 51bd
000002b0: dc67 d43d 31a6 f4bd 70d8 6bbd 9669 a93d
000002c0: ac3d 01be 7eff dc3d 24f8 86bc 2ed6 be3d
000002d0: a09c 003d c8f9 7c3d 9632 80bd 76e4 bcbd
000002e0: c2de 39bd 1a6b fc3d 7693 fc3d d770 083e
000002f0: 3aaf 07bd a0e4 bc3d a06c dc3d 7d34 b5bd
00000300: 00fa c1ba f9a6 02be 7d51 f5bd d0ad be3c
00000310: 4260 73bd de39 1dbd f0ac fd3c 4032 973d
0.0819781 0.066441104 0.07444772 -0.12107725 -0.059407793 -0.11827455 0.01795742 -0.1056796
0.015655562 0.12598114 0.12418209 0.107872486 -0.0011713952 -0.054680414 -0.100361854 -0.07046568
0.13685764 0.06444222 -0.05535099 0.07308483 0.028659806 0.08554877 0.055839226 -0.075044036
-0.052077457 0.021581948 0.09401418 0.13626029 0.02376777 -0.090631545 0.07698335 0.08688563
0.043701217 0.0050519556 -0.117993094 -0.12524395 0.040309176 0.044137076 0.10125482 0.038555905
-0.06958688 -0.06948185 -0.05243311 -0.10567805 0.04728633 0.023062825 0.1196038 -0.1398921
0.021940008 -0.083490714 0.08415669 0.10012433 -0.11265291 -0.045383528 -0.032258257 -0.07749973
0.13362877 -0.12834059 0.030579716 -0.04067766 0.08917408 -0.07087718 0.11617704 -0.08411557
0.07587539 0.0056879073 -0.08517529 -0.027051568 0.048984513 -0.10584755 -0.07083854 -0.086107366
0.0014764816 -0.016304731 -0.06535134 -0.06486264 -0.11466911 -0.053327195 0.020941213 -0.12294044
-0.04306061 -0.13034779 0.019359127 0.117386475 0.12592207 0.041134164 -0.03432355 -0.10027975
0.051969558 0.07230942 -0.006141305 0.09820412 0.088391945 -0.07432951 0.021133691 0.009009764
0.06541221 -0.09745766 -0.06752525 0.024421602 -0.007351503 0.11805834 0.11353208 0.012608588
-0.033764906 0.13891535 0.13050126 -0.047647297 0.13615857 -0.079283774 0.11122872 0.075677186
-0.13305774 -0.04675942 0.083016634 0.09403099 0.045228392 -0.03305687 0.10206419 0.10707182
0.11388667 -0.13333169 0.004183188 -0.035726264 -0.067065954 -0.134881 0.04586102 -0.07243548
0.011269793 -0.123960644 0.09879841 0.050462574 0.11997788 0.06440246 -0.1311489 -0.06604528
-0.075052075 0.06833549 0.07642268 -0.05510564 0.03380911 0.11689974 -0.03965327 0.08256373
-0.018356033 -0.11147903 0.067557976 0.1081593 -0.10416514 -0.0022164881 0.054048464 0.025729507
-0.07503055 -0.08888666 -0.1026543 -0.0072861016 0.019183308 -0.04331115 -0.088754945 -0.07640125
0.09338997 0.092160106 0.1373948 0.119479045 -0.08103506 0.062067583 0.035473213 0.08024213
0.0602594 -0.11970097 0.027871221 -0.051119357 0.10371372 -0.11945761 -0.057579458 0.08272092
-0.12621182 0.10790919 -0.016475745 0.09318195 0.03139937 0.061761647 -0.062596485 -0.09223263
-0.045378454 0.123251155 0.123328134 0.13324295 -0.033126093 0.09223294 0.10762906 -0.08847902
-0.0014799237 -0.12759008 -0.11978433 0.02327624 -0.05941797 -0.038385265 0.030966252 0.07382631

bias_hh_l0 f4 [200]
00000000: 328f fbbd bc12 9b3d ded2 c6bd 0010 6b3b
00000010: 5807 82bc 783f e6bc 14ee b0bd a279 8dbd
00000020: 90a9 2dbc 58a6 e8bd 7c66 c33d cd87 01be
00000030: d42b b63d 5cd1 183d 60f3 623d ece1 ae3d
00000040: b075 673c cc78 afbc 361e bc3d 667d b7bd
00000050: 40dc 353b 047f 5fbd 314a 0b3e 501a 67bc
00000060: facf bb3d b764 b1bd b07b f13c e29a d7bd
00000070: e015 ccbd 5050 413d 2bd7 053e 5a64 86bd
00000080: 1b84 02be 04be 843d 695d 023e 9ec4 b2bd
00000090: 1cc4 883d 48b1 4f3d c04d 823b dc00 2dbd
000000a0: ad0d 063e afba 07be 7e37 e3bd 7758 003e
000000b0: 9425 a6bc 082a 943c 0794 103e c9cd 8fbd
000000c0: 080f be3c 1f84 f2bd 1e0a ab3d 76e8 f53d
000000d0: 7855 3fbd 3c05 d23d 60c0 77bc 630f 0d3e
000000e0: e090 bdbc 24e1 833d 36c6 a2bd 08ae ad3d
000000f0: 5ed2 f13d 0041 07bc fa1e 88bd 806c ce3c
00000100: 3ad4 12bd b407 343d 1eed 813d 2660 ad3d
00000110: 36de b83d 40f1 d33d b851 b1bd 52bf 53bd
00000120: 4007 a03d de26 913d a093 ca3b 1483 863d
00000130: a670 02be c0ff bcbc a0c4 42bc 6efc 6dbd
00000140: 6472 613d e827 87bc f022 a9bc 10cf 66bd
00000150: 4bd9 8fbd e08c f6bd 36b6 853d 8dbe e0bd
00000160: c3cd 09be 827f 04be b968 093e ae5b dd3d
00000170: 249c 9bbc 5655 cfbd bc65 25bd 98ee d23d
00000180: 662f 9c3d fe44 51bd 8c3f 92bd 52e2 15bd
00000190: 4ed9 0ebd b83d ffbc e54c 84bd 7e31 f03d
000001a0: e638 08be 71de 0d3e 1c5e d9bd 72c8 d0bd
000001b0: 2877 a93d b03f db3d fa23 e73d dab3 d2bd
000001c0: 5645 9e3d 8aec 973d c6fd 34bd d085 56bc
000001d0: fc67 b03d 4265 e2bd b0a2 0f3d c6c0 0abe
000001e0: b820 003d 7414 dbbd 088a 9e3c 730a 01be
000001f0: 0efa fc3d 68dc 123d 94e9 a33d 714a 0abe
00000200: 2f45 073e 6807 d33d fc0b 073d b077 0d3d
00000210: 0c80 273d fe34 57bd 8ea4 60bd 2b0b 093e
00000220: 5e6c cb3d 5089 163c 1248 fb3d 9c4b 693d
00000230: 58d8 f4bd 56b0 ce3d 18a2 5dbd 9a10 f83d
00000240: 1513 d0bd c049 803d 4ee6 ecbd e3c6 debd
00000250: 2025 d9bc 080c 2bbd 60c6 a3bb 3019 183c
00000260: 7426 733d 0d26 98bd 0a09 de3d 404b 3c3c
00000270: ba6d 3bbd b1c3 063e 161b a5bd e013 0dbc
00000280: de1b 8b3d 3253 3abd f065 92bc 9b40 9dbd
00000290: 007f 063c 8f4a 0abe b032 b3bc bacc 8b3d
000002a0: 54a4 7a3d e84d ec3c e083 4fbd a648 f33d
000002b0: b61c 853d ba0f 43bd 855d 94bd d51a 073e
000002c0: d4dd cbbc cc7b 2e3d dc39 793d c458 153d
000002d0: 8edb dbbd 785c d13d c009 193b 6685 8a3d
000002e0: f6ed 06be dc0d c63d 1040 e93c f26e cebd
000002f0: 8abb f73d 603b 3f3d 6e3b c43d c006 f83b
00000300: bccb 633d 9cf4 58bd c404 cc3d 867a 0fbe
00000310: 18c4 6f3d 005d b73d ce19 0abe d25b a7bd
-0.12283172 0.07571933 -0.097081885 0.003586769 -0.015872642 -0.028106436 -0.0863916 -0.06907965
-0.010599509 -0.113598526 0.09541032 -0.1264946 0.08895078 0.037309036 0.05540788 0.08539185
0.01412718 -0.021419905 0.0918545 -0.08959465 0.0027749687 -0.05456449 0.1360252 -0.0141053945
0.09170528 -0.08661788 0.029477924 -0.105275884 -0.0996511 0.047195733 0.13070361 -0.06562109
-0.12745707 0.06481555 0.12730946 -0.08728908 0.0667803 0.050706178 0.0039765537 -0.042237148
0.13091154 -0.13254808 -0.11094569 0.12533747 -0.02028159 0.018086448 0.14118968 -0.07021672
0.023200527 -0.11841606 0.08351539 0.12007229 -0.04671237 0.10254905 -0.015121549 0.13775401
-0.02314037 0.064394265 -0.07947962 0.084804595 0.118077025 -0.008255243 -0.06646533 0.025198221
-0.035846926 0.04395266 0.06344055 0.084656045 0.090267584 0.10348749 -0.08658165 -0.05169613
0.07813883 0.070874915 0.006182149 0.0656797 -0.12738284 -0.02307117 -0.011887699 -0.058102064
0.055040732 -0.016498521 -0.020646542 -0.056349814 -0.07023867 -0.120385885 0.065288946 -0.10973845
-0.13457398 -0.12939265 0.13418855 0.10808502 -0.018995352 -0.101236984 -0.040380225 0.102994144
0.07626228 -0.051091187 -0.07141027 -0.03659279 -0.034875207 -0.03115736 -0.06459979 0.1172819
-0.13302955 0.13854386 -0.10613653 -0.10194482 0.082746804 0.10705507 0.11286159 -0.1028821
0.077280685 0.07418163 -0.04418733 -0.013093427 0.086135834 -0.1105447 0.03506726 -0.135501
0.031281203 -0.106972605 0.019352928 -0.12601642 0.12352382 0.035854727 0.08003536 -0.1350496
0.13209985 0.10304147 0.032970414 0.03453797 0.0408936 -0.05254077 -0.05484443 0.13383166
0.09932779 0.009188011 0.12269606 0.056956872 -0.11955327 0.10092227 -0.054109663 0.121125415
-0.101598896 0.06264067 -0.11567365 -0.108777784 -0.02650696 -0.04175952 -0.0049980134 0.009283349
0.059362844 -0.074291326 0.10841568 0.01149255 -0.04575894 0.13160588 -0.08061807 -0.008610696
0.067924246 -0.045489497 -0.017870873 -0.07678338 0.00820899 -0.13505004 -0.021874756 0.06826158
0.06119187 0.028845742 -0.050662875 0.11879091 0.06499617 -0.04762242 -0.072444 0.1319383
-0.02488605 0.04259853 0.060846195 0.036461607 -0.10735236 0.10222715 0.0023351759 0.06763725
-0.13176712 0.09670612 0.02847293 -0.10079755 0.12096317 0.046687484 0.09581648 0.007569164
0.055614218 -0.052967653 0.099618465 -0.14011583 0.05853662 0.08953285 -0.13486406 -0.0817181

weight_ih_l1 f4 [200, 50]
00000000: a057 4abc a0eb b0bb 9f93 103e a3a6 063e
00000010: d800 743d 94bb 2c3d 5abb b63d 1c20 8fbd
00000020: 8210 fabd c065 30bc c779 003e c43c 103d
00000030: 82c0 cfbd 9686 d0bd 58fc f4bc 50eb f63c
00000040: 3ef3 bb3d c8f1 a93d 96ae e73d 9e5b ddbd
00000050: 9839 953c 95ea 073e 90c5 09bc b00c 69bd
00000060: 09b3 f4bd 18c6 753d 70d9 58bd da7e 00be
00000070: 8035 2abb 51e0 053e 1456 c8bd 7aa3 f6bd
00000080: 7a6b 48bd 7b6b f8bd 9cbb e6bc 608c 5e3d
00000090: a05c 613c e031 c5bd 7ce2 5d3d 1478 c2bd
000000a0: f22b d73d 9c6c 3c3d 80c8 a4bd ec02 d1bd
000000b0: 8792 0a3e ace5 16bd e839 af3c 6412 b33d
000000c0: aeaa 12bd 5247 8a3d f42a 27bd 59af 05be
000000d0: fdef 043e 5630 c83d cad4 ee3d 487f d53c
000000e0: 5824 c53c a0c4 853c 0074 aa3d e0a8 9e3d
000000f0: 6ad0 9c3d f008 7a3c f7c8 bcbd bc0b 0e3d
00000100: 6a6d 84bd 4426 af3d ad01 03be ba22 0dbe
00000110: 30f5 c2bd f413 a9bd 708a 0dbe 08de a6bd
00000120: 5c84 d2bd 0e5f ef3d 1694 42bd b42c c73d
00000130: 8a23 ddbd efbc 013e 4ff3 aabd 0e0f 32bd
00000140: 3a7b f53d 30d8 8fbd f85a 09bd 78f1 e2bd
00000150: 36c1 0abd 2298 fabd 4406 dbbd fc4c b33d
00000160: 7a1e f83d 7f61 093e 6c4c 393d a03a 0bbc
00000170: 24c5 443d 3c4d cebd 00c8 bc3d b06b f1bc
00000180: 0878 f0bd 2e89 d9bd e06a f13b dc34 fcbc
00000190: c0b2 a2bc 6864 e1bc c04a 1b3b a1dd d3bd
000001a0: 52d4 ea3d 5629 17bd f54b b2bd 5a3b 823d
000001b0: 8607 bf3d c814 793d 6e98 36bd 24d2 bf3d
000001c0: 2aa3 2abd 32ab 09be 607f b63c 82ac b6bd
000001d0: 626a f43d a895 123d aeb4 0cbe 4c84 11bd
000001e0: 007f 52ba 6092 d33b 944a 993d fcc4 6d3d
000001f0: 805a 6a3b 884f b73c 393f 8dbd 2727 c8bd
00000200: 05aa 0ebe 66a7 55bd 280b 993d 6c18 64bd
00000210: f227 ef3d a259 26bd fcbb c0bd 8912 063e
00000220: 6c0c 08bd c441 afbd 2454 a8bd da8b ac3d
00000230: 90d6 ce3c 44fe 3cbd 200f b33c 20df 5e3d
00000240: 6076 a1bb 3caa 683d 4e2e 9abd fbc5 eebd
00000250: da8d c6bd 7bc2 0b3e 005f 5dba 18d8 73bd
00000260: 7452 463d 608d fbbb 501e 4fbd 626b e83d
00000270: 82a5 0abd 6132 e7bd c068 893d 60d6 48bc
00000280: 4264 a4bd b8c6 9b3d ba38 61bd f272 d53d
00000290: bed5 0cbe aa44 de3d 98cf 5fbd b7b5 f2bd
000002a0: d859 a5bd 8054 0bbd e848 163d 3423 823d
000002b0: 52c1 e43d e4bf 08be 3fd6 b6bd d49f 8fbc
000002c0: 0aef df3d a074 80bc e01c 4bbc 2abb c73d
000002d0: b021 c73d 5a3a f53d 5cac babc 47e6 013e
000002e0: 1411 c53d b884 94bd 40c0 383c 10b0 5ebd
000002f0: 82b3 a63d a069 c33d 1f93 103e 3e39 c73d
00000300: 6e11 42bd ca2f 85bd 2007 04bd 6040 be3c
00000310: fc13 97bd c4bb c33d e0f1 2e3c 303e d83c
00000320: 94aa 6abd e032 ab3c e469 cebd 36e3 00bd
00000330: 92c6 dfbd cecd acbd ce52 de3d 98d9 05be
00000340: 76b3 02bd c0f4 733c 721c 77bd 28e2 e03c
00000350: 1a01 993d aa04 3fbd 704d 81bc d877 90bd
00000360: 0eb2 3ebd ac0c c23d 5581 033e 54b1 0fbe
00000370: 5ce1 6b3d 4494 193d 9686 8a3d 0e17 c13d
00000380: a4cd 34bd 3a36 78bd 52a0 02be bb5e 0f3e
00000390: 50e7 573c 92de c83d e07d 03bc aebc cebd
000003a0: 644d acbc 6057 043c d1c3 10be c09d 5ebc
000003b0: 496a 083e 3080 0abe 60b0 fbbd 2d70 c1bd
000003c0: ee0b 833d 1ca7 a63d 68cf 103d 384e 6dbd
000003d0: 246a a9bd 70dc bf3d 5c4a 31bd 1453 703d
000003e0: 9082 9f3c 4cd2 07be 5e2f d13d 6961 99bd
000003f0: 36ad fdbd af48 aabd 3085 673c 0496 4dbd
-0.012349993 -0.0053991824 0.14118813 0.13149504 0.059571117 0.042171076 0.08922453 -0.06988546
-0.1221018 -0.010766447 0.12546454 0.0352142 -0.1014414 -0.1018192 -0.029905483 0.030141503
0.09177254 0.08298069 0.113125965 -0.1080849 0.01821594 0.1327308 -0.008408919 -0.056896865
-0.11948211 0.06000337 -0.05294174 -0.1254839 -0.002597183 0.13073851 -0.09782043 -0.120428994
-0.048930623 -0.12129875 -0.028165631 0.05433309 0.013754994 -0.096286535 0.05417107 -0.09495559
0.10506429 0.046002015 -0.08046055 -0.102056354 0.13532458 -0.036840126 0.021389917 0.08743742
-0.035807304 0.067518845 -0.040812448 -0.13055171 0.12982173 0.09774844 0.1166168 0.026061669
0.024065182 0.01632911 0.083229065 0.07747054 0.07656939 0.01526092 -0.092180185 0.03467916
-0.064661816 0.085522205 -0.12793608 -0.13782778 -0.09519422 -0.08255759 -0.13822341 -0.08147818
-0.10279152 0.11688052 -0.047504507 0.09725323 -0.10797794 0.12669729 -0.08347189 -0.04347139
0.11986394 -0.07023656 -0.03353402 -0.11081213 -0.033875667 -0.12236048 -0.106945544 0.08754918
0.12115188 0.13416098 0.045238897 -0.008497864 0.04803957 -0.10073325 0.092178345 -0.029470295
-0.11741644 -0.10621868 0.007367477 -0.030786924 -0.019860625 -0.027513698 0.0023695678 -0.10345007
0.11466278 -0.036904655 -0.08705894 0.06358977 0.09327607 0.060810834 -0.044578962 0.09366253
-0.04165951 -0.13444212 0.022277534 -0.08919622 0.119343534 0.035787255 -0.13740799 -0.03552656
-0.0008029789 0.0064566582 0.07484928 0.058049187 0.0035759509 0.02237679 -0.068968244 -0.09773093
-0.13932045 -0.052161597 0.07472831 -0.055687353 0.11677541 -0.040612824 -0.09410855 0.13093008
-0.03321497 -0.08557466 -0.082191736 0.08425112 0.025248796 -0.046140924 0.021857798 0.054412007
-0.0049274415 0.056802973 -0.07528363 -0.116588555 -0.09695025 0.13648407 -0.0008444637 -0.059532255
0.048418477 -0.0076767653 -0.050566018 0.11348607 -0.033849247 -0.11288906 0.067094326 -0.012258142
-0.08026935 0.07606262 -0.05498574 0.10422315 -0.13753411 0.108529404 -0.054641336 -0.118510656
-0.08073777 -0.034016132 0.036690623 0.06354371 0.111696854 -0.1335445 -0.08927583 -0.017532267
0.10934265 -0.015680611 -0.012397021 0.097524956 0.09723222 0.1197402 -0.022787265 0.126855
0.09622398 -0.072518766 0.011276305 -0.054367125 0.08139707 0.09541631 0.14118622 0.09727715
-0.047379903 -0.06503256 -0.032233357 0.023224056 -0.073768586 0.09557298 0.010677785 0.02639684
-0.057291582 0.020898283 -0.10078791 -0.031466685 -0.10926546 -0.08437692 0.108556375 -0.13071287
-0.03190943 0.014889896 -0.060329862 0.02745159 0.07470913 -0.046635307 -0.015783995 -0.070541084
-0.046556525 0.09475073 0.12842305 -0.14032489 0.057587966 0.037494913 0.067639515 0.094282255
-0.044141427 -0.06059859 -0.1275647 0.1400098 0.013177708 0.09808077 -0.008025616 -0.100945815
-0.021032996 0.008077472 -0.14137198 -0.013587415 0.13321795 -0.13525462 -0.122895 -0.09445224
0.0639876 0.08137342 0.035354048 -0.057935923 -0.08272198 0.09368217 -0.043283805 0.05867298
0.019471437 -0.13263816 0.10214113 -0.07489283 -0.12386553 -0.083146445 0.0141308755 -0.050191894

weight_hh_l1 f4 [200, 50]
00000000: 84c9 1e3d c2e9 863d f42a a33d ad11 0b3e
00000010: f092 0fbc ee07 57bd a056 02be 2a59 f73d
00000020: 3d60 d8bd 10fd 713d 90dd 503c 0a5b 25bd
00000030: a232 ee3d c2f4 1cbd ca26 86bd 3732 073e
00000040: 4bb6 10be b9df 8abd da23 73bd 8d01 94bd
00000050: 068a e23d 324b 0fbd 0659 a6bd 10f3 7e3c
00000060: ed79 f7bd 98c6 823c 324a ee3d 9451 2a3d
00000070: 628f f33d 0037 793c 89aa afbd 710e d0bd
00000080: c080 2f3d 20af 62bc 702d ad3d 6432 3d3d
00000090: 787b 643d 73cb 9dbd 581d c1bd 01bd 0d3e
000000a0: 20b0 33bd 0c59 b0bd 9c64 cfbd c0cf ffbd
000000b0: 7ee8 833d 6068 c03b 0d28 003e d07d b7bc
000000c0: 99fa 073e 20f5 e7bb 0cea 41bd 9275 e43d
000000d0: d0bd d13c 28bb 913d 46ba 61bd 605c 213c
000000e0: 7677 51bd 9c5a 0b3d 408c 313d 7c66 22bd
000000f0: f891 68bd 1f27 093e 0089 db3d becc f1bd
00000100: 5043 e83c 8c56 1a3d ad79 013e a040 e1bc
00000110: 0c0f 563d f26b 7cbd d489 f4bd 70a5 cf3c
00000120: 9c05 b43d 14a6 88bd 9bc5 01be 6a72 c7bd
00000130: 089d 053d 30f8 973d 2b56 08be 86d2 cfbd
00000140: bad0 75bd 307a 47bc 3ad8 c83d c767 edbd
00000150: f4b0 dd3d caa7 ab3d 2839 ce3c d173 103e
00000160: d430 bebd 8547 9cbd 0042 2eba cc28 853d
00000170: 5056 74bd 3c66 0ebe 0edb fc3d 5df5 0bbe
00000180: 8820 03be 3555 edbd 2c0f 05bd 5841 fdbd
00000190: 14b7 c7bd 0423 41bd 5c5a 593d 987c c9bd
000001a0: a6e7 b9bd 8a7f 2bbd 1653 61bd 5b65 0abe
000001b0: 881e 58bd 8845 393d 72fc 7cbd a605 e43d
000001c0: 765a d3bd b061 3dbc e0dd 66bc e7a0 e3bd
000001d0: 0cb8 f1bd da6e b6bd ee6c eebd d010 8fbc
000001e0: 767f e53d 6ad1 9bbd 11f9 0e3e e297 e6bd
000001f0: 85cc 013e 8068 89ba c0a0 873b 75ff 90bd
00000200: 87dc 9abd 68a1 cc3c 5490 cf3d 5e7b 8abd
00000210: 3ab0 e43d b9ca 9cbd 4ae2 903d 00fd 183b
00000220: e467 cc3d 58c9 cf3c f8a7 d03d 70b0 aebd
00000230: 7086 9d3d e0b9 d2bb d03e b13d bfb5 f8bd
00000240: dfbb d7bd 24f9 bc3d 1052 453d dae0 8abd
00000250: 1692 fd3d 000d bc3d c8e8 fe3c 9aa9 68bd
00000260: 242b 82bd 82bc d7bd 6cd4 a3bc 918e 9bbd
00000270: 4248 13bd c4b0 eebd c0bd 73bb 1283 f93d
00000280: ac1d 8b3d 5a7d 32bd 24a7 e8bc f4e7 603d
00000290: 2043 d7bb 7cc8 423d 9a2e f4bd 4527 9abd
000002a0: c8f0 693d 2c67 52bd 6072 5ebc b4c1 90bc
000002b0: 4457 7c3d 4033 d43b 6e45 05be c2da bb3d
000002c0: a556 06be a1c7 063e 6bc7 0f3e 802d f83b
000002d0: 546e 543d bd1d 083e 80a9 d53d 8096 a0ba
000002e0: fc88 e5bd c0e4 ffbc 0220 e23d 7e2c ec3d
000002f0: a0b0 8bbb fa09 fe3d 1407 f1bd e0dd 5c3c
00000300: b89e e6bc fccd 1fbd f23f ed3d 007f 2b3a
00000310: aadf b3bd d035 893d 4478 0d3d eb30 b3bd
00000320: 64d5 f6bd fbf5 87bd b038 34bd 520b a3bd
00000330: c4df 2f3d d81a 1bbd 125c c03d 40d4 d0bc
00000340: 605c 553d 3c62 ccbc e803 b33c d454 b43d
00000350: 524c d0bd 004d b8bc 1e38 99bd 23a8 09be
00000360: eb93 e3bd d071 8f3d aa67 d53d 7c26 6b3d
00000370: f57e 9bbd 74f9 003d a0e9 82bb 5c77 8dbc
00000380: f39d 103e 00b6 7aba 6c2c 7b3d e431 6cbd
00000390: fee7 0fbe 050b 00be 0258 84bd 445d 3b3d
000003a0: 260b f5bd b4b1 1b3d ebf9 0d3e a8e1 a53d
000003b0: 7afe e6bd 606e 0fbd f88d c7bd d09e 8f3d
000003c0: f286 51bd 00f7 25bc b6a8 893d 4074 81bd
000003d0: 509a 2abc 62b0 9c3d d954 003e 5019 5b3c
000003e0: 8081 b6bb f465 babd 161f b1bd 1823 ac3c
000003f0: cde3 003e 2e19 99bd 20a3 3f3c 007e 813d
0.0387664 0.065875545 0.07967177 0.13580962 -0.00876306 -0.052497797 -0.12728357 0.120775536
-0.10565231 0.05907923 0.012748137 -0.040370025 0.11630751 -0.038319357 -0.06550367 0.13202749
-0.14132039 -0.06780953 -0.059360363 -0.07226858 0.11061482 -0.03498382 -0.081224486 0.01556088
-0.12083802 0.015963838 0.116352454 0.041581705 0.118925825 0.015210867 -0.08577449 -0.101590045
0.042847395 -0.013835698 0.08455932 0.046190634 0.05578181 -0.077048205 -0.09429425 0.1384163
-0.043869138 -0.08610734 -0.101266116 -0.12490797 0.06440829 0.0058718175 0.12515278 -0.02239886
0.13279189 -0.0070787817 -0.047342345 0.11155237 0.025603205 0.07115775 -0.055109285 0.009848684
-0.051139317 0.03402196 0.043346643 -0.039648518 -0.05677983 0.1339383 0.1071949 -0.118066296
0.02835241 0.037680194 0.12644072 -0.027496636 0.052260444 -0.061626382 -0.11940351 0.025347441
0.087901324 -0.06672302 -0.12673037 -0.097386196 0.03262046 0.07420385 -0.1331412 -0.10147576
-0.06001351 -0.012175128 0.09806867 -0.115920596 0.10824767 0.083816126 0.025173739 0.1410668
-0.09286657 -0.07630829 -0.0006647408 0.06501922 -0.059652627 -0.13906187 0.12346469 -0.13667817
-0.12805378 -0.115885176 -0.032485172 -0.12365979 -0.09751716 -0.047152534 0.05306469 -0.098382175
-0.090773866 -0.041869678 -0.055010878 -0.13515227 -0.052763492 0.045232326 -0.061764188 0.1113389
-0.103199884 -0.011558935 -0.014090985 -0.11114674 -0.11802682 -0.08907862 -0.116418704 -0.017464072
0.11205952 -0.07608302 0.13962199 -0.11259438 0.12675674 -0.0010483414 0.004139036 -0.070799746
-0.075615935 0.024979308 0.1013495 -0.06761812 0.11166425 -0.07655854 0.07074411 0.002334416
0.09980753 0.025364563 0.101882875 -0.085297465 0.076916575 -0.0064308494 0.08654559 -0.1214404
-0.105338804 0.09227207 0.048173964 -0.06781168 0.12381379 0.09182167 0.031116858 -0.05680237
-0.06355885 -0.10534002 -0.019998752 -0.07595552 -0.035957582 -0.11654809 -0.0037191957 0.12183203
0.06792769 -0.043576576 -0.028400011 0.054908708 -0.006569281 0.047554478 -0.11922951 -0.07527021
0.057114393 -0.051367924 -0.013577074 -0.01767049 0.06160666 0.006475836 -0.13014767 0.09172584
-0.1311899 0.1316209 0.14040916 0.0075737834 0.05186303 0.13292594 0.1043272 -0.0012251884
-0.11207768 -0.031237006 0.11041261 0.11531924 -0.0042629987 0.12404247 -0.11768928 0.0134806335
-0.028151855 -0.0390148 0.11584462 0.0006542057 -0.08782895 0.06699717 0.034538522 -0.08749565
-0.1205242 -0.06638714 -0.043999374 -0.079611436 0.04293801 -0.037867397 0.09392561 -0.025491834
0.05209005 -0.024949186 0.021852449 0.08805242 -0.10170807 -0.022497654 -0.07481407 -0.13443045
-0.111121975 0.0700413 0.10420163 0.05740975 -0.075925745 0.031487897 -0.0039951354 -0.017268829
0.14122753 -0.0009563863 0.06132166 -0.057664767 -0.14053342 -0.12504204 -0.06462099 0.045743242
-0.11965017 0.038011268 0.13864867 0.08099681 -0.11279006 -0.03501737 -0.09743875 0.07012713
-0.051154085 -0.01012969 0.06721632 -0.06321001 -0.0104127675 0.0765083 0.12532367 0.013372734
-0.005569637 -0.09101477 -0.08648507 0.021012828 0.12586899 -0.07475506 0.011696607 0.06322861

bias_ih_l1 f4 [200]
00000000: 7b07 013e 0a02 b83d 1afd de3d a54a cebd
00000010: 2988 0e3e 2ff0 e7bd 785d d83c 3f35 b7bd
00000020: 7242 6bbd 80d2 0b3c 0a68 e7bd 4cfd 34bd
00000030: c590 0ebe e89f cabd d86c 79bd 0032 00bc
00000040: 3d63 f3bd 2a5e e13d 3ce8 353d 1e18 73bd
00000050: b0e6 7f3c 78da ee3c 285c ce3c da73 d73d
00000060: dc9f 483d 1cb4 4c3d eade fc3d a0c2 d3bb
00000070: d09c 5b3c caf1 b03d 5442 a0bd 382b f4bc
00000080: b4b8 a9bc 3a65 ee3d ac40 733d b05f ff3c
00000090: 720e 75bd 8220 bb3d b26e febd c003 bd3c
000000a0: c039 cdbc 9099 7fbc a02b ab3c a744 02be
000000b0: f55a 9cbd 4086 e13c 2623 883d a7de 08be
000000c0: 9ba2 0e3e d095 ec3c 801e df3b b697 02bd
000000d0: 8299 db3d 50b1 d03c 20a3 b43c 4d2f ffbd
000000e0: 6955 8cbd e9b8 0ebe e093 56bd e25b c53d
000000f0: 08f0 573d e809 a2bd d0db 603d bc1e 0abd
00000100: fa7f b33d 7c6a a2bc d64a dcbd c635 91bd
00000110: 7a55 f83d 2086 2cbc e2d1 3fbd 9c0b 8abd
00000120: aa60 a9bd e45b 04be b9aa 103e c0c6 93bb
00000130: 28d1 fbbc 8afd 933d 183f f03c 540a 35bd
00000140: a04a 9a3d 6bff cabd d056 6fbc 423e ffbd
00000150: f096 083c f23e 7dbd 38ab 55bd 8e43 a53d
00000160: 1a7e c13d a0f7 a13b caa6 c53d 671f 023e
00000170: 081f c23d df9c 8bbd ccfe 673d bd58 e6bd
00000180: fdd4 01be 8072 bfbc 8cb5 b2bd d0d3 0c3c
00000190: eaff 08bd 24b8 533d 189a 7a3d 04e3 fcbc
000001a0: 2080 943d 006c 3c3d c8c6 a63c 577e bcbd
000001b0: e600 fb3d 4424 f0bd e069 00bd 762c ef3d
000001c0: 20d2 e83b 1ce0 1ebd a0a7 a7bb d8b4 803d
000001d0: a0df eabd 20b6 eabb 4044 13bd 005c 843a
000001e0: c363 0d3e d45f 08bd a8f1 dcbc aca7 273d
000001f0: 34c0 2e3d bf2f 0c3e 70d2 4d3d eec6 853d
00000200: e863 283d 0591 adbd b291 aabd e002 273c
00000210: 7a96 943d b2d3 f3bd 14e6 d53d 00fe f6b9
00000220: 3c1c d6bd 3601 e1bd 517f 10be 4862 eabd
00000230: 70ed bc3c 4035 243d f4d6 063d 7c3b 5e3d
00000240: 508b 4fbc 2496 3e3d d404 0b3d 1065 66bc
00000250: 2372 103e 3497 923d ce6e b23d 5a7c bdbd
00000260: 80aa ac3d da1e 45bd f0d3 a13c 807f 9aba
00000270: d06b 01bc 3227 a93d f099 c03d bf33 05be
00000280: dcdd 943d d0cd d4bc bf6a 093e b492 27bd
00000290: c846 253d 620b 86bd b5b0 cdbd 3b7b 9abd
000002a0: ac5d 363d a4f6 2e3d 2439 3d3d 7cd8 24bd
000002b0: 92e4 77bd a82c c43d 20c0 8dbc a650 cd3d
000002c0: 30ad 953d e813 ffbc 8219 c1bd f058 eb3c
000002d0: 501c 123d e8e4 f13c 9c91 693d b272 f43d
000002e0: 5604 00bd eb7f 0dbe c04c f7bd 6800 b6bd
000002f0: 50d1 dd3d 0c20 083d 4089 153b 78b2 abbc
00000300: 004e 84ba 4e60 8d3d 928a 55bd 8000 163b
00000310: 788b edbc 565b febd 167d f9bd 40c0 afbd
0.1260051 0.08984764 0.10888119 -0.10072831 0.13919128 -0.11325108 0.026411757 -0.08945703
-0.057436414 0.008534074 -0.11299141 -0.044186875 -0.13922413 -0.09893781 -0.060894817 -0.007824421
-0.118841626 0.110042885 0.04441093 -0.05934917 0.015618965 0.029156908 0.025190428 0.10520144
0.04898058 0.049976453 0.12347205 -0.00646241 0.013404086 0.086398676 -0.07825151 -0.029805765
-0.020717956 0.11640401 0.059387848 0.031173557 -0.05982823 0.0913706 -0.12423457 0.023073077
-0.025051951 -0.015600577 0.020894825 -0.12721501 -0.07634536 0.027529836 0.06647329 -0.13366185
0.13929217 0.02888003 0.006809056 -0.031882964 0.10722639 0.025475174 0.02205044 -0.12460194
-0.06852228 -0.13937725 -0.05238712 0.09636666 0.052719146 -0.07912046 0.05489713 -0.033720717
0.08764644 -0.019826166 -0.10756461 -0.070903346 0.12125678 -0.010530025 -0.04683102 -0.067404956
-0.0827039 -0.12925678 0.14127626 -0.004509777 -0.030739382 0.07226093 0.02932696 -0.044199303
0.07533765 -0.09911998 -0.0146081 -0.124630466 0.008336768 -0.061827607 -0.05216524 0.08069526
0.0944788 0.0049428493 0.09650953 0.12707292 0.09478575 -0.0681703 0.056639478 -0.11247394
-0.12678905 -0.023370028 -0.087260336 0.008595422 -0.033447184 0.051689282 0.06118211 -0.030869968
0.072510004 0.046001434 0.020358458 -0.09203785 0.12256031 -0.11725667 -0.03135097 0.11678402
0.007105127 -0.038787946 -0.005116418 0.06284493 -0.11468434 -0.0071628243 -0.03595376 0.0010098219
0.13807587 -0.033294514 -0.0269707 0.04093139 0.042663768 0.13690089 0.050249517 0.065320835
0.041110903 -0.08474926 -0.083285704 0.010193557 0.072552636 -0.11905612 0.104442745 -0.0004711002
-0.10454604 -0.10986559 -0.14111067 -0.11444527 0.023062438 0.040089846 0.03291984 0.054255947
-0.012667492 0.046529904 0.03394015 -0.014062181 0.1410604 0.07157746 0.087125406 -0.09252234
0.08430958 -0.048125125 0.01975438 -0.0011787266 -0.00789924 0.08259429 0.09404361 -0.13008021
0.07268879 -0.025977045 0.13419627 -0.04091139 0.040350705 -0.0654514 -0.1004347 -0.075430356
0.044522926 0.042715684 0.04619707 -0.040245518 -0.060520716 0.0957883 -0.017303526 0.10025148
0.073084235 -0.031137422 -0.09428693 0.028728932 0.035671532 0.029528096 0.05702363 0.11935939
-0.031254135 -0.13818328 -0.12075186 -0.08886796 0.10830939 0.033233687 0.0022817403 -0.020959124
-0.0010094047 0.06903134 -0.052134104 0.0022888482 -0.028997168 -0.12419765 -0.121820614 -0.08581591

bias_hh_l1 f4 [200]
00000000: 24b7 583d be37 e8bd 701b 333d 9c0d c83d
00000010: 3033 74bd a095 13bc a822 b93c ee63 c5bd
00000020: 10ab 0d3c 862d b23d 0078 153d a027 fbbd
00000030: 94f7 98bc d051 263c ea2d 0abe f0e4 743c
00000040: 3ae7 a9bd 5ca2 be3d a034 593c 36e1 65bd
00000050: ec6b 813d 4005 9cbb c85b d2bd b817 25bd
00000060: 5847 f2bd f47a 843d 7d07 95bd f8f7 c13d
00000070: 88b0 803c 1c69 25bd 00e2 ebba 006b 973a
00000080: 646a ca3d c4d7 08be 0011 d63b 4070 b5bc
00000090: 4c26 acbd 409f 033b 105a d93c 6352 aebd
000000a0: e4fc 8cbc a4a3 833d ff26 073e f2b7 ed3d
000000b0: d4fd a73d a84e 9b3c 16cc 29bd f6dd 4bbd
000000c0: f04e 62bc eacf ec3d 817a b1bd 35b2 023e
000000d0: b40f 14bd aabc fcbd 7086 7b3d fe9d f9bd
000000e0: bbf9 c4bd f23e 04bd 38de fa3c 129e cb3d
000000f0: 9ce2 403d 4b57 c1bd 03e3 0cbe 6fb2 eabd
00000100: 9694 50bd 982d a33d 5cc2 cf3d a05d 5c3c
00000110: 90f0 03bc 267e 0dbd dc10 e0bd a74d 053e
00000120: 247f 813d 32c7 e93d 31ea 0fbe db8e 033e
00000130: 658a 033e 6cc8 8dbc 8029 d6bb 269d b8bd
00000140: 401a d4bb 99fd 0c3e a623 cbbd 0e8e 0bbe
00000150: 6078 1a3c 4695 ed3d d0d3 8ebd fe31 bbbd
00000160: 46c1 dcbd ee7d 62bd c884 493d c010 f3bb
00000170: fef4 fdbd 68a6 bf3c 80ec fdbb a751 d9bd
00000180: 5016 abbd ec9d 913d e02b f2bd 38d4 0fbe
00000190: 58d6 ebbd 657a 0c3e d9c6 96bd e8b3 e83c
000001a0: 8d88 0c3e 8079 da3d 6821 f6bc dc9f 61bd
000001b0: 559c 0e3e 903d abbd baeb 9ebd 0b0e 0c3e
000001c0: fce0 0bbe 91d5 a0bd 4052 afbb c40b adbd
000001d0: 08a5 223d 6462 a23d 9884 7fbd 7edf e93d
000001e0: 40fd 9f3d 24bf fdbc 7a68 8d3d ac04 d3bd
000001f0: 8291 a7bd a0a8 b3bb 3213 b83d 4e55 d53d
00000200: 3a71 65bd c42e 91bc 6a8d aebd 8e7e 95bd
00000210: 57c3 abbd 4675 23bd e2b9 ebbd b49d 113d
00000220: b21d e53d ea01 d33d 3806 0abe 58f4 f5bd
00000230: a055 d03d 742e febd a09a ca3b 3bc7 89bd
00000240: 0855 e03c 9848 6fbd 995f 083e 7cab 033d
00000250: 206f 1f3d 30a1 74bc 5fa1 013e 2633 e23d
00000260: 7ced b43d 24e1 74bd a809 05bd 8c69 083d
00000270: 7cf9 2abd 4831 d93c 66c0 8c3d e8e3 c93d
00000280: 88a8 2bbd 30e2 993c 836e 053e 4083 a3bd
00000290: 4805 ac3c d00b 23bc 2832 a63c 2e0a dc3d
000002a0: 4c1f 9b3d 4c43 8dbd 00c8 1a3b e888 b73d
000002b0: b108 033e b7c8 06be 00b8 fbbb 3894 643d
000002c0: 261f 833d c400 553d 1a54 843d 70d8 57bd
000002d0: 589a 99bc a466 6c3d de7d e93d b065 6c3c
000002e0: b210 ba3d 2080 423d 2c95 41bd 7083 d63d
000002f0: 9043 413c 2235 ef3d b0ec 59bc 4a98 febd
00000300: e0fb 00bd 04ec 133d c03c 97bc 284a 253d
00000310: 4863 be3c 88b7 1f3d 7484 efbc aae3 973d
0.05290903 -0.11338757 0.04372734 0.09768221 -0.05961913 -0.009007841 0.022599533 -0.09638201
0.0086467415 0.08700089 0.036491394 -0.12263417 -0.018672742 0.010151342 -0.13494077 0.014947161
-0.08296056 0.09308311 0.013257176 -0.05612298 0.063194126 -0.004761368 -0.10271412 -0.040305823
-0.11830014 0.06468764 -0.07276819 0.094711244 0.015709177 -0.040383443 -0.001799643 0.0011552274
0.09883574 -0.13363558 0.0065327883 -0.022148252 -0.08405742 0.0020083934 0.026532203 -0.08511808
-0.017210431 0.06427696 0.1319847 0.116073504 0.08202711 0.018958405 -0.041454397 -0.049772225
-0.0138127655 0.11563094 -0.08665944 0.12763293 -0.03614779 -0.12340672 0.061407506 -0.12188338
-0.09617945 -0.03228659 0.03062354 0.09942259 0.04709111 -0.09440478 -0.13758473 -0.11459815
-0.050922953 0.07967681 0.10144493 0.013450056 -0.00805296 -0.034544133 -0.10940716 0.13017903
0.06323078 0.114149466 -0.1405418 0.12847464 0.12845762 -0.017307483 -0.006535709 -0.09014349
-0.006472856 0.13768615 -0.09918909 -0.13628408 0.009428114 0.11600737 -0.06973994 -0.09140395
-0.107790515 -0.055295877 0.049198896 -0.0074177682 -0.12400244 0.023394778 -0.0077491403 -0.10611277
-0.08353865 0.07110199 -0.11824775 -0.14045799 -0.11515492 0.13718565 -0.07362146 0.028406098
0.13723965 0.106677055 -0.030045226 -0.055084094 0.13926823 -0.083613515 -0.07759805 0.13677232
-0.13660043 -0.078532346 -0.005350381 -0.0844951 0.039708167 0.07928923 -0.06238231 0.11419581
0.078119755 -0.030974932 0.06904693 -0.103036255 -0.0818205 -0.005482748 0.08988036 0.10416661
-0.056016184 -0.017722495 -0.08523066 -0.07299529 -0.083868675 -0.039906763 -0.11510064 0.035550788
0.111873046 0.103030995 -0.13478935 -0.120094955 0.10172582 -0.12411204 0.0061829835 -0.06727453
0.027384296 -0.05841884 0.13317718 0.032145962 0.038924336 -0.014931008 0.12659214 0.11044912
0.08834359 -0.059785023 -0.032479912 0.033303782 -0.041741833 0.026512757 0.068726346 0.09857923
-0.04190877 0.018784612 0.13030438 -0.07984018 0.020998612 -0.009951547 0.020287588 0.10744129
0.07574329 -0.068976015 0.0023617744 0.0896166 0.12796284 -0.13162504 -0.0076818466 0.055805415
0.064024255 0.052002683 0.064613536 -0.052696645 -0.018750355 0.057715073 0.114009604 0.014428541
0.09085216 0.04748547 -0.047261402 0.104742885 0.011795893 0.11680056 -0.01330106 -0.124313906
-0.031490207 0.036113754 -0.018461585 0.040353924 0.0232407 0.03899339 -0.029237963 0.0741647

weight f4 [1, 50]
00000000: b0b8 853c 44cf 203d c0d8 2fbc 34a6 fabc
00000010: 346a 6dbd 6ae7 7dbd 44b7 593d e22c 44bd
00000020: 766d 06be b0b5 f4bd 2e7d 9a3d 2e70 9cbd
00000030: 9034 2a3c 0607 24bd 908f 31bc dc46 183d
00000040: ea5a 2ebd 103a 2ebc 9b16 bcbd de47 c43d
00000050: dbdf aabd 8630 863d 30fb f0bd 5d86 013e
00000060: 5aa5 a93d 54e8 73bd b494 1b3d 4026 56bc
00000070: 24ab 5d3d 2031 083c 80a7 22bb 555d 063e
00000080: 6d7a 8dbd 3523 10be feca 00bd 00f3 e5bc
00000090: fc5b 853d 7ed7 bb3d 2473 abbc 40bd f33b
000000a0: 20b3 1f3d 9993 fdbd 45e1 9fbd 4ce4 503d
000000b0: d4f3 023d e273 b93d 44f1 033d 9529 a7bd
000000c0: 77ef 0ebe 0467 903d
0.016323417 0.039260164 -0.01073283 -0.03059683 -0.05796261 -0.06198827 0.05315329 -0.047894366
-0.13127694 -0.11948717 0.075434074 -0.07638584 0.010388508 -0.04004576 -0.010837451 0.03717695
-0.04256717 -0.01063396 -0.09183999 0.0958402 -0.08343478 0.06552224 -0.1176666 0.12648912
0.082834914 -0.059547737 0.03798361 -0.013070643 0.05411829 0.008312494 -0.0024819076 0.13121541
-0.069081165 -0.1407593 -0.03144359 -0.028069973 0.06511685 0.09171961 -0.020928927 0.007438332
0.038989186 -0.12381668 -0.07806639 0.05099897 0.031970814 0.09055306 0.03221251 -0.08162228
-0.13958536 0.07050899

weight f4 [10, 1]
00000000: 3e50 533f d95f 043f ad2d 96be c7dc b73e
00000010: 0013 283f 8500 163f d2e8 233f 235c 54bf
00000020: c8e3 2fbe f8d1 4f3e
0.82544315 0.5170875 -0.29331723 0.35910627 0.6565399 0.5859454 0.6402713 -0.8295309
-0.17176735 0.2029494

bias f4 [10]
00000000: 4e31 30bf d581 c2be a66b dc3e aa3d 63be
00000010: bbf3 04bf 21c3 e5be edc9 00bf 117b 773f
00000020: e92f 9e3e 0fac 86bd
-0.68825233 -0.3798968 0.4305088 -0.22191492 -0.51934403 -0.44875434 -0.50308114 0.9667216
0.30895928 -0.06575786
