process/mlruns/850336352745823845/models/m-7a624b92a5b640b38814b1250c356f8c/artifacts/data/model.pth (torch, 140050 bytes, 11 tensors)

weight_ih_l0 f4 [200, 10]
000000 08 ee 9d bc 00 51 cd 3a cc 9a 45 3d 91 d4 d7 bd
       -0.019278541 0.0015664399 0.04824333 -0.10538591
000010 ba f4 9d bd dc f6 3a bd e0 7c c1 bb 56 c2 4b bd
       -0.077126935 -0.04564558 -0.005904779 -0.04974588
000020 da 1d d3 bd 9b 66 01 3e e6 be ef 3d 12 9a 57 bd
       -0.10308428 0.12636797 0.11706333 -0.052637167
000030 35 75 06 3e 08 7c 9e 3c 50 ec 5c 3d 6f f5 0c be
       0.13130648 0.019346252 0.053936303 -0.137655
000040 38 2e e7 3c 7c 42 ad 3d e5 74 08 3e 20 5e 06 bc
       0.028220281 0.084599465 0.13325842 -0.008201152
000050 cc 1c e2 bd c4 ad c6 3d 4c be fd bd 58 42 e2 bc
       -0.11040649 0.09701112 -0.12389812 -0.027619526
000060 f4 33 b9 bd de fa 80 bd 30 d1 36 bd 74 55 21 3d
       -0.090431124 -0.06297849 -0.04463309 0.039388135
000070 e2 67 81 3d 54 2a 5e 3d c7 53 88 bd 6a a8 a5 3d
       0.06318642 0.054239586 -0.06656604 0.08088763
000080 b8 fe 95 3d 36 13 d3 3d 50 b2 9e 3c 66 b5 ce bd
       0.07323974 0.103063986 0.019372135 -0.10093193
000090 ac 58 45 3d 63 14 07 3e 9c da 7c 3d 7d 77 06 3e
       0.048180267 0.1319137 0.06173192 0.13131519
0000a0 98 fc fc 3c 92 72 d8 3d 96 78 1d bd e0 68 c0 3d
       0.030882165 0.105687276 -0.038445078 0.09395003
0000b0 00 af ff bb 91 d1 e5 bd ae c9 fd bd 0a 80 8d bd
       -0.007802844 -0.11221612 -0.12391983 -0.06909187
0000c0 9a d9 c5 bd 66 4a d4 bd 2c 5c 9e 3d 3c 01 42 3d
       -0.09660645 -0.10365753 0.07732424 0.04736446
0000d0 34 73 da 3d 26 4d 9a 3d fc 90 36 3d 50 55 9f bc
       0.106665045 0.07534246 0.04457186 -0.01944986
0000e0 0c b0 48 bd ea eb 0c be 9e ec e3 bd 50 9a 5d bd
       -0.048996016 -0.13761869 -0.111291155 -0.054102242
0000f0 58 54 39 3d 00 22 73 3d 43 51 9a bd 0e 97 b0 bd
       0.045246452 0.059358597 -0.07535031 -0.086225614
000100 90 09 05 3d 6e 49 6e bd f6 fc 2b bd de 33 ce 3d
       0.032479823 -0.058175497 -0.04198929 0.10068487
000110 2e cb b0 3d 38 37 e4 bc 84 0d 79 3d 3c c8 70 3d
       0.086325034 -0.027858362 0.060803905 0.05878471
000120 90 0b 66 3c 4a 9c cc 3d f6 c5 d8 bd 6d bc 07 3e
       0.014040843 0.09990747 -0.10584633 0.13255472
000130 8c 43 40 bd b2 9a d9 3d b4 67 e6 bd 96 0f cd bd
       -0.046939418 0.10625209 -0.112502486 -0.100127384
000140 09 49 fa bd 2f b2 89 bd a4 64 be bd 55 a5 8b bd
       -0.122209616 -0.06723439 -0.092965394 -0.06818644
000150 9c 0d 09 3d 82 a9 f3 3d 34 12 0b 3d b8 64 1e 3d
       0.033460245 0.118975654 0.033952907 0.03867027
000160 68 41 b0 bd da 95 f9 3d c4 80 bd 3d db 93 8d bd
       -0.08606225 0.12186785 0.09253076 -0.06912967
000170 82 93 c4 bd f3 dc f3 bd 64 db 1c bd 2a 49 0d be
       -0.095984474 -0.11907377 -0.038295165 -0.13797441
000180 72 7f 82 3d e2 eb ba 3d 6e 33 a7 bd c0 56 80 3b
       0.063719645 0.09127022 -0.08164106 0.0039165914
000190 60 04 af bc 20 66 44 3c e6 ba 0f be 82 87 c2 bd
       -0.02136439 0.011987239 -0.1403614 -0.09498502
0001a0 da a6 24 bd bf c6 92 bd 2c e8 dc bc 20 ce 9e 3c
       -0.040198185 -0.07166814 -0.026966177 0.019385397
0001b0 18 e6 b5 bd 70 af 81 3d 00 ac 12 ba dc f9 4f 3d
       -0.088817775 0.0633229 -0.0005595088 0.050775394
0001c0 57 e4 0c 3e 65 4e 03 3e a4 19 0c bd 88 99 87 3c
       0.1375898 0.12822874 -0.03420414 0.016552702
0001d0 a2 cf 76 bd 14 56 49 3d c8 49 ba 3c 2a bb e4 3d
       -0.060256608 0.049154356 0.02274026 0.11168511
0001e0 d0 7a 43 3c a0 a1 d6 3c 46 58 f0 bd ba 47 d7 bd
       0.011931136 0.026200116 -0.11735587 -0.10511728
0001f0 00 d8 93 3a 00 a9 ee 3b ba 73 4e bd f8 b3 c4 bc
       0.0011279583 0.00728333 -0.050403334 -0.024011597
000200 ce e8 03 bd 58 f4 10 3d fc b4 3c 3d 15 ad 8b bd
       -0.03220444 0.035389274 0.046071038 -0.06820122
000210 50 6b ce 3d 39 54 01 3e 0e fc 89 3d 4c 51 bd bd
       0.10079062 0.12629785 0.06737529 -0.09244022
000220 50 cb 1e 3c 2c 74 0a be 20 b1 75 3c 4c b4 d3 bd
       0.009692028 -0.13520879 0.014995843 -0.10337123
000230 f8 ba d8 3c c8 84 87 3c fd eb ee bd 64 f0 c2 3d
       0.026456341 0.016542807 -0.11666105 0.09518507
000240 e0 53 1a 3d f4 33 52 3d f0 d0 3d 3c 72 8a 3d bd
       0.037677646 0.051319078 0.011585459 -0.04627461
000250 d2 ff ee bd 92 4e ce 3d 36 19 ff 3d b0 b0 8a bc
       -0.116698876 0.1007358 0.124559805 -0.016929954
000260 12 14 af 3d 8f 31 0e 3e f1 03 0a be 9c f6 d3 bd
       0.0854875 0.13886093 -0.13478066 -0.103497714
000270 9a 44 f3 bd c9 94 c1 bd 93 58 e4 bd 38 8c 25 bd
       -0.11878319 -0.09452207 -0.11149707 -0.040416926
000280 ea 53 b9 bd ea be ef 3d 64 13 97 3d 4b e0 03 3e
       -0.090492085 0.11706336 0.07376745 0.1287853
000290 46 86 aa bd 7e e4 a5 bd 4e b9 97 bd 4a a4 d6 3d
       -0.08326392 -0.08100222 -0.07408391 0.104805544
0002a0 89 1a 01 be 68 d4 9b 3c fc c7 3a 3d 3c ac d7 3d
       -0.12607779 0.019022182 0.045600876 0.10530898
0002b0 49 8f 02 3e 44 47 8d 3d 88 de c0 bd ae 81 f9 3d
       0.12749971 0.068983585 -0.094174445 0.121829376
0002c0 66 da 34 bd 52 12 e5 bd e9 2b 0b be fe 35 b2 bd
       -0.044153593 -0.11185135 -0.13590969 -0.087017044
0002d0 c0 85 25 bd 70 9b 0a be 79 24 07 3e 02 42 e2 bd
       -0.040410757 -0.13535857 0.13197507 -0.11047746
0002e0 98 7a ce 3c b7 45 0a 3e bc 70 d1 bd 9e 9c da 3d
       0.025204942 0.13503157 -0.102265805 0.106744036
0002f0 a2 e8 b7 3d 24 d0 cc bc 50 87 57 3c dd 18 e2 bd
       0.08979918 -0.025001593 0.01315482 -0.110398985
000300 f8 6a 21 3d c1 06 0c 3e 7e 11 db bd 70 fb ce 3c
       0.039408654 0.13674451 -0.10696696 0.02526638
000310 80 1b 0b 3c b6 3d b1 3d ec b3 b5 bc e5 58 93 bd
       0.008490443 0.086543486 -0.02218052 -0.0719469
000320 62 3d d3 bd 0b c2 a8 bd 7e 7f 46 bd 60 e9 4c bd
       -0.10314442 -0.08240136 -0.04846143 -0.05002725
000330 30 eb 26 bc 08 95 04 3d 40 3c e5 3b 30 ad fd bc
       -0.010187909 0.03236869 0.0069957078 -0.030966371
000340 44 5e c7 bc 63 c6 0d 3e 60 c3 ec bb 3c 7e b2 bc
       -0.024336942 0.1384521 -0.007225439 -0.021788709
000350 00 d0 01 b8 84 15 58 bd 0c 7e c7 3d 20 71 aa bb
       -3.094971e-05 -0.052754894 0.097408384 -0.005201474
000360 00 a6 0c 3d e2 50 99 bd 50 2b 71 3d f0 19 53 bc
       0.034337997 -0.0748613 0.058879197 -0.012884602
000370 86 9c f3 3d 10 d6 05 be a2 22 b3 3d c8 5c 8f 3c
       0.11895089 -0.1306994 0.0874684 0.017500296
000380 64 30 3c bd 50 c4 91 3d 80 86 95 3d 2f 2e 80 bd
       -0.045944586 0.07117522 0.073010445 -0.06258809
000390 58 d4 e1 3c 9e 44 9f bd 30 bb 81 3d 24 a7 9c 3d
       0.027567074 -0.077767596 0.06334531 0.07649067
0003a0 b2 97 8a bd 98 5e 21 3d 28 3d ca 3c e6 f6 0c be
       -0.06767215 0.039396852 0.024687365 -0.1376606
0003b0 54 dd 3e 3d 00 35 a7 3c 94 26 a6 bd bc 30 fd bd
       0.046597794 0.020411015 -0.08112827 -0.12362811
0003c0 b7 4d bd bd 54 8c e1 bd be 80 aa 3d 80 77 f5 3a
       -0.092433386 -0.110130936 0.08325337 0.001872763
0003d0 0c 1b a3 bd 32 33 6c bd 40 89 36 bc 9a dd df 3d
       -0.07964143 -0.05766601 -0.011141121 0.10930939
0003e0 da 3a fa 3d 32 ef ce 3d 76 f5 bc bd 02 02 a2 3d
       0.12218256 0.10104217 -0.092265055 0.07910539
0003f0 3c f6 bc bc fe 0a fb 3d 60 28 d4 3c b4 f6 a1 bd
       -0.023066632 0.12257956 0.025898159 -0.07908383

weight_hh_l0 f4 [200, 50]
000000 da 6c 0c bd b0 f3 fd bc 61 47 10 3e 1c ac 42 bd
       -0.034283496 -0.030999988 0.14089729 -0.047527418
000010 48 09 7f 3d 3e 24 95 3d 00 9a 0f 3c 48 46 0c bd
       0.06226471 0.07282303 0.008764744 -0.034246713
000020 53 8d 0e be 66 4a d8 3d bc e9 7a 3d fb 5e c4 bd
       -0.13921098 0.105610654 0.061258063 -0.095884286
000030 40 a0 96 3d d0 ca eb 3c ea 01 f6 3d d4 bc d3 3d
       0.07354784 0.028783232 0.12012084 0.103387505
000040 b0 fc 1f 3c b8 49 57 3d f0 b9 22 3d 76 70 78 bd
       0.009764835 0.052560538 0.039728105 -0.060654126
000050 46 7c 84 bd 00 92 2b bb 5c d8 59 3d 92 9e af 3d
       -0.06469016 -0.0026179552 0.053184852 0.08575167
000060 18 e7 e8 3c f4 91 9c bc 3e a0 cd bd 68 4c c2 bc
       0.028430507 -0.019112565 -0.100403294 -0.023718074
000070 92 dc db 3d c4 06 a8 3d 34 34 bf bd 00 1a 06 3a
       0.1073543 0.082044154 -0.09336129 0.00051155686
000080 10 8e d6 3d 92 f4 b1 bd 7c 10 52 3d 90 ad 1d 3d
       0.10476315 -0.08689226 0.051285252 0.0384956
000090 66 92 99 3d 86 7e b3 3d 45 35 fb bd 88 82 93 3c
       0.074986264 0.08764367 -0.1226602 0.018006578
0000a0 20 5d eb bb da 76 bb bd 66 ee d0 bd ec c1 0b 3d
       -0.007182732 -0.091535285 -0.10201721 0.034120485
0000b0 2a e2 b5 bd d0 74 d2 bd 60 75 f6 bc 78 eb 8b bd
       -0.08881028 -0.102761865 -0.030085266 -0.068320215
0000c0 52 6f ac 3d c2 77 d7 3d 7b 31 8c bd d8 61 de bd
       0.0841967 0.10520889 -0.06845375 -0.10858506
0000d0 28 6a 21 3d 0a 55 7c bd f0 61 16 bc a4 b2 ff bc
       0.03940788 -0.061604537 -0.009178624 -0.031213112
0000e0 42 95 f8 3d 22 c3 c4 3d 7c 4d 6c bd 4e e5 7a bd
       0.12137844 0.09607531 -0.057691082 -0.06125384
0000f0 90 99 21 bc 86 4c a8 bd 94 1e 60 3d 50 95 a4 3d
       -0.009863272 -0.08217721 0.05471666 0.080362916
000100 0e 73 e6 bd 0a cf 8e 3d 69 88 b8 bd bf 88 10 3e
       -0.11252414 0.06973083 -0.09010393 0.14114664
000110 32 9c f3 3d 78 4f ac bd da cc b5 3d 80 23 5f 3b
       0.11895026 -0.08413595 0.08876963 0.003404826
000120 74 da 20 bd b8 5b dd 3c d2 2c 41 bd 18 e8 d9 3c
       -0.039270833 0.027021274 -0.047161885 0.026599929
000130 5e cd 0c bd 34 59 07 be 58 93 d7 3c eb 11 0b be
       -0.03437554 -0.13217622 0.026315376 -0.13581054
000140 f2 de e6 3d 00 16 0a bb dc 1e 00 3d bf 90 00 be
       0.11272992 -0.0021070242 0.03127943 -0.12555216
000150 e0 34 97 bd c8 77 ce bd e3 9c 01 be 10 1c ba bd
       -0.07383132 -0.1008144 -0.12657504 -0.09087384
000160 d8 a7 bd bd e2 df a8 3d c1 b6 bf bd 86 f0 fc 3d
       -0.09260529 0.08245827 -0.093610294 0.12350564
000170 fa d4 46 bd e8 bc de 3c 80 be 5f 3c fe 90 c1 bd
       -0.048542954 0.027189687 0.013656259 -0.09451483
000180 e0 84 07 bc e0 fd ca bb 60 5f 5e bc 1e fa da 3d
       -0.008271426 -0.006194815 -0.013572544 0.10692237
000190 80 90 ff 3b ec a0 3f 3d 4c ec 46 bd 80 e3 9d 3a
       0.007799208 0.046784326 -0.048565194 0.001204595
0001a0 e4 71 ee bd 8c 7e 24 bd 23 9d 10 be 38 a0 f1 bd
       -0.11642817 -0.040159747 -0.14122443 -0.117981374
0001b0 df 50 85 bd 37 f2 b2 bd 05 ac fc bd f5 2f 02 3e
       -0.065095656 -0.08737605 -0.123374976 0.12713607
0001c0 bc 38 26 bd 74 65 0b bd 39 fc 08 be d8 64 da 3c
       -0.04058145 -0.0340323 -0.13377465 0.026659414
0001d0 fa 3f 54 bd 9a a7 cb 3d 36 b0 b7 3d 50 92 47 3c
       -0.051818825 0.09944077 0.089691564 0.01218088
0001e0 8c 9b c5 bd 4c de 35 3d 18 e6 bd 3d 50 33 04 be
       -0.09648809 0.044401452 0.092724025 -0.12910199
0001f0 ee e1 9f 3d fd 6f 0e 3e fa e7 e9 3d d6 39 e1 bd
       0.078067645 0.13909908 0.11421199 -0.109973595
000200 74 76 8e bc 34 8a 54 3d 98 1e c6 3c e2 a2 80 3d
       -0.017390467 0.051889613 0.02418451 0.062810674
000210 46 16 e9 3d 00 ac 29 b9 30 f5 7d 3d 4e 6a 99 bd
       0.113812014 -0.00016181171 0.062001407 -0.07490979
000220 30 96 1c bc 85 80 06 3e c4 de 24 3d f0 eb d6 3d
       -0.009557292 0.13134964 0.04025151 0.1049422
000230 6e dd 84 3d 82 f2 75 bd 80 7a ca bb 5d e4 94 bd
       0.06487547 -0.060045727 -0.006179154 -0.07270119
000240 3a 83 8a 3d 87 00 8f bd 2e 2c bf 3d 8a 5e a3 bd
       0.06763311 -0.069825225 0.093345985 -0.07977016
000250 18 cf 82 3d 98 64 6f bd 24 b2 c0 bd 5c 7f 17 3d
       0.06387156 -0.058445543 -0.09408978 0.036986694
000260 d0 b1 1e 3c e3 9f f9 bd 1a 2a b6 bd 02 db ee 3d
       0.0096859485 -0.12188699 -0.08894749 0.11662866
000270 be 06 10 be 41 ce e2 bd 00 d4 10 3d e0 ad a8 3d
       -0.14065072 -0.11074496 0.03535843 0.08236289
000280 12 29 8a 3d 41 4c 04 3e da 1d 0a bd c0 34 42 3c
       0.06746115 0.12919714 -0.033719875 0.011853397
000290 9e d7 80 bd ab 2a 10 3e e4 3c b7 3d 00 9d e3 bc
       -0.06291126 0.14078777 0.08947161 -0.027784824
0002a0 34 84 f7 bd c4 4b b0 bd e0 9d d2 3c 0d 0d 92 bd
       -0.120857626 -0.08608201 0.025710046 -0.071313955
0002b0 72 fc 85 3d 50 30 28 3c 60 03 87 bc 44 8f 69 3d
       0.06542291 0.010265425 -0.016481102 0.057021394
0002c0 b6 9b 84 3d 00 71 84 bc 46 f4 c9 bd 43 25 01 3e
       0.06475012 -0.016167164 -0.098610446 0.1261187
0002d0 2e b4 fd 3d c0 d4 4b bc 10 fc 7f 3d 42 8d e7 3d
       0.12387882 -0.01244086 0.062496245 0.1130624
0002e0 50 bc f3 3c cc 46 0f bd 5d 31 08 3e 00 62 1a 3b
       0.02975288 -0.034979627 0.1330008 0.0023556948
0002f0 88 85 ad 3d 60 d8 ed 3c 00 6b 6c bb e0 00 ee bb
       0.08472735 0.02903384 -0.003607452 -0.007263288
000300 90 04 31 3c 76 bc 51 bd aa b4 f2 3d f9 af a0 bd
       0.01080431 -0.05120512 0.11850865 -0.07846064
000310 46 0f 05 be 06 5a 57 bd 44 f7 a1 bd c8 a2 b5 3c
       -0.12994108 -0.052576087 -0.0790849 0.022172347
000320 a0 a4 d5 bb de b6 e8 3d f8 3b 89 bc 0c 09 11 bd
       -0.006519869 0.11363004 -0.016752228 -0.03540902
000330 bb 37 0c be b2 e3 c4 bd a0 0b ff bc 74 b7 bf 3d
       -0.13693134 -0.09613742 -0.031133473 0.09361163
000340 80 02 c6 ba 9c 0a 3c 3d d7 bb 0d be 18 92 d8 bc
       -0.0015106946 0.045908555 -0.13841186 -0.02643685
000350 db 26 0e 3e fc e0 d3 3d 80 bd ea 3a 93 f3 8b bd
       0.1388201 0.10345647 0.0017909259 -0.068335675
000360 14 e0 c8 3d 72 91 f5 3d fe 27 84 bd 66 a4 b1 3d
       0.098083645 0.11990632 -0.064529404 0.08673935
000370 80 ec d9 ba 4e 0e cb 3d f8 e5 bc bc 6c b4 94 3d
       -0.0016626269 0.09914838 -0.023058876 0.07260975
000380 4c 45 c2 3d f4 4d 55 bd 5e 1b 26 bd 46 f0 6c bd
       0.094858736 -0.052076295 -0.040553443 -0.05784633
000390 2a cc bb 3d 2a a2 ee 3d f8 a4 8b 3d 78 62 de bd
       0.091698006 0.11652024 0.06818575 -0.10858625
0003a0 fe ce 80 3d a6 8c e4 3d c4 d5 b2 bc 94 1d 57 3d
       0.062894806 0.11159639 -0.021830447 0.052518442
0003b0 f4 3f cb 3d 14 f8 c5 bd da 31 ae 3d 23 2a 0e be
       0.099243075 -0.09666458 0.08505602 -0.13883261
0003c0 22 b6 a2 3d 62 5c 8e bd bc ef dd 3d bc 50 09 be
       0.07944895 -0.069512144 0.10836741 -0.13409704
0003d0 c0 01 ce 3b 15 bd 10 be c5 28 06 3e 9c de b7 bc
       0.0062868297 -0.14134629 0.1310149 -0.022445016
0003e0 70 51 a8 bd c6 47 e9 3d a4 00 2a bd 34 a9 98 3d
       -0.08218658 0.11390643 -0.041504517 0.07454148
0003f0 c0 82 d7 3b ef f4 03 3e 88 78 b1 bd 14 aa eb bc
       0.006576866 0.12886404 -0.08665568 -0.028767623

bias_ih_l0 f4 [200]
000000 fe 6a 1b bd 0f e5 ce bd d4 9a 33 bd 28 c7 70 3d
       -0.037943833 -0.10102283 -0.043848827 0.05878368
000010 a0 75 12 bc 7a 82 fe 3d 4c 03 14 3d 1e b9 b2 bd
       -0.008939177 0.1242723 0.036135957 -0.087267146
000020 34 eb bc bc 4e 8e b9 3d 4a 96 b6 3d e5 b0 0e be
       -0.023061372 0.090603456 0.08915384 -0.13934667
000030 5f 75 ec bd f8 6d 72 3d 15 bf 0a 3e 40 e1 59 3c
       -0.11545824 0.059186906 0.13549455 0.013298333
000040 97 2a 01 be c4 f0 0b be 79 74 07 3e f6 e2 da bd
       -0.12613903 -0.13666064 0.13228025 -0.106878206
000050 60 9a 96 3c 99 9f 09 3e d0 fb 23 3c 32 d7 52 bd
       0.018384159 0.13439788 0.010008767 -0.051474757
000060 54 ec 7f 3d 18 0a 94 bc f4 bf 82 3d 38 00 d2 bd
       0.06248124 -0.01807122 0.063842684 -0.10253948
000070 e4 4e 93 bc 17 d0 fc bd d0 e8 c3 3d 40 f0 21 3c
       -0.017981954 -0.123443775 0.0956589 0.00988394
000080 e7 95 10 3e e2 74 85 3d 00 0d ac bb 46 47 dd bd
       0.14119683 0.06516434 -0.005250573 -0.1080461
000090 a0 bf 8e 3d 50 06 50 3d 3e b5 f5 3d e9 83 fa bd
       0.06970143 0.05078727 0.1199746 -0.12232191
0000a0 50 ee 0e bc c0 f8 0f 3b 2c 80 20 3d f8 8c 7a bd
       -0.00872381 0.0021968335 0.039184734 -0.061169595
0000b0 c0 5a 25 3b 8a 46 ea bd 5e b5 ff bd 9c 08 ed bd
       0.0025231093 -0.114392355 -0.12485765 -0.11573908
0000c0 00 f5 a2 ba a4 d9 cd bd a6 b6 de 3d 80 c6 a3 3d
       -0.0012432635 -0.10051277 0.10874681 0.07996845
0000d0 1c 1f 03 3d 8e cb b9 3d 78 e7 12 3d 6c 6f 21 bd
       0.03201209 0.09072028 0.035865277 -0.0394129
0000e0 40 49 dd 3c 4c 16 a6 bc a4 43 db 3d d4 17 99 bd
       0.027012467 -0.020274304 0.10706261 -0.07475248
0000f0 a7 83 00 3e e0 01 9d 3d 0c 30 b8 3d c0 0b db 3d
       0.12550221 0.07666373 0.08993539 0.106956005
000100 48 fc ad 3d d5 8b b6 bd ac d4 cb bc 07 46 06 3e
       0.084953845 -0.089133896 -0.024881683 0.13112651
000110 09 88 bb bd 98 2d 35 3d 0a fc ad bd 53 f0 03 3e
       -0.09156806 0.044232935 -0.08495338 0.12884645
000120 1a 56 eb 3d c1 2f fa bd 26 7e aa bd f0 10 2e 3d
       0.11491032 -0.122161396 -0.08324842 0.04249662
000130 93 20 0b 3e 40 da a9 3d 84 d0 8d 3d f2 4f 8c 3d
       0.13586645 0.08293581 0.06924537 0.06851186
000140 1a e2 e0 3d 62 e1 fa 3d 82 fc d1 bd 3c cd 50 3d
       0.109806255 0.122500196 -0.1025324 0.050976977
000150 08 14 b1 3c d2 ed 86 3d f4 c0 eb bd 42 2c a2 3d
       0.021615997 0.065883294 -0.11511412 0.07918598
000160 5b 89 0f be 7c e8 2b 3d c4 e0 6d 3d f8 f7 fa bc
       -0.1401724 0.04196976 0.05807568 -0.030635819
000170 c0 2d d1 3d 03 1f 06 3e 9a 6d c2 bd 10 df c8 bd
       0.10213804 0.13097768 -0.09493561 -0.09808171
000180 5c 60 37 bd e0 23 43 bc af 65 b5 bd 54 58 d3 3d
       -0.04476963 -0.011910409 -0.08857285 0.10319582
000190 50 44 ab 3c ea 57 6e bd 7c 96 e1 bd 6a 38 94 3d
       0.020906597 -0.05818931 -0.11015031 0.07237323
0001a0 63 b3 a9 bd aa 66 4a bd 89 83 04 3e 8e fc de 3d
       -0.082861684 -0.049414314 0.12940802 0.10888015
0001b0 ac 0c ec bc 0c 03 de bd 73 49 b0 bd 60 1e ae bb
       -0.028814636 -0.10840425 -0.08607759 -0.0053136796
0001c0 70 91 03 be e0 44 7f bc 59 1a 98 bd 91 39 e5 bd
       -0.12848449 -0.015580386 -0.074269004 -0.111926205
0001d0 22 e4 fc 3d 06 f1 fe 3d 5e 0e d4 bd f2 6e e7 3d
       0.123482004 0.12448315 -0.10354303 0.11300458
0001e0 41 0d bd bd 32 08 e7 3d 80 fb 20 3b 93 a5 10 be
       -0.092310436 0.1128086 0.0024563968 -0.14125662
0001f0 65 cd 9c bd 08 02 78 3d 90 e2 ac bc 88 2f 06 3d
       -0.076563634 0.060548812 -0.021104127 0.032760173
000200 d2 6e fa bd 24 a0 93 3d d3 1f d3 bd 38 06 bd 3d
       -0.122281685 0.07208279 -0.10308804 0.09229702
000210 20 18 dd bc 57 ad 07 3e 48 d3 ff 3c fe 20 c7 bd
       -0.026989043 0.13249718 0.031228676 -0.0972309
000220 36 90 a5 bd 77 fe 01 3e e4 fa d1 bc 7a 6b f4 3d
       -0.08084147 0.12694727 -0.02563233 0.11934562
000230 80 81 48 bb 72 cf ac 3d b2 05 02 be 8b 6a 09 3e
       -0.0030594766 0.084380046 -0.12697485 0.13419549
000240 d0 6f 2a bc 0e 37 b1 3d 40 52 da bb 80 14 38 3d
       -0.010402635 0.08653079 -0.006662637 0.044941425
000250 d1 e8 04 be e0 eb ce 3c 78 1a 57 3d 4f cc 8f bd
       -0.12979437 0.025258958 0.052515477 -0.07021391
000260 23 17 06 3e 9c e5 5b 3d 34 60 ad bd 3c 4e 86 3d
       0.13094763 0.05368577 -0.08465615 0.06557891
000270 44 09 ae 3d 2e 1a ae bd 28 a3 57 3d 9a d4 c1 bd
       0.08497861 -0.08501087 0.052645832 -0.09464379
000280 ac cb da 3d 96 6e b1 3d aa 15 b7 bd 48 ee d7 3c
       0.106833786 0.08663671 -0.08939679 0.026358739
000290 ec 68 00 be 55 2a b5 bd e2 dc 82 3d c4 0c 09 bd
       -0.12540025 -0.08845965 0.06389786 -0.03345944
0002a0 98 3d 1b 3d e0 7f 35 3d f8 8c 08 3d ca aa 24 bd
       0.037900537 0.044311404 0.033337563 -0.04020194
0002b0 c7 94 81 bd 02 d1 0b bd f0 2a 6a 3c 10 a0 3a 3d
       -0.06327205 -0.034134872 0.014292464 0.045562804
0002c0 02 83 b0 bd 79 99 02 be fc d5 6e 3d b2 4c f9 3d
       -0.08618738 -0.12753858 0.05830954 0.121728316
0002d0 60 74 bf 3b 00 3d b2 bc fa a5 8d bd 58 e2 7f bd
       0.0058427304 -0.021757603 -0.06916423 -0.062471718
0002e0 ff 89 90 bd 4a ab e1 bd 5b 23 06 be 40 00 ce bd
       -0.07057571 -0.11018999 -0.13099425 -0.100586414
0002f0 a0 4c d4 3d 1c 77 af bc c0 86 d2 3c 6c 3d 76 3d
       0.103661776 -0.0214191 0.02569902 0.06011717
000300 34 02 13 3d 72 f2 02 be 8e f5 9b 3d 00 86 54 bd
       0.035890773 -0.12787798 0.07615195 -0.051885605
000310 a4 29 76 bd d2 bd bc bd 82 60 de 3d ba 20 33 bd
       -0.060098305 -0.09215893 0.10858251 -0.043732382

bias_hh_l0 f4 [200]
000000 c2 bd 54 bd 28 a0 c2 3c ec 37 b7 bd 64 91 61 3d
       -0.05193878 0.02375801 -0.08946213 0.055070296
000010 d2 d5 c6 3d 12 bc a3 bd 69 7c 0f be 50 6a 47 3d
       0.09708752 -0.07994856 -0.14012302 0.048685372
000020 cc 7a cf 3d 10 ff e7 3c 71 11 cb bd b0 09 09 3c
       0.101308435 0.028319865 -0.09915436 0.008364126
000030 18 5b fd bc 3b 8d 07 be d6 60 f7 3d ac d2 23 3d
       -0.030927226 -0.13237469 0.12079017 0.039995834
000040 fa f2 ec 3d 20 88 5e 3d da 45 ba bd 14 02 2d bd
       0.115697816 0.054329038 -0.090953544 -0.04223831
000050 e4 f6 c8 3d f8 f0 19 3d 98 bf c2 bc bf 4b d1 bd
       0.09812716 0.03758332 -0.023773 -0.102195255
000060 f6 6f 07 be d4 bf 97 bd 92 d0 9e 3d 1e 7c 07 be
       -0.13226303 -0.07409635 0.077546254 -0.1323094
000070 c8 a0 35 3d e4 3c b5 3d 28 45 1a bd 60 ce c2 bc
       0.044342786 0.088495046 -0.03766361 -0.023780048
000080 be e9 e5 bd 78 6f 95 bc 2f 0e e7 bd 38 9e 94 3d
       -0.112262234 -0.018241629 -0.11282002 0.0725674
000090 30 37 85 bd 66 f1 e8 3d 47 cf d1 bd c0 1b d6 bb
       -0.06504667 0.11374168 -0.10244613 -0.00653407
0000a0 13 fc 96 bd 8c 12 f5 bc 04 3e c3 3d 69 55 ed bd
       -0.07372298 -0.02991607 0.09533313 -0.11588556
0000b0 d8 66 50 3d 22 a2 89 bd e4 7d af bd 1b e8 91 bd
       0.05087933 -0.067203775 -0.085689336 -0.07124349
0000c0 70 c5 1a 3d 8f a8 a0 bd 30 f0 7d 3c 20 f3 89 3d
       0.037785947 -0.0784465 0.01549916 0.067358255
0000d0 94 0b cd 3d e7 31 91 bd 04 7f da 3d 80 80 61 bd
       0.10011974 -0.07089596 0.106687576 -0.055054188
0000e0 b8 f7 2d 3d c0 20 17 3d 74 2a 6f bd e0 ed c3 bb
       0.04247257 0.036896467 -0.058390096 -0.0059792846
0000f0 d6 b6 39 bd 10 41 8e bc 63 4e 06 be c6 5e e1 3d
       -0.04534038 -0.017365009 -0.1311584 0.11004405
000100 a8 30 c7 bc 6a a9 d4 3d 08 df 64 3d 30 83 64 3c
       -0.024315193 0.10383876 0.05587676 0.013947293
000110 50 ca cb bd c7 45 0d be e0 d5 ce bd 73 f5 86 bd
       -0.099506974 -0.13796149 -0.10099387 -0.065897845
000120 b1 b9 e6 bd b4 1f 95 bc 8e e9 9c 3d 61 c3 08 3e
       -0.112658866 -0.018203594 0.076617345 0.13355781
000130 af 7c 08 3e e4 75 67 bd e6 f7 9a 3d 9c 6c 72 3d
       0.13328813 -0.056508914 0.07566814 0.05918561
000140 64 78 91 bd ce e1 d9 bd 80 16 98 3c 70 8c df bd
       -0.07103041 -0.10638772 0.018565416 -0.10915458
000150 6b 6b 0d 3e d3 fa 0a 3e b8 4e 81 3d 55 53 09 3e
       0.13810508 0.13572244 0.063138425 0.13410695
000160 00 32 32 bb e4 79 bc 3d 68 be 6c 3d c5 ec b3 bd
       -0.0027190447 0.09202936 0.057798773 -0.087853946
000170 c4 fe 6d 3d bc a9 19 bd 5c c8 20 3d e0 83 2b 3c
       0.05810429 -0.037515387 0.039253578 0.010468453
000180 c6 3c 99 bd be 73 91 3d 38 ec 9f 3d 00 e5 ab ba
       -0.07482295 0.07102154 0.07808727 -0.0013114512
000190 bf 5a d1 bd 77 b9 09 3e f8 b9 72 3d 24 d8 be 3d
       -0.102223866 0.13449655 0.059259385 0.09318569
0001a0 65 4b 0a 3e 00 e6 03 be 7a 5e b0 3d 3c 09 5e 3d
       0.13505323 -0.12880707 0.0861177 0.054208025
0001b0 93 3c 80 bd 90 8c 16 3d 3a ef 93 bd 00 b3 b8 bc
       -0.062615536 0.036755145 -0.07223363 -0.022546291
0001c0 0b ad 10 3e 00 9f 2f bc aa 72 d3 3d 48 9b db 3d
       0.1412851 -0.010719061 0.10324605 0.10722977
0001d0 8e e9 c0 3d 00 f5 14 bc 10 bf 5e bc c2 40 f3 bd
       0.09419547 -0.009091616 -0.013595358 -0.11877586
0001e0 84 bd bb bc 24 18 be 3d 06 92 95 3d 7a 65 81 3d
       -0.022917517 0.09281948 0.073032424 0.06318183
0001f0 36 50 b7 3d d6 e6 87 3d 60 02 d0 3b 1a fd 8c 3d
       0.08950846 0.06635825 0.0063479394 0.06884213
000200 0d 10 a2 bd d0 36 68 bc 00 1e 98 bc a3 3b e3 bd
       -0.07913218 -0.014173225 -0.018568993 -0.11095359
000210 70 1e 87 3c 30 7a b2 3c 65 b4 07 3e c1 69 9a bd
       0.016494006 0.02178678 0.13252409 -0.07539702
000220 66 54 fa 3d 1e 0f d7 bd 08 f0 78 3d c6 48 29 bd
       0.12223129 -0.1050093 0.060775787 -0.041329168
000230 f0 b8 8a 3d 34 85 05 be e6 71 92 3d 98 75 96 bc
       0.06773555 -0.13039094 0.07150631 -0.01836662
000240 d3 b2 08 3e 00 be e9 39 90 63 7b bd 52 d2 59 bd
       0.13349466 0.00044582784 -0.061374247 -0.053179093
000250 04 57 cf bd ba 9c 20 bd 8a 1b ad 3d 85 a0 0f be
       -0.10124019 -0.039211966 0.08452518 -0.14026077
000260 70 79 c4 3c b2 e8 f2 bd b6 6b b3 3d ba 31 e6 3d
       0.023983687 -0.11860789 0.087607786 0.11239953
000270 d0 de a6 3c 01 79 c3 bd 90 90 95 3c 00 3d 85 bb
       0.020369917 -0.09544564 0.01825741 -0.0040661097
000280 b6 4a f6 3d 7c f2 c5 bd ee a6 9a 3d d5 da 0b be
       0.12025969 -0.09665391 0.075513706 -0.13657697
000290 40 32 41 3b d4 91 e8 bd 40 b8 7c 3d 98 79 98 bd
       0.0029479414 -0.113559395 0.061699152 -0.07445067
0002a0 a2 5c 04 be ec 57 67 bd 3c f9 1e 3d 28 03 76 bd
       -0.12925962 -0.056480333 0.038811907 -0.060061604
0002b0 50 74 77 3c 0b ef 9b bd 7c 42 8f bc 66 fa b6 bd
       0.015103415 -0.07613953 -0.017487757 -0.089344785
0002c0 2d 24 f9 bd cd 3d 8e bd 46 94 7f bd 78 23 d3 3d
       -0.12165103 -0.06945381 -0.062397264 0.103094995
0002d0 f6 0a e0 3d e4 bb 29 3d b8 46 b6 3c 63 4d aa bd
       0.10939591 0.041438952 0.022250518 -0.083155416
0002e0 97 f7 dc bd b6 f4 8d 3d 88 f2 ea bd 44 5b b1 3d
       -0.107894115 0.069314405 -0.114720404 0.08659986
0002f0 d6 c6 97 3d f2 a9 7f bd f0 3d e4 bc 20 fe d7 bd
       0.07410972 -0.06241793 -0.027861565 -0.10546517
000300 c0 52 09 bd c8 93 32 3d 40 12 a6 bb 20 a6 f5 bc
       -0.033526182 0.043597966 -0.0050680935 -0.029986441
000310 b4 51 fe bd f6 9b 3f bd c0 c8 6e 3d ff 96 0b 3e
       -0.124179274 -0.046779595 0.05829692 0.13631819

weight_ih_l1 f4 [200, 50]
000000 80 bf 52 3d 49 69 09 be 4e d1 82 3d e9 69 10 be
       0.05145216 -0.1341907 0.06387578 -0.14102902
000010 32 3b e5 3d b1 86 0b be 41 fe 0c 3e f0 f8 9f 3d
       0.11192931 -0.136256 0.13768865 0.07811153
000020 10 21 0f 3c 1f b3 0c be a3 e3 ed bd 30 6a b2 bd
       0.00873591 -0.13740204 -0.11615684 -0.0871166
000030 79 53 c4 bd 00 d4 cb bc 8e 08 fa bd 1e af fb 3d
       -0.09586234 -0.024881363 -0.12208663 0.1228926
000040 80 4c 0b 3b 98 fb ea bd 1c 9a f7 bc 2e 9d ea 3d
       0.0021255314 -0.11473769 -0.030224852 0.11455761
000050 0f 93 84 bd c6 b5 74 bd 4e ca d9 bd 8c 82 fc bd
       -0.06473362 -0.059743665 -0.1063429 -0.12329587
000060 f3 94 83 bd 3a 42 12 bd 7b 29 06 be e0 e8 17 3c
       -0.06424894 -0.03570769 -0.13101761 0.00927183
000070 18 c9 10 3d 9b a0 0f 3e 34 62 3c 3d 9e ef fc bd
       0.035348028 0.1402611 0.04599209 -0.12350391
000080 30 94 32 bd 0a f1 61 bd c8 b8 ab 3d 34 14 b2 3d
       -0.043598354 -0.055161513 0.083848536 0.0869526
000090 b2 c1 37 bd 9e 6e c5 3d 87 db f0 bd 2a 37 b8 3d
       -0.044862457 0.09640239 -0.117606215 0.08994897
0000a0 36 a0 b4 3d 04 c3 43 3d e2 54 ea bd 78 e5 be 3c
       0.0881962 0.047793403 -0.11441971 0.023302779
0000b0 8c 6a b1 3d 76 17 93 bd 00 cd 11 3c 66 e2 39 bd
       0.086629 -0.07182209 0.008898973 -0.045381926
0000c0 c8 ea fd bd 86 3e 32 bd 40 f4 95 3b ce b5 ee 3d
       -0.123982966 -0.04351666 0.004576236 0.1165577
0000d0 78 9d 0c be 3b d0 02 3e 58 83 ef 3c fc b7 1c 3d
       -0.13731945 0.12774746 0.029237434 0.0382614
0000e0 27 06 05 3e d2 c0 b3 3d b0 3a 0f be 90 c2 47 bd
       0.12990628 0.08777012 -0.13987231 -0.048769534
0000f0 90 77 4a 3c f7 30 90 bd 3e 58 03 be 3a 03 0c be
       0.0123576075 -0.07040589 -0.1282663 -0.13673106
000100 14 f0 f8 bc 16 a2 c0 bd 84 ac ba 3d 7c 0e a2 3d
       -0.030387916 -0.094059154 0.09114936 0.07912919
000110 d4 b6 ae bd d0 b1 23 3c 10 b3 7b 3d 80 75 15 bb
       -0.085309654 0.009991124 0.061450064 -0.002280563
000120 3c 14 6d 3d 2b 77 06 3e a0 4f c3 bb fc 7d 03 3d
       0.057880625 0.13131396 -0.00596042 0.03210257
000130 00 48 d2 bb 3e 49 37 bd 8e 1f a2 bd 80 3e f4 3b
       -0.0064172745 -0.044747584 -0.07916175 0.0074537396
000140 bc 5b bb bd 20 e7 5f 3c 10 c3 4c bd 52 94 d0 bd
       -0.09148356 0.013665944 -0.049990714 -0.1018454
000150 a8 36 e8 bd ec e3 af 3d 89 af f3 bd b7 e1 f1 bd
       -0.1133855 0.085883945 -0.11898715 -0.1181063
000160 e6 ea cf bd b0 3d d7 3c e0 d6 5a 3c d0 0b e5 3c
       -0.10152225 0.026274532 0.013356894 0.027959734
000170 58 ef d3 bc 92 0e c1 3d 02 38 b6 3d 58 db c3 bd
       -0.025870964 0.09426607 0.088974014 -0.09563321
000180 84 17 23 3d b3 1a 02 3e e2 47 b3 3d 9a 8f 6a bd
       0.039817348 0.12705497 0.08753945 -0.057265855
000190 a0 c9 00 bc 7c 21 80 bd 8c 69 98 bc 6f 7a f0 bd
       -0.007860571 -0.06256387 -0.018605016 -0.11742102
0001a0 e4 94 cf bd e6 e0 58 bd aa 77 c8 3d 14 23 a3 bc
       -0.101358205 -0.052948855 0.09788449 -0.019914187
0001b0 be 0c a4 bd 66 0c 07 bd f2 67 b6 3d ef 75 0f 3e
       -0.08010243 -0.03297081 0.08906545 0.14009832
0001c0 40 7e af 3d ea 0b 1a bd 4e fe 78 bd b8 f3 84 3d
       0.08569002 -0.03760902 -0.0607894 0.06491798
0001d0 40 45 2b bb 10 e6 4a 3d e6 0f 85 bd 40 ff dc 3d
       -0.0026133806 0.04953581 -0.06497173 0.107908726
0001e0 00 91 12 3b b4 41 c8 3d c0 aa 2c 3d 60 0f a5 3c
       0.0022364259 0.09778157 0.042155027 0.020148933
0001f0 da 1c da 3d 75 8e f6 bd 09 bf 96 bd 5c b1 8e 3d
       0.10650034 -0.1203889 -0.07360656 0.06967422
000200 4a 84 ff 3d 6e 28 b3 3d ce ba b2 bd e0 df f2 bd
       0.12476404 0.08747946 -0.087270364 -0.11859107
000210 51 21 e9 bd 08 c9 b0 3c f4 b4 17 3d 22 ae 95 3d
       -0.11383308 0.021580234 0.037037805 0.07308604
000220 9e 1e a5 bd f0 a0 51 3d 22 75 82 bd a8 a0 fd 3c
       -0.080624804 0.051178873 -0.063699976 0.030960396
000230 a7 82 02 3e 50 6a 9a bc c0 37 b6 bb a4 15 0d 3d
       0.12745152 -0.018849522 -0.005560845 0.034444466
000240 16 b9 a3 bd f0 c8 54 3c 8e c3 b9 3d 40 fd 25 3d
       -0.07994287 0.01298736 0.09070502 0.04052472
000250 52 cc a2 bd be 7f f4 3d db bf 09 be e0 2d 67 3c
       -0.07949127 0.119384274 -0.13452093 0.014110059
000260 ea 77 bc bd 5a 1c dc bd 3d 77 0b be 9d 88 05 3e
       -0.09202559 -0.10747595 -0.13619705 0.13040395
000270 b4 1b 3b 3d c2 dd d6 bd 9a 9b 2a bd 00 c0 31 b8
       0.045680717 -0.10491516 -0.0416523 -4.2378902e-05
000280 9e db e5 3d fe 1a 2e bd 2a 8f b4 bd 22 68 c2 bd
       0.11223529 -0.04250621 -0.08816369 -0.09492518
000290 a0 81 fd 3c 10 64 09 bd 7a 04 f9 3d 94 9f 98 3d
       0.0309456 -0.033542693 0.12159057 0.07452312
0002a0 a8 6f 86 bd 5f 7e 03 3e ec d0 1b bd ca 2d e8 3d
       -0.065642655 0.12841175 -0.03804104 0.113368586
0002b0 30 77 74 bc cb 57 00 be 36 21 d3 3d c4 c2 c3 3d
       -0.014920995 -0.1253349 0.10309069 0.09558633
0002c0 30 0d 0c bc d4 4a bc bc 80 b7 17 bd e0 e1 82 bb
       -0.008548066 -0.0229849 -0.037040234 -0.0039942116
0002d0 28 bf 0f be 9a a3 e5 3d ec 98 a9 bd 9c 1f 66 3d
       -0.14037764 0.11212845 -0.08281121 0.05618249
0002e0 80 e8 a9 3d e0 c2 d0 3d 62 fa 53 bd a4 02 a1 bc
       0.08296299 0.101934195 -0.051752456 -0.01965458
0002f0 eb fb 0c 3e d0 5f f9 bd bc 0c 60 3d 4b f2 0a 3e
       0.13767974 -0.12176478 0.054699644 0.1356899
000300 ee 35 ef 3d 00 55 45 bd 9b 4e 97 bd 6e d1 77 bd
       0.11680208 -0.048176765 -0.0738804 -0.060502462
000310 f0 12 56 3d 32 27 fb 3d ec be 79 bd af 17 07 be
       0.052264154 0.12263335 -0.060973093 -0.13192628
000320 90 88 68 bc e0 57 a1 3c a0 69 71 3d de 21 fb 3d
       -0.014192715 0.019695222 0.058938622 0.12262319
000330 fc 50 5b 3d a6 21 04 be c3 ed 06 be bd 8c 87 bd
       0.05354403 -0.12903461 -0.13176636 -0.066186406
000340 99 ee 8c bd e6 8b d7 3d 44 ae a4 bd c0 40 e0 bb
       -0.068814464 0.105247304 -0.08041051 -0.0068436563
000350 00 bc 25 3a 00 3d 0f 3a 43 89 a9 bd c0 bb 7c 3b
       0.00063222647 0.0005464107 -0.08278134 0.0038564056
000360 d0 f9 86 3d 02 5c 91 bd 6d a2 08 be bc 96 3e 3d
       0.06590617 -0.07097627 -0.1334321 0.04653047
000370 80 16 b9 3b 72 96 02 be 90 b7 55 bd 5d 55 06 3e
       0.005648434 -0.12752703 -0.052177012 0.13118501
000380 3c c8 d5 bc d4 af e6 bc da 47 ec bd 88 af b9 bd
       -0.026096456 -0.028160013 -0.11537142 -0.09066683
000390 68 4d 83 bc 27 ed bc bd 7b b1 86 bd af 72 0d 3e
       -0.016028121 -0.09224921 -0.065768205 0.1381328
0003a0 24 e4 64 bd e6 d0 e0 3d 5d 4c 09 be 20 3b 5d bc
       -0.055881634 0.10977344 -0.13408037 -0.013502866
0003b0 88 1e cc bd 16 74 e9 3d 98 55 42 3d aa de b3 3d
       -0.09966761 0.11399095 0.04744491 0.08782704
0003c0 2f e9 05 3e aa 3a 41 bd 1d ec b5 bd ba 80 81 3d
       0.13077234 -0.047175087 -0.08882926 0.06323381
0003d0 18 11 a2 3c a6 5b 71 bd a0 4f a9 3b 43 4a 9a bd
       0.019783542 -0.058925293 0.0051669627 -0.075336955
0003e0 38 77 00 be be b5 5e bd e9 3b 06 3e be 26 f3 3d
       -0.12545478 -0.05437254 0.13108791 0.11872624
0003f0 9c be 48 3d ca 62 07 be c5 75 00 be 39 5e 00 be
       0.049009904 -0.13221279 -0.12544926 -0.12535943

weight_hh_l1 f4 [200, 50]
000000 02 fe bd 3d 60 db 32 bc f8 60 cf 3d 92 40 a6 3d
       0.09276964 -0.010916561 0.10125917 0.081177846
000010 d0 6b b3 bc 07 0d 04 3e 37 90 02 3e a7 34 0f be
       -0.021901995 0.12895595 0.12750326 -0.13984929
000020 8a 01 0f be 58 42 a4 bd f0 a4 88 3c c0 72 b6 3c
       -0.13965431 -0.080204666 0.01668021 0.022271514
000030 1c a1 3a 3d 4c 50 ba bd f4 0b 95 bd d0 3c 15 3c
       0.045563802 -0.09097347 -0.072776705 0.009108737
000040 34 56 af bd 84 9b 93 3d 80 2a 09 be d2 80 f6 3d
       -0.08561364 0.072073966 -0.13395119 0.12036289
000050 38 c6 6c 3d a0 40 82 bb e0 0e f4 bb 00 64 e9 bb
       0.057806224 -0.003974989 -0.0074480623 -0.0071225166
000060 f8 4d 4f 3d 06 d5 4e bd 84 84 31 3d 6e 65 f1 bd
       0.050611466 -0.050496124 0.043339267 -0.11786924
000070 40 cb 9f 3d 74 59 d3 3d 52 7e 1c bd 7a cc 9a 3d
       0.07802439 0.10319796 -0.038206406 0.07558532
000080 60 95 8d bd 99 25 b0 bd 6c f1 b3 3d 1a 33 2b bd
       -0.06913257 -0.08600921 0.08786282 -0.04179678
000090 c2 86 99 3d ee f2 e4 3d 90 71 31 3c 50 8e 08 3c
       0.07496406 0.11179148 0.010830298 0.008334711
0000a0 00 83 86 bc f1 1d 04 3e ce 2c ff 3d 61 8c 03 3e
       -0.016419888 0.12902047 0.12459718 0.12846519
0000b0 34 fd b0 3d dc 0a 3f 3d 0c eb da 3d 00 46 c5 bd
       0.08642045 0.046641216 0.10689363 -0.09632492
0000c0 3b b3 93 bd a2 8c cf bd 8c de 17 3d 00 5a 0b 3d
       -0.0721192 -0.101342455 0.03707747 0.034021378
0000d0 f2 ca b5 3d 24 88 88 3d 7b 73 09 3e 3c e6 d7 3d
       0.08876599 0.06666592 0.13422959 0.105419606
0000e0 c8 d2 9d bc 9f c7 09 3e 20 34 20 3c ae 86 e1 bd
       -0.019265547 0.13455056 0.009778053 -0.11012016
0000f0 48 d2 95 3d c0 c2 b6 3c 67 bc 0e 3e f6 5c c9 3d
       0.073154986 0.02230966 0.13939057 0.09832184
000100 02 cb b8 bd d8 d9 08 3d 30 53 2d 3d e0 34 28 bd
       -0.09023096 0.033410877 0.042315662 -0.04106605
000110 64 b5 28 3d 45 4b 05 be 96 9d 97 3d e1 98 ca bd
       0.041188613 -0.13016994 0.07403104 -0.098924406
000120 00 af cc bb 30 33 2b 3d 50 d7 d4 3c e2 9d eb bd
       -0.0062464476 0.041796863 0.025981575 -0.11504723
000130 fa 97 7e bd 4a e0 a6 3d 71 4d 04 3e 20 de 1d bc
       -0.062156655 0.081482485 0.12920167 -0.009635478
000140 f0 18 4f bc 38 3a d4 bd 56 84 c9 3d d2 27 94 3d
       -0.012640223 -0.10362667 0.09839694 0.072341576
000150 d6 61 05 be c4 b5 1d 3d 49 9a 0c be 2a b4 81 3d
       -0.13025603 0.038503423 -0.1373073 0.06333192
000160 98 21 af bd 48 6c b8 3d f0 65 52 3d 7c 71 fe bd
       -0.085513294 0.09005028 0.051366746 -0.12423989
000170 f8 26 8d bd 2a b0 f9 3d 9a 10 a1 3d 00 2c 28 b9
       -0.06892198 0.12191804 0.078644946 -0.0001603812
000180 bc 44 8c 3d 40 8e 09 3d 8c 3e 61 3d 4c 99 5f 3d
       0.068490475 0.033582926 0.05499129 0.054589555
000190 a0 b9 6c bc 50 76 38 3c 3a be 9c bd 34 d4 8d 3d
       -0.014448553 0.011258677 -0.0765347 0.0692524
0001a0 d0 3b d2 3c 7c c6 9c 3d 10 3c 9e 3d e2 3c 01 be
       0.025663286 0.076550454 0.077263 -0.12620881
0001b0 80 04 fe bb 96 d0 e4 bd 28 f8 15 3d 4a 65 10 be
       -0.0077520013 -0.11172597 0.036613613 -0.14101139
0001c0 00 43 97 bd 56 f7 9d 3d 8a 0d 34 bd 08 96 cf 3d
       -0.07385826 0.07713191 -0.043958224 0.10136038
0001d0 40 80 11 bd 9e 67 84 3d 5c 7e ee bd bf 4a c8 bd
       -0.0355227 0.06465076 -0.11645195 -0.09779882
0001e0 a1 9f 0d be 9c 03 d4 3d a0 1c eb 3c de 7e c9 bd
       -0.13830425 0.10352251 0.028700173 -0.09838651
0001f0 20 f2 d0 bb 80 c6 39 3d 19 8c e2 bd c0 89 24 3b
       -0.00637652 0.04535532 -0.11061878 0.002510652
000200 3e db 8b 3d f8 80 e4 bd 18 14 19 3d 13 01 0d be
       0.068289265 -0.11157411 0.03737268 -0.13769941
000210 c8 7f cb 3d 26 58 b2 3d 57 eb 03 3e 90 b5 07 be
       0.09936482 0.08708219 0.12882744 -0.13252854
000220 c4 8a d3 bd 00 38 ff b9 80 9b d0 3a 89 b2 0d 3e
       -0.10329202 -0.00048679113 0.0015915483 0.13837637
000230 a0 a1 e0 3b c0 60 83 bd 1a 72 e1 3d b2 13 c8 3d
       0.0068552047 -0.06414938 0.11008091 0.097693816
000240 3c 7c d2 bd 97 84 10 3e 86 a4 db bd 90 7d 67 bc
       -0.10277602 0.14113079 -0.1072474 -0.0141290575
000250 74 a9 85 3d 2c 88 33 3d e8 9f f3 3c 72 7b b5 bd
       0.06526461 0.043831035 0.029739335 -0.08861436
000260 b3 d1 0f be ca 88 cd bd 10 d0 ae 3d 2e 50 bd bd
       -0.14044838 -0.10035856 0.085357785 -0.09243809
000270 b0 c1 e1 bd f2 20 5e bd 28 5d 80 3d be 28 df 3d
       -0.11023271 -0.054230638 0.06267768 0.10896443
000280 b5 ea 02 3e b0 12 91 3d 46 3a 86 3d 99 e8 91 bd
       0.12784846 0.070836425 0.065540835 -0.071244426
000290 50 12 61 3c a6 de 99 3d a4 ba bd bc 66 2b ae 3d
       0.013737276 0.0751317 -0.023160286 0.08504371
0002a0 90 3c bf 3c 74 45 46 bd ba d4 93 3d 8c a8 10 bd
       0.023344308 -0.04840608 0.07218309 -0.03531699
0002b0 e4 e6 14 bd 8d 79 05 3e 8a 4b a1 bd 66 1d 7d bd
       -0.036353007 0.13034649 -0.07875736 -0.061795615
0002c0 ad 61 0f 3e 81 6c 8e bd f0 3d 68 bc f0 5b 6b 3d
       0.14002104 -0.06954289 -0.014174923 0.057460725
0002d0 f6 81 13 bd 98 fe c6 bd 50 bb 51 3c 78 f5 b2 bd
       -0.036012612 -0.09716529 0.012801006 -0.08738226
0002e0 6f fe cf bd cc 2f 77 3d 99 f0 e9 bd a0 0e c5 bc
       -0.10155951 0.060348317 -0.114228435 -0.024054825
0002f0 44 fd 40 3d 84 3d b5 3d 09 6f 0f 3e df 17 0e 3e
       0.047116533 0.08849624 0.140072 0.13876294
000300 cf 7e 99 bd 1e c3 ae 3d f8 cf ce 3d c0 c6 10 3b
       -0.0749489 0.085333094 0.10098261 0.002209112
000310 2c 3a 27 3d 92 6f 86 3d 24 2b de bc 0e 09 eb 3d
       0.04082696 0.06564249 -0.02712018 0.114763364
000320 61 cc b0 bd 06 64 8f 3d 80 44 46 bd 18 aa 91 bc
       -0.08632732 0.070015 -0.04840517 -0.017781302
000330 bc 65 84 bd 00 49 1d 3c d7 99 b9 bd c2 47 9e bd
       -0.06464717 0.009599924 -0.09062546 -0.077285305
000340 ee ad ac bd 70 10 3e 3c d6 f7 2b bd 90 91 d3 3d
       -0.08431612 0.011600599 -0.0419844 0.10330498
000350 62 1f e0 3d c0 9b af 3c d0 0b 9b bc 5a 40 f2 3d
       0.10943486 0.021436572 -0.018926531 0.1182868
000360 2a 38 e7 3d d0 d2 81 3c 60 c4 3e 3c b0 b6 c2 3c
       0.11290009 0.015847594 0.011643499 0.023768753
000370 dc 86 59 3d 80 95 3b bd bb 04 0a 3e 26 dc c2 3d
       0.053107128 -0.04579687 0.13478367 0.09514646
000380 96 3c 05 bd a0 d5 68 3d 64 5e c0 bd 72 7b e3 3d
       -0.032528482 0.056844354 -0.093930036 0.1110753
000390 00 f9 e9 3b 48 67 d8 3c b0 64 c4 3d b7 29 02 3e
       0.007140279 0.026416436 0.09589517 0.12711225
0003a0 e4 56 5b 3d 9a ac 9d bd cd 64 0a 3e e6 35 4b bd
       0.053549662 -0.07698937 0.13515015 -0.04961195
0003b0 02 fa df bd 8c bd 92 3d 50 62 09 3d 6d 28 08 3e
       -0.10936357 0.071650594 0.033541024 0.13296671
0003c0 19 e7 a6 bd b4 0a 4e 3d ab 68 09 3e 47 32 ec bd
       -0.08149547 0.050303176 0.13418834 -0.11533027
0003d0 58 4e 4a bd 00 5d f9 bd 0c 43 e6 bc 35 fd 05 3e
       -0.04939112 -0.121759415 -0.028108142 0.13084872
0003e0 12 61 e4 3d 54 82 c8 3d c8 ef c3 3c 68 4e 84 bd
       0.11151327 0.09790483 0.023918048 -0.06460267
0003f0 82 aa cd bd 0a 3d 4d bd 19 8a 0c 3e 82 32 b1 3d
       -0.100422874 -0.05010704 0.13724555 0.08652212

bias_ih_l1 f4 [200]
000000 9f dd e9 bd 38 8d 25 3d 32 94 b4 bd fb b4 01 3e
       -0.11419224 0.04041788 -0.088173285 0.12666695
000010 ae 7e be 3d fa de 8c bd e5 0c 84 bd 4b 6d ec bd
       0.09301506 -0.06878467 -0.06447772 -0.115442835
000020 f0 c3 60 bc d6 28 eb 3d 0e 92 81 bd 18 7d f3 3c
       -0.01371859 0.11482398 -0.06326686 0.029722735
000030 90 de db 3c f4 74 dd 3d e6 1c f9 3d c2 66 f2 3d
       0.026839525 0.10813323 0.12163715 0.11836006
000040 0d 5a e3 bd 6e f5 9f 3d 3a 2b e7 3d 84 dc 56 bd
       -0.1110116 0.07810484 0.11287542 -0.052456394
000050 ec e6 4b 3d 00 59 88 ba 5e 1f c4 bd 1f 0d 09 3e
       0.04978077 -0.0010402501 -0.09576295 0.13383912
000060 7e 26 f3 3d a0 80 74 bc 60 72 20 3c 34 65 d9 bd
       0.11872576 -0.014923245 0.009792894 -0.10615006
000070 98 98 c4 bd 40 c8 e1 bc 30 dd 78 3c c0 b2 3d bc
       -0.095994174 -0.027561307 0.015189454 -0.011578262
000080 80 b3 29 3c 7e 1a 4a bd cc 56 81 bd f4 94 4d bd
       0.010357738 -0.04934167 -0.06315383 -0.05019088
000090 86 76 f2 3d d0 1d f6 3c 32 e7 a4 bd 32 de b5 bd
       0.11839013 0.030043513 -0.080519095 -0.08880271
0000a0 6e 54 d3 3d 58 20 d3 3c cc d0 90 3d 88 a1 03 be
       0.10318838 0.025772259 0.07071075 -0.12854588
0000b0 40 aa 08 3d 60 43 9b 3b 22 ce d3 bd 34 54 e8 bc
       0.033365488 0.0047382563 -0.10342051 -0.028360464
0000c0 bc 05 09 be 30 75 5b 3d 98 a9 d5 3d f0 90 79 3d
       -0.13381094 0.053578556 0.10432738 0.06092924
0000d0 2c cc 7f bd 08 ea ce 3d 1a 6e 52 bd 18 7a 13 3d
       -0.062450573 0.10103232 -0.051374532 0.03600511
0000e0 5e cc e0 3d a8 e9 de bd 50 d5 92 bd 22 1d 0d bd
       0.1097648 -0.1088441 -0.071695924 -0.03445161
0000f0 80 58 53 3b 4a b7 ac bd d6 95 ec bd 4c fe cc bd
       0.0032248795 -0.08433397 -0.115520164 -0.10009441
000100 a8 cd 0f bd b8 0d f5 bd 0a af 65 bd f2 5a 8a 3d
       -0.03510824 -0.11965507 -0.056075133 0.06755628
000110 b2 f2 cd bd a5 69 09 be 00 f8 8b 3a cd 1a 02 be
       -0.10056056 -0.13419206 0.0010678768 -0.12705536
000120 2c 36 31 3d fa ba 79 bd b7 ec d7 bd 20 15 19 3c
       0.043264553 -0.06096933 -0.10543197 0.0093434155
000130 14 59 db bc 75 b7 01 3e 45 93 b2 bd a9 f4 01 3e
       -0.026775874 0.1266764 -0.08719496 0.12690987
000140 18 ed f8 3c 36 9a f8 3d 0b b2 05 3e 60 82 66 3c
       0.030386493 0.121387884 0.13056199 0.01406917
000150 6f a2 d5 bd a0 56 91 bd ca 0d 99 bd ee 36 03 bd
       -0.104313724 -0.070966005 -0.07473333 -0.032034807
000160 d7 1c cf bd e6 c0 4b bd 0d 7a e9 bd 71 4b cc bd
       -0.10112923 -0.04974451 -0.114002325 -0.09975327
000170 9f a4 01 3e da 8b f4 bd 7c 0d 9c bd 2a b5 f7 bd
       0.12660454 -0.11940737 -0.076197594 -0.12095101
000180 0a f4 b5 3d ac 70 de bd 1c fe 8e 3d 9a 8e c6 3d
       0.088844374 -0.10861334 0.06982061 0.09695168
000190 cc f9 91 3d d4 4d a0 bc 24 cc 82 bd ae 0c 4b bd
       0.07127723 -0.019568361 -0.06386593 -0.04957264
0001a0 a7 e8 91 bd 40 4a dc 3d 00 f4 4c 3b 9e 9c ea 3d
       -0.07124453 0.107563496 0.0031273365 0.114556536
0001b0 52 83 3a bd 5a 8d 3b bd be 1c c2 bd 28 e5 06 3d
       -0.045535393 -0.0457891 -0.094781384 0.032933384
0001c0 68 dd cb bd af 6c 06 be e0 a2 9c 3c 04 65 86 3d
       -0.09954339 -0.13127397 0.019120634 0.06562236
0001d0 40 51 e3 3c 78 c3 d3 bc c0 5a b2 3b cc 3e a5 bd
       0.027748704 -0.025850043 0.005442947 -0.08068618
0001e0 72 43 a7 bd 1c 42 64 3d 3b 6f 05 3e 68 36 34 3d
       -0.08167161 0.05572711 0.13030712 0.0439972
0001f0 c8 a8 5a 3d 40 36 b8 bd e4 e4 88 bc 44 51 d6 bd
       0.05338362 -0.08994722 -0.016710706 -0.10464719
000200 10 48 89 3d 42 89 04 be 42 1e 8d 3d 92 71 76 bd
       0.06703198 -0.12942985 0.06890537 -0.060166903
000210 b0 68 00 be 5c da a4 bd bf f1 05 3e 39 59 09 3e
       -0.12539935 -0.08049461 0.130805 0.13412942
000220 40 f2 46 3b 52 94 f9 3d 93 d8 a8 bd 60 fa fa bd
       0.0030356795 0.12186493 -0.08244433 -0.122547865
000230 f0 8f 77 3d 7e b7 eb 3d e0 1c bc 3c 28 9a 45 bd
       0.060440004 0.11509608 0.022962987 -0.048242718
000240 88 2d ac 3c b1 2d d5 bd 02 a2 c2 bd d2 c7 2f bd
       0.021017805 -0.104091056 -0.09503557 -0.042915173
000250 8e 25 ba 3d 93 89 b0 bd c8 b7 a8 bd 7c 94 05 be
       0.09089194 -0.0861999 -0.082381785 -0.13044924
000260 b4 9b a2 bc 98 c9 d8 3c 70 a0 c4 3c 8c a0 69 3d
       -0.019849636 0.026463315 0.024002284 0.057037875
000270 19 68 0d be 7e 0a e7 3d 02 e8 8f bd 2b c0 05 be
       -0.13809241 0.11281298 -0.07026674 -0.13061588
000280 d6 3b a6 bd 00 b5 b3 bc 93 a3 00 3e cf 0c 9f bd
       -0.081168815 -0.021936893 0.12562399 -0.07766115
000290 04 5b cd bc 10 67 58 3d e7 15 b8 bd 56 24 8d 3d
       -0.025067814 0.052832663 -0.089885525 0.06891696
0002a0 7c 85 28 3d b8 81 af 3d 6d fb 01 be 58 9e 52 bd
       0.041142926 0.08569664 -0.12693568 -0.05142054
0002b0 a0 e4 86 3d 1e fa d7 3d 90 1a d7 bd 36 32 a5 bd
       0.065865755 0.10545753 -0.10503113 -0.080662176
0002c0 70 04 09 be e8 5c 97 bd b6 47 df bd 2c 71 2a 3d
       -0.13380599 -0.07390767 -0.1090235 0.041611835
0002d0 40 9a 7e bc 90 a8 03 bd 15 36 0a 3e 16 42 da bd
       -0.015539706 -0.032143176 0.13497193 -0.10657136
0002e0 68 df e7 bd ea 9d 89 3d 22 07 cd bd 4c cc 96 3d
       -0.11321908 0.06719573 -0.10011126 0.07363185
0002f0 fc 2f 95 3d 24 1c a3 bc 75 e3 0c 3e 90 e5 46 bd
       0.07284543 -0.01991088 0.13758643 -0.04855877
000300 19 48 b9 bd 6e 2f cb bd 20 96 ce 3c 82 0e 15 bd
       -0.09046955 -0.09921156 0.02521807 -0.03639079
000310 e0 fa b5 3d dc 45 5f 3d d4 ab 0b 3d be 12 fc 3d
       0.08885741 0.054509982 0.034099415 0.12308262
