process/mlruns/850336352745823845/models/m-69bbe56f483445c696bbfb4c2ebc68fb/artifacts/data/model.pth (torch, 140050 bytes, 11 tensors)

weight_ih_l0 f4 [200, 10]
-0.11980367 0.07215768 0.09679082 -0.08603718 0.08604024 0.09267044 -0.06572914 0.13803022
-0.077968456 -0.04609382 0.0366247 0.1395763 0.06254968 0.10849056 0.12016396 0.1228327
-0.06967903 0.07255423 -0.11708272 -0.07315279 0.06301767 -0.11105953 0.11171724 0.11365284
0.036684006 0.08999348 -0.137864 -0.033782385 -0.12968336 -0.06134198 -0.04033681 -0.047532357
0.07195294 -0.07607124 0.06441234 -0.09808266 0.13726671 0.082997605 -0.14115955 0.09684436
-0.07186736 0.1092913 -0.0067272037 -0.067817405 -0.13804078 0.118159756 0.061263293 0.088149935
0.0035811663 0.087966755 -0.113655105 0.045376837 -0.09824115 -0.015794367 0.073366314 0.03856793
0.059904173 0.12297784 -0.03418327 0.044298023 -0.1335426 -0.117555626 0.02181305 0.11187531
-0.016373634 -0.11304178 -0.110439315 -0.02101735 -0.07203994 0.096779466 -0.08673847 0.07651006
0.109791234 -0.13656214 0.06716728 0.025374085 0.09113017 -0.030970417 0.11177029 -0.0647918
-0.08561612 0.04042469 0.06995708 0.020420253 -0.11521998 0.087953836 -0.031780697 0.11014776
0.048006237 -0.0830543 0.03249307 -0.11262591 -0.09979948 0.07814695 0.025943026 -0.12760991
0.12987436 -0.13340928 -0.08481396 0.10008252 0.1039896 0.0686636 -0.13754027 -0.13889481
-0.03795056 0.07362448 -0.025045782 -0.109383985 -0.032749876 0.02202198 -0.021401696 0.08833131
-0.032952413 0.1279784 0.11663683 0.03476262 0.06227106 0.12437792 0.11903454 0.12283011
0.11716266 0.1142569 0.07716514 -0.11101401 0.07641901 -0.05008796 0.14072089 -0.06547394
-0.14011416 -0.09580573 0.03390482 0.13280194 0.107796535 0.023500279 0.12867631 -0.14128844
-0.07278186 0.00879325 -0.13640046 -0.037367687 -0.072723426 0.05598773 0.08570281 -0.09132307
-0.057295136 0.09252225 0.03992459 0.11499338 0.07599953 -0.0014108568 0.024092421 0.13186093
-0.082374014 -0.03594403 0.048583597 -0.0026402473 0.0900211 0.04385844 0.09942344 -0.06263956
-0.12231026 -0.019061923 0.044364884 -0.10123102 -0.033201046 -0.05986087 -0.032039985 -0.08815405
0.014327452 0.013183311 -0.11380628 0.042075694 -0.1184002 0.05406782 0.07963221 0.01563336
0.09725006 0.012243316 -0.08134863 0.12269358 0.0011767894 0.08118953 -0.03774891 0.0810307
0.05909066 0.05849713 0.04480827 -0.07437597 0.051952496 0.06355028 -0.13221516 0.099768505
-0.041448712 -0.032819957 0.0007867962 0.0894032 0.047491655 -0.13649039 -0.10489653 0.04376085
0.024357632 0.055362076 -0.053875275 0.054234058 -0.0047214627 -0.059191495 -0.06204281 0.066354856
-0.035928383 0.13638513 -0.11973866 0.10104139 -0.044008613 0.046580195 0.04344283 -0.0144406855
-0.058335625 0.09109108 -0.07882063 -0.13194981 0.12219696 0.035868153 0.053944916 0.14003123
-0.0016617179 0.12312935 0.11322449 -0.04220026 0.08639158 -0.08279007 -0.118917435 0.09405202
0.12606256 0.106912225 0.1160339 0.09495497 0.014449224 0.03970088 -0.031027801 0.09083921
-0.06465187 -0.065666445 0.03932473 0.10542016 0.08097817 0.045970783 -0.04316955 0.1332208
-0.09062977 0.13965715 -0.022694021 0.019616857 -0.11451444 0.030274794 0.010897949 0.119353786
00000000: a05b f5bd 68c7 933d 443a c63d 4334 b0bd
00000010: de35 b03d 00ca bd3d 009d 86bd cb57 0d3e
00000020: edad 9fbd e0cc 3cbd c803 163d 17ed 0e3e
00000030: 0c1a 803d 4c30 de3d 8618 f63d b68f fb3d
00000040: e1b3 8ebd 5097 943d 11c9 efbd 21d1 95bd
00000050: 680f 813d 2e73 e3bd 02cc e43d d2c2 e83d
00000060: f841 163d 804e b83d 382c 0dbe 665f 0abd
00000070: b7cb 04be ba41 7bbd 3638 25bd 4ab1 42bd
00000080: 105c 933d 3dcb 9bbd 9eea 833d 90df c8bd
00000090: a58f 0c3e a6fa a93d 218c 10be 5656 c63d
000000a0: 322f 93bd 1ed4 df3d e06f dcbb dae3 8abd
000000b0: 905a 0dbe befd f13d 38ef 7a3d f487 b43d
000000c0: 00b2 6a3b ea27 b43d 02c4 e8bd 10dd 393d
000000d0: a832 c9bd 3063 81bc 1441 963d 68f9 1d3d
000000e0: 145e 753d cedb fb3d c203 0cbd d871 353d
000000f0: 64bf 08be 01c1 f0bd 48b1 b23c e21e e53d
00000100: 0022 86bc 7382 e7bd 022e e2bd 942c acbc
00000110: ad89 93bd 5034 c63d f0a3 b1bd 4eb1 9c3d
00000120: 3ada e03d f2d6 0bbe 008f 893d 50dd cf3c
00000130: 74a2 ba3d acb5 fdbc d2e7 e43d 90b1 84bd
00000140: 8157 afbd 5c94 253d a845 8f3d 6048 a73c
00000150: 74f8 ebbd 2421 b43d 7a2c 02bd 2695 e13d
00000160: 30a2 443d 5f18 aabd 7417 053d 6aa8 e6bd
00000170: ab63 ccbd 820b a03d 7886 d43c 2cac 02be
00000180: c9fd 043e 719c 08be f1b2 adbd 10f8 cc3d
00000190: 80f8 d43d 809f 8c3d 5bd7 0cbe 713a 0ebe
000001a0: 0c72 1bbd 6ec8 963d d02c cdbc b604 e0bd
000001b0: bc24 06bd 7067 b43c 9c52 afbc 0ce7 b43d
000001c0: 1cf9 06bd c50c 033e 4adf ee3d 4063 0e3d
000001d0: f00f 7f3d dab9 fe3d 62c8 f33d 5a8e fb3d
000001e0: faf2 ef3d 86ff e93d c208 9e3d 505b e3bd
000001f0: 9281 9c3d 0829 4dbd 2319 103e 3317 86bd
00000200: 167a 0fbe cb35 c4bd c8df 0a3d 3bfd 073e
00000210: 6ec4 dc3d a883 c03c b9c3 033e ebad 10be
00000220: a80e 95bd 9011 103c 90ac 0bbe dc0e 19bd
00000230: 05f0 94bd 6453 653d f484 af3d 9707 bbbd
00000240: 4eae 6abd 4e7c bd3d f887 233d a681 eb3d
00000250: a4a5 9b3d 80ec b8ba 785d c53c 8d06 073e
00000260: b5b3 a8bd 0c3a 13bd 98ff 463d 0008 2dbb
00000270: fc5c b83d e8a4 333d 849e cb3d 2b49 80bd
00000280: cd7d fabd c027 9cbc f4b7 353d 3652 cfbd
00000290: d2fd 07bd ac30 75bd 5c3c 03bd 1c8a b4bd
000002a0: b0bd 6a3c d0fe 573c 4413 e9bd 9057 2c3d
000002b0: ce7b f2bd 3876 5d3d 3616 a33d 8811 803c
000002c0: 0a2b c73d 3098 483c 1c9a a6bd c646 fb3d
000002d0: 803e 9a3a b246 a63d 9a9e 1abd 6cf3 a53d
000002e0: 0c09 723d b09a 6f3d e088 373d 6e52 98bd
000002f0: 24cc 543d a626 823d 6963 07be 6e53 cc3d
00000300: 20c6 29bd 386e 06bd 0041 4e3a 0619 b73d
00000310: 9c86 423d 23c4 0bbe fed3 d6bd 943e 333d
00000320: a889 c73c 58c3 623d 52ac 5cbd 8824 5e3d
00000330: 80b6 9abb c872 72bd 9a20 7ebd 0ee5 873d
00000340: a429 13bd 8ba8 0b3e 8b39 f5bd caee ce3d
00000350: 6042 34bd e0ca 3e3d 1cf1 313d a098 6cbc
00000360: 56f1 6ebd f68d ba3d b66c a1bd da1d 07be
00000370: 6642 fa3d 7cea 123d 58f5 5c3d 5964 0f3e
00000380: 00ce d9ba 3e2b fc3d 3ee2 e73d 2eda 2cbd
00000390: 12ee b03d d78d a9bd fc8a f3bd 589e c03d
000003a0: 8b16 013e ccf4 da3d 2ea3 ed3d c077 c23d
000003b0: 70bc 6c3c 649d 223d 042e febc e809 ba3d
000003c0: 3368 84bd 217c 86bd f812 213d 86e6 d73d
000003d0: e2d7 a53d dc4b 3c3d 8ed2 30bd 096b 083e
000003e0: 1a9c b9bd 4902 0f3e d0e8 b9bc 88b3 a03c
000003f0: 8c86 eabd d802 f83c 508d 323c c26f f43d

weight_hh_l0 f4 [200, 50]
-0.058034763 0.0018270016 0.07451457 -0.12812404 -0.024021849 0.10537794 0.08624825 -0.09485641
0.02175641 -0.09221865 0.051900074 0.00448215 -0.035404302 -0.10404712 -0.05408124 0.08156121
0.087054074 0.028361142 0.0416182 0.083424866 -0.08469072 0.084833056 0.065862775 0.09693433
0.07444976 0.09775962 0.037246898 0.020007432 0.048354983 -0.013307139 0.013799027 0.0033977926
-0.033878163 -0.105626665 -0.086668 0.037762746 0.067960694 0.0887066 -0.087096296 0.12275721
-0.02933254 -0.007475704 0.110746846 0.0013189167 -0.10177097 -0.08609622 0.07111545 -0.10853652
-0.071529895 0.11333351 -0.10138841 0.115898386 -0.13324758 0.019050032 0.09097941 0.109848276
-0.014387161 0.07727125 -0.0074872375 -0.1219905 -0.063516 0.03346093 0.04034619 -0.11947243
0.06926161 -0.13774541 0.10744049 -0.094608635 -0.13746335 0.071903914 0.12539901 0.12109287
0.13616432 0.042255133 -0.06651429 0.12487005 0.078351766 0.035058513 -0.082933724 0.1266535
0.076360345 -0.053409368 0.06401405 0.020417616 -0.068553254 0.110312656 -0.104024485 -0.061661735
-0.112666555 -0.007961601 -0.08280585 -0.06106268 0.016900584 -0.09279926 0.06177248 -0.01634553
0.065863326 0.1084311 0.011064053 0.0026760846 -0.13075398 0.11157067 -0.06675333 -0.050702676
-0.04062225 0.10395624 0.011917353 -0.1185421 0.11659141 -0.13987008 -0.0050636083 -0.124351665
0.050483778 -0.10867031 0.08134714 -0.037224807 0.032310337 -0.08633915 0.07985434 0.1265362
-0.00949423 0.0023981184 -0.058406346 -0.054704435 0.022370711 0.028102502 -0.096944615 -0.032062
-0.0066055506 -0.054608054 0.0884524 0.1373183 -0.03869769 -0.005846858 0.02941361 -0.12447882
3.1143427e-06 -0.05305676 0.010773078 0.109797135 -0.010946959 0.07510628 -0.046601877 0.099833205
-0.0691366 0.025754943 0.072747976 -0.12858924 -0.13324703 -0.041972585 0.05512166 -0.027825624
-0.11012301 -0.107976586 0.021861508 -0.11255711 -0.027709566 0.119928315 -0.1113538 -0.12754394
-0.1314766 -0.07239209 0.13760097 0.08523774 -0.081415296 -0.08558869 -0.0830313 0.06830248
0.052392542 -0.018982656 -0.01638098 -0.035758942 0.10741715 -0.09664025 -0.087959886 0.011251658
0.049786046 -0.11552386 0.07017958 0.039183423 -0.13288185 0.013332173 0.058134228 0.07022913
-0.054344185 0.108710244 0.11409898 -0.011222601 0.014177859 0.09322111 0.06934035 -0.09296933
0.051827997 0.06469712 0.0705626 -0.015339732 -0.016348556 -0.08175457 -0.10808177 0.12449683
-0.10938871 -0.13656516 -0.005123794 0.014970854 0.068721235 0.104006514 -0.073611446 0.047811568
0.00784488 -0.090183556 0.14066143 -0.013577715 0.012528807 -0.12799886 -0.10998946 -0.05093752
-0.055013373 0.04942751 -0.08905442 0.117391095 0.14071126 0.057056293 0.020912707 -0.0741047
0.11479126 -0.004227191 -0.029083319 0.03499028 0.035253406 -0.075543866 -0.11259725 0.0061358362
-0.0060866773 -0.041113913 0.051538214 0.038445562 0.025626183 0.12283389 0.12257017 0.065628484
-0.01976633 -0.05337379 -0.081331566 -0.050129786 0.12745316 -0.086107835 -0.102724604 -0.010858685
0.061005577 -0.10974448 0.08514033 -0.039733134 -0.10512455 0.0065564513 -0.10701458 -0.11177905
00000000: dcb5 6dbd 0078 ef3a 189b 983d f332 03be
00000010: 78c9 c4bc 64d0 d73d eca2 b03d 1444 c2bd
00000020: 803a b23c 22dd bcbd 2c95 543d 00df 923b
00000030: 1a04 11bd a816 d5bd 4a84 5dbd 9009 a73d
00000040: 6849 b23d a055 e83c d877 2a3d a8da aa3d
00000050: 5472 adbd f4bc ad3d 10e3 863d 8285 c63d
00000060: 1e79 983d 3236 c83d 3490 183d a0e6 a33c
00000070: e00f 463d 3006 5abc 5015 623c 80ad 5e3b
00000080: d4c3 0abd cb52 d8bd fe7e b1bd 1cad 1a3d
00000090: fa2e 8b3d ceab b53d 8b5f b2bd 2268 fb3d
000000a0: cc4a f0bc c0f6 f4bb 3ecf e23d 80df ac3a
000000b0: 4c6d d0bd 3753 b0bd faa4 913d 6548 debd
000000c0: 447e 92bd 661b e83d baa4 cfbd 225c ed3d
000000d0: 0e72 08be d00e 9c3c 6a53 ba3d 22f8 e03d
000000e0: 20b8 6bbc 6440 9e3d 8057 f5bb 28d6 f9bd
000000f0: ad14 82bd 540e 093d 0c42 253d f6ad f4bd
00000100: 08d9 8d3d 220d 0dbe c209 dc3d 2cc2 c1bd
00000110: 31c3 0cbe 5c42 933d 9968 003e 8aff f73d
00000120: a96e 0b3e b813 2d3d a538 88bd debb ff3d
00000130: e476 a03d 8499 0f3d 28d9 a9bd 75b1 013e
00000140: d062 9c3d c8c3 5abd cc19 833d d842 a73c
00000150: a665 8cbd 9aeb e13d ca0a d5bd 0491 7cbd
00000160: b9bd e6bd 6071 02bc 1d96 a9bd dc1c 7abd
00000170: 1873 8a3c 8a0d bebd 2405 7d3d 10e7 85bc
00000180: 5ae3 863d 2011 de3d 0046 353c 4061 2f3b
00000190: 5fe4 05be 2a7f e43d f8b5 88bd 9cad 4fbd
000001a0: 8463 26bd 02e7 d43d 0041 433c 33c6 f2bd
000001b0: 7ac7 ee3d 1a3a 0fbe a0ec a5bb 16ac febd
000001c0: 14c8 4e3d 8a8e debd 5499 a63d 0a79 18bd
000001d0: d857 043d 95d2 b0bd ac8a a33d b592 013e
000001e0: b08d 1bbc c029 1d3b 7e3b 6fbd c211 60bd
000001f0: c842 b73c 3837 e63c e68a c6bd 7253 03bd
00000200: 6073 d8bb b2ac 5fbd 8826 b53d 2b9d 0c3e
00000210: 7881 1ebd 0097 bfbb d0f4 f03c c0ee febd
00000220: 0000 5136 0c52 59bd 9081 303c 52dd e03d
00000230: e05a 33bc 52d1 993d 9ce1 3ebd 5a75 cc3d
00000240: 7d97 8dbd 08fc d23c e4fc 943d e6ac 03be
00000250: e971 08be 72eb 2bbd 40c7 613d 90f2 e3bc
00000260: 2c88 e1bd d422 ddbd e816 b33c 5884 e6bd
00000270: 2cff e2bc fa9c f53d 760d e4bd e19a 02be
00000280: cda1 06be 4e42 94bd 45e7 0c3e 2091 ae3d
00000290: 10bd a6bd 2049 afbd 500c aabd 2ce2 8b3d
000002a0: 9099 563d 8481 9bbc 6831 86bc f877 12bd
000002b0: 86fd db3d 53eb c5bd 5024 b4bd e058 383c
000002c0: 74ec 4b3d c697 ecbd 50ba 8f3d cc7e 203d
000002d0: 2e12 08be 306f 5a3c 281e 6e3d 4ad4 8f3d
000002e0: 0298 5ebd 7aa3 de3d baac e93d 00df 37bc
000002f0: 404a 683c b6ea be3d 5002 8e3d b466 bebd
00000300: 9849 543d ec7f 843d 2083 903d 8053 7bbc
00000310: 68ed 85bc f16e a7bd fa59 ddbd 32f8 fe3d
00000320: 3007 e0bd bdd7 0bbe 80e5 a7bb 5048 753c
00000330: b8bd 8c3d 5e01 d53d 99c1 96bd 10d6 433d
00000340: d087 003c 28b2 b8bd 8d09 103e 1075 5ebc
00000350: a045 4d3c 2212 03be 2742 e1bd dca3 50bd
00000360: b455 61bd 8074 4a3d 2a62 b6bd be6a f03d
00000370: 9d16 103e dcb3 693d 2051 ab3c 34c4 97bd
00000380: ae17 eb3d 4084 8abb 2440 eebc f851 0f3d
00000390: e065 103d beb6 9abd 6399 e6bd 200f c93b
000003a0: c072 c7bb 1067 28bd bc19 533d 1879 1d3d
000003b0: 00ee d13c 5690 fb3d 1206 fb3d 3a68 863d
000003c0: 00ed a1bc 7a9e 5abd 2a91 a6bd e454 4dbd
000003d0: 1583 023e 4e59 b0bd 4761 d2bd a0e8 31bc
000003e0: fce0 793d b7c1 e0bd 0e5e ae3d 36bf 22bd
000003f0: 8a4b d7bd 80d7 d63b 762a dbbd 6aec e4bd

bias_ih_l0 f4 [200]
-0.12213171 -0.11746265 -0.13520737 -0.03123869 0.11203392 -0.09711748 -0.02298934 -0.01956103
0.08367953 0.051944226 0.011193737 -0.070614755 0.0058127046 0.042500585 -0.12689546 -0.09154138
0.086555496 -0.09124557 0.0754094 -0.017207667 -0.10369799 0.03100963 -0.030817777 -0.12810871
0.06069541 -0.08111943 -0.092377126 -0.12268615 0.09151696 -0.093176365 -0.012572989 0.10984458
-0.02147574 -0.01394631 -0.114982724 -0.08202478 0.121494964 -0.14090917 -0.0780589 0.11029075
0.04581009 0.10562065 0.040312216 0.10749093 -0.08395317 -0.050427124 0.06954518 0.012801543
-0.12891392 0.12693836 -0.019001707 0.011808515 0.017403409 0.012794852 -0.12326248 0.12759842
-0.072450355 0.03743191 -0.13904187 -0.096718796 0.11932872 0.05512725 0.11433302 -0.11392142
0.06883395 -0.06200292 -0.11186226 -0.13995403 -0.03078232 0.088415995 0.028629974 0.0872207
0.06108877 -0.008880764 -0.02415178 -0.09346928 -0.12187753 0.03158687 0.045828 -0.13888267
-0.11275591 -0.10911921 -0.0096812695 0.08876741 -0.07711102 0.063790485 0.0695727 -0.10318576
-0.01801712 0.12727992 -0.06614859 -0.09113856 0.056897536 -0.07089353 -0.0028279126 0.0188535
0.0867659 -0.02983921 -0.049578927 -0.058617115 0.12071456 -0.07752232 0.08485426 -0.106208935
0.0107528865 -0.070932455 -0.06585425 -0.026163027 0.020234436 -0.095495574 0.14112847 0.010532618
-0.13707562 0.035020426 0.09463292 0.03015545 -0.12749368 0.124385074 0.033110663 -0.06167215
-0.019121654 0.054293007 -0.0050112456 -0.05880755 -0.07107682 0.070730254 -0.035217233 -0.061459832
0.10309391 -0.011987627 0.11846088 0.009065285 0.113483146 0.028507635 -0.043420732 -0.0024988502
-0.13302858 0.053531274 -0.046667993 -0.072068214 0.049779385 0.071000546 0.08593249 -0.06875237
-0.05699127 0.011349961 0.030979887 0.08824408 0.11060096 0.00029742718 -0.04982029 0.12424125
0.04180467 0.0963448 -0.032384038 0.13115753 0.096826255 -0.09615305 -0.02458439 -0.07400216
-0.14128338 -0.072586894 -0.07878572 0.033130452 -0.063418284 0.08726278 0.05564986 0.05250454
0.035039738 0.058941364 -0.09664407 -0.069022685 -0.09369105 0.13847597 0.12082742 0.032467663
0.05104427 0.044885024 0.08837716 0.11392002 0.025217667 0.07854475 0.035229757 0.04691048
0.089379236 0.05477856 -0.052661106 0.083386034 0.12465297 -0.13689944 0.04265882 -0.07378255
-0.053758428 -0.14079174 -0.04514403 -0.14139058 -0.056091443 0.038520247 -0.054085754 -0.1309901
00000000: 3120 fabd 4290 f0bd cd73 0abe 48e8 ffbc
00000010: 0a72 e53d 88e5 c6bd 2454 bcbc 743e a0bc
00000020: 2c60 ab3d 78c3 543d f065 373c 789e 90bd
00000030: 8078 be3b 1815 2e3d e2f0 01be 0c7a bbbd
00000040: 0244 b13d f5de babd 3e70 9a3d 18f7 8cbc
00000050: 9d5f d4bd e807 fe3c 9075 fcbc ee2e 03be
00000060: c09b 783d f221 a6bd 3830 bdbd e042 fbbd
00000070: 3e6d bb3d 40d3 bebd f0fe 4dbc 32f6 e03d
00000080: e4ed afbc 107f 64bc 107c ebbd 9cfc a7bd
00000090: 5ad2 f83d 7e4a 10be 58dd 9fbd 1ee0 e13d
000000a0: 5ca3 3b3d a44f d83d 6c1e 253d 3424 dc3d
000000b0: a4ef abbd ac8c 4ebd b46d 8e3d 90bd 513c
000000c0: 0302 04be 21fc 013e 78a9 9bbc 8078 413c
000000d0: 9891 8e3c 80a1 513c 0a71 fcbd 29a9 023e
000000e0: da60 94bd 3452 193d fe60 0ebe 8114 c6bd
000000f0: 9e62 f43d 1ccd 613d 6e27 ea3d a24f e9bd
00000100: d0f8 8c3d c6f6 7dbd 0a18 e5bd 1c50 0fbe
00000110: 342b fcbc 7213 b53d 6889 ea3c c4a0 b23d
00000120: 3838 7a3d a080 11bc f4d9 c5bc d26c bfbd
00000130: ed9a f9bd 3c61 013d 24b6 3b3d 4237 0ebe
00000140: 92ec e6bd e479 dfbd 309e 1ebc b0cb b53d
00000150: 62ec 9dbd 96a4 823d 227c 8e3d 0e53 d3bd
00000160: a498 93bc ab55 023e e978 87bd daa6 babd
00000170: 640d 693d a130 91bd 8054 39bb a872 9a3c
00000180: 52b2 b13d 5c71 f4bc 4613 4bbd 8018 70bd
00000190: 3239 f73d 06c4 9ebd 12c8 ad3d 1284 d9bd
000001a0: e02c 303c 0945 91bd 98de 86bd d853 d6bc
000001b0: b0c2 a53c 2f93 c3bd fb83 103e 0091 2c3c
000001c0: 8d5d 0cbe 9471 0f3d e8ce c13d 9008 f73c
000001d0: b48d 02be 9abd fe3d 0c9f 073d f09b 7cbd
000001e0: 04a5 9cbc 5862 5e3d 6035 a4bb 30e0 70bd
000001f0: b990 91bd 06db 903d f23f 10bd 4ebd 7bbd
00000200: e622 d33d c067 44bc 9e9b f23d 9086 143c
00000210: da69 e83d d888 e93c f0d9 31bd c0c3 23bb
00000220: a538 08be 9c43 5b3d f026 3fbd 8098 93bd
00000230: 78e5 4b3d bc68 913d 60fd af3d 0bce 8cbd
00000240: ae6f 69bd 30f5 393c 88c9 fd3c 50b9 b43d
00000250: c282 e23d 00f0 9b39 5c10 4cbd 3272 fe3d
00000260: 603b 2b3d 6c50 c53d 20a5 04bd 294e 063e
00000270: d84c c63d e4eb c4bd 3465 c9bc 728e 97bd
00000280: 97ac 10be 70a8 94bd 685a a1bd ccb3 073d
00000290: 72e1 81bd d4b6 b23d 1cf1 633d 000f 573d
000002a0: d485 0f3d 806c 713d 54ed c5bd c45b 8dbd
000002b0: 18e1 bfbd a5cc 0d3e 5e74 f73d d0fc 043d
000002c0: cc13 513d 5cd9 373d 16ff b43d e64e e93d
000002d0: 4895 ce3c 12dc a03d 144d 103d 3425 403d
000002e0: 760c b73d 7c5f 603d 2cb3 57bd 4cc6 aa3d
000002f0: 0e4a ff3d 5e2f 0cbe 04bb 2e3d 4e1b 97bd
00000300: cc31 5cbd b62b 10be f2e8 38bd b1c8 10be
00000310: 24c0 65bd 68c7 1d3d 0689 5dbd 4522 06be

bias_hh_l0 f4 [200]
0.051893592 0.05334744 0.067229226 0.11674343 -0.07613815 -0.042458065 -0.004504457 -0.0061275214
-0.1001084 0.09269744 0.08055565 -0.07121287 -0.11778386 0.013373867 -0.114619605 0.027001247
0.0851215 0.12751214 0.13345473 -0.057146423 -0.12445191 -0.0066206157 0.1285413 -0.10739336
0.08366941 0.056686968 0.10241583 0.06839147 -0.081938215 -0.0019693673 0.03139323 0.10979013
0.09664816 -0.027222365 0.05285871 -0.105952226 0.050528184 0.06718472 0.044330522 -0.12439886
-0.029197246 0.010471553 -0.05747045 0.061627895 -0.05426714 -0.069421545 0.06249787 0.02159065
-0.0850907 -0.1366339 0.12805478 0.10642594 -0.04806661 0.07867007 0.007238418 0.029016972
0.12181796 -0.05701518 -0.08809087 0.123733 -0.12448743 -0.12559968 0.116305575 -0.018364377
-0.115637064 0.02977699 0.025215253 -0.06642128 -0.067798786 0.1015899 -0.122536674 0.015923247
-0.079583235 0.10746521 -0.08907604 0.08311424 -0.114596575 0.049926296 -0.0072663575 0.13972093
0.058614567 0.081826925 0.119919166 -0.09646833 0.08814521 0.1265456 0.070029154 -0.13161965
-0.06919076 -0.04450213 0.1155635 -0.01453881 0.09934881 -0.028258853 0.10349655 0.045444116
-0.01707726 0.057278156 0.037173137 0.107382685 -0.10419214 -0.14035805 -0.03298767 -0.04439523
-0.13889983 0.13224511 -0.051082976 -0.07352874 -0.092903346 0.022914529 0.026395857 -0.025274187
0.12451325 0.010929197 0.13602005 -0.09832432 -0.019448802 -0.12986468 -0.1187861 -0.04889065
-0.074523896 -0.14030957 0.007729098 -0.0026105791 0.10038008 0.058992878 0.12487958 0.039548934
-0.027510613 0.011065409 -0.12761296 0.029955804 0.038615167 -0.12434949 0.009155944 -0.00665763
-0.008871794 0.14120476 -0.10785637 0.12723003 0.05313742 0.12457164 0.08818884 -0.008599564
0.026454687 0.04926619 0.05824864 -0.015025616 0.13265984 -0.022937179 -0.01716473 -0.13666058
0.119010195 -0.03812412 0.021606296 0.096405864 -0.057536438 -0.12939961 -0.001071021 0.0073718578
-0.107055396 0.0418012 0.03513375 0.0760023 -0.13284594 -0.025860213 -0.13547768 0.043567836
-0.06955935 0.07413177 -0.10542302 -0.13965696 0.054945365 -0.08583076 -0.016072124 -0.03755515
-0.12507059 -0.13184658 0.12984087 -0.13524632 -0.10040401 0.035009563 -0.1298769 -0.038923495
-0.040295914 -0.003535077 0.088563696 0.09054035 -0.11289154 -0.034745038 -0.04296221 0.123052076
-0.09960569 0.07784979 -0.026128046 -0.062614016 0.014950573 -0.13099343 0.13607739 -0.06373064
00000000: 608e 543d d882 5a3d 7aaf 893d 2e17 ef3d
00000010: 52ee 9bbd 82e8 2dbd 209a 93bb 60c9 c8bb
00000020: a205 cdbd 28d8 bd3d 5cfa a43d 0ed8 91bd
00000030: aa38 f1bd 101e 5b3c afbd eabd b831 dd3c
00000040: 2e54 ae3d 8b92 023e 5ba8 083e 5e12 6abd
00000050: a5e0 febd c0f1 d8bb 55a0 033e 0df1 dbbd
00000060: de5a ab3d 9830 683d 64bf d13d d410 8c3d
00000070: 39cf a7bd 8010 01bb 3096 003d a6d9 e03d
00000080: 78ef c53d 7001 dfbc 6082 583d 7bfd d8bd
00000090: a4f6 4e3d 2498 893d ec93 353d d4c4 febd
000000a0: 102f efbc e090 2b3c 2266 6bbd 886d 7c3d
000000b0: 3847 5ebd e22c 8ebd c4fd 7f3d e0de b03c
000000c0: 0844 aebd c2e9 0bbe cb20 033e d8f5 d93d
000000d0: 7ee1 44bd c61d a13d 4030 ed3b 00b5 ed3c
000000e0: b27b f93d c088 69bd fc68 b4bd ba67 fd3d
000000f0: 44f3 febd 349d 00be 9e31 ee3d e470 96bc
00000100: 20d3 ecbd e0ee f33c 3890 ce3c e107 88bd
00000110: 17da 8abd 5e0e d03d 82f4 fabd 7871 823c
00000120: 89fc a2bd b816 dc3d 806d b6bd cc37 aa3d
00000130: 9cb1 eabd 847f 4c3d a01a eebb 0113 0f3e
00000140: d415 703d e094 a73d 2e98 f53d 3091 c5bd
00000150: 7a85 b43d 2b95 013e 726b 8f3d 4dc7 06be
00000160: e3b3 8dbd de47 36bd 8eac ec3d 3034 6ebc
00000170: 6477 cb3d 1c7f e7bc 00f6 d33d 9c23 3a3d
00000180: 9ce5 8bbc 809c 6a3d dc42 183d 74eb db3d
00000190: b062 d5bd 05ba 0fbe 141e 07bd c6d7 35bd
000001a0: c23b 0ebe 436b 073e 623c 51bd 3c96 96bd
000001b0: 1c44 bebd 40b7 bb3c 203c d83c d00b cfbc
000001c0: ce00 ff3d 6010 333c d748 0b3e 435e c9bd
000001d0: 1853 9fbc 3ffb 04be 2046 f3bd 9041 48bd
000001e0: fc9f 98bd 50ad 0fbe 6044 fd3b 4016 2bbb
000001f0: 1294 cd3d 84a2 713d dec0 ff3d 10fe 213d
00000200: f05d e1bc b04b 353c f9ac 02be e065 f53c
00000210: f02a 1e3d f2aa febd d002 163c 4028 dabb
00000220: 005b 11bc fb97 103e cde3 dcbd 9748 023e
00000230: a0a6 593d 6a1f ff3d 5a9c b43d 30e5 0cbc
00000240: 80b7 d83c 58cb 493d 2096 6e3d 002e 76bc
00000250: fbd7 073e c0e6 bbbc 0c9d 8cbc c0f0 0bbe
00000260: 9ebb f33d 0a28 1cbd b0ff b03c 7070 c53d
00000270: 54ab 6bbd 5581 04be 8061 8cba a08f f13b
00000280: dc3f dbbd bc37 2b3d 68e8 0f3d 18a7 9b3d
00000290: c408 08be ccd8 d3bc a9ba 0abe 3074 323d
000002a0: 2275 8ebd 66d2 973d 06e8 d7bd 3c02 0fbe
000002b0: 640e 613d 0ac8 afbd b0a9 83bc 6ed3 19bd
000002c0: 8112 00be ca02 07be 01f5 043e 037e 0abe
000002d0: 9ea0 cdbd 3066 0f3d 73fe 04be 3e6e 1fbd
000002e0: 540d 25bd c0ac 67bb e260 b53d 386d b93d
000002f0: ae33 e7bd d050 0ebd 24f9 2fbd ba02 fc3d
00000300: 11fe cbbd b66f 9f3d 7c0a d6bc c73b 80bd
00000310: 40f3 743c 2423 06be df57 0b3e 3685 82bd

weight_ih_l1 f4 [200, 50]
0.10561024 -0.13312875 0.03252448 -0.11592931 0.04661952 0.03968592 -0.12114666 0.08507973
0.048394874 -0.00082433224 -0.08056229 0.021204978 -0.015187755 0.027219161 0.12049781 -0.12619174
0.09431517 -0.007271111 0.069752336 0.037705705 -0.06817688 -0.050676666 -0.035390556 -0.051949047
-0.004357323 -0.04040455 -0.0368983 0.10673007 0.0016188473 0.03642465 -0.08470961 0.104921386
0.13949029 -0.073302425 -0.0941356 -0.07558498 0.014857337 -0.003957823 -0.13221832 0.13307293
0.021947935 -0.09546918 0.0017018616 -0.04526993 -0.03264302 0.05689755 -0.06289222 -0.07078857
0.048813045 0.03620234 0.033541813 0.010918468 0.04068999 -0.016142905 -0.07635708 0.094980955
0.0768428 0.13240163 0.111901805 -0.11696518 0.065694734 -0.116834745 -7.356703e-05 -0.08550955
0.010523036 0.14064907 -0.043608084 -0.075314716 -0.1249385 -0.037802555 -0.016734287 0.13062905
-0.13464788 -0.131537 0.0648198 0.12732168 0.056553215 -0.12109289 -0.080939844 0.12686475
-0.098308384 -0.05015342 -0.054137543 0.118178025 0.10943435 -0.08833978 0.0067946464 0.11836447
0.07035881 0.089375064 -0.118230045 -0.024048202 0.02248986 -0.032742336 -0.13117981 0.10382941
0.0066477954 -0.07313677 -0.00062288344 0.10521193 -0.07159829 -0.0065660775 0.035460338 -0.12558581
-0.06805015 0.09166072 -0.12945996 0.10513097 0.03832324 0.08344321 0.11908524 0.115123555
-0.12723519 -0.0680719 -0.051924095 -0.09776871 -0.07287939 -0.052826695 0.058447853 -0.013036519
-0.13455474 0.05497919 0.14089309 0.056236744 0.11492251 -0.11206333 -0.1231853 -0.02320017
-0.022936858 -0.094272576 -0.13851802 -0.0065966398 -0.09989697 0.07444544 -0.05258236 -0.03254872
-0.053402334 0.035752 0.059001133 -0.03215997 0.060689628 0.040566698 0.08453384 0.08136226
0.09213813 0.011591479 -0.10926139 0.024009049 -0.04787439 -0.056338772 0.069312096 -0.023437023
-0.12504002 0.07776435 0.02789852 0.027450934 -0.078530625 -0.07334447 0.030313328 0.06528443
0.093006775 -0.04451046 -0.09225528 0.029113352 -0.085752904 -0.13103783 -0.046260975 -0.10868482
0.023713872 0.10525943 0.0038528591 -0.089652084 -0.12266787 0.08048105 -0.12688863 -0.11624118
-0.0026905686 0.07511088 -0.05581691 -0.089031816 0.034203768 0.027825445 0.10486017 0.050171927
-0.13713367 0.028054312 -0.032075487 -0.047865152 0.13095383 0.008483902 -0.13860781 -0.019771136
0.111266 0.009430438 0.13492577 0.010025725 -0.04366719 0.020404145 0.121785864 0.08948451
-0.116413884 -0.13810067 0.1289668 -0.0053422004 0.041583374 0.12053947 -0.1301371 0.05903779
0.07655284 0.041283697 -0.07437006 -0.10387577 0.06823395 0.09681772 0.10172701 -0.048595287
-0.0050251335 -0.124212 0.029928118 0.04299818 0.12122701 0.0065186024 0.09560594 0.015803993
-0.11837322 -0.0022499263 -0.062069044 0.122201726 0.010836035 -0.07450403 0.036696717 0.017772898
0.0023631006 -0.10110684 -0.10916424 -0.024480224 -0.0014119893 -0.011317834 -0.087089956 -0.109122075
-0.0065938234 -0.039720185 -0.03058403 0.0029564947 -0.012612179 -0.11356683 -0.12137607 0.114395514
0.027422696 -0.092604876 -0.07459123 0.13252653 -0.114308566 0.012046665 -0.034570783 0.09166765
00000000: 2e4a d83d e752 08be 6438 053d 596c edbd
00000010: 1cf4 3e3d b48d 223d bd1b f8bd 483e ae3d
00000020: b439 463d 0018 58ba d8fd a4bd 10b6 ad3c
00000030: 10d6 78bc b8fa de3c 8ec7 f63d 6838 01be
00000040: 5028 c13d 8042 eebb 50da 8e3d 4c71 1a3d
00000050: 52a0 8bbd 5692 4fbd b0f5 10bd 86c8 54bd
00000060: e0c7 8ebb 3e7f 25bd ac22 17bd 4c95 da3d
00000070: 802f d43a 0432 153d 3b7c adbd 06e1 d63d
00000080: 8bd6 0e3e 951f 96bd 2aca c0bd 4ccc 9abd
00000090: 306c 733c a0b0 81bb 3d64 07be 4544 083e
000000a0: 28cc b33c 5885 c3bd 0011 df3a f66c 39bd
000000b0: b0b4 05bd 680d 693d a3cd 80bd 99f9 90bd
000000c0: 30f0 473d e848 143d 2463 093d 60e3 323c
000000d0: 8caa 263d 203e 84bc 1a61 9cbd 6085 c23d
000000e0: c25f 9d3d 4b94 073e c62c e53d 718b efbd
000000f0: f68a 863d 0e47 efbd 0048 9ab8 a21f afbd
00000100: d068 2c3c 4f06 103e 649e 32bd 9a3e 9abd
00000110: c2df ffbd dad6 1abd 5816 89bc 9fc3 053e
00000120: 22e1 09be a3b1 06be 3ec0 843d 9d60 023e
00000130: 58a4 673d 8dff f7bd cac3 a5bd d5e8 013e
00000140: e855 c9bd ac6d 4dbd 54bf 5dbd 5207 f23d
00000150: 1e1f e03d 7deb b4bd a0a5 de3b 1269 f23d
00000160: 4818 903d 460a b73d 9822 f2bd bc00 c5bc
00000170: a83c b83c d41c 06bd 0054 06be 84a4 d43d
00000180: c0d5 d93b bbc8 95bd 0049 23ba 5a79 d73d
00000190: 20a2 92bd 4028 d7bb dc3e 113d 9199 00be
000001a0: e15d 8bbd 9eb8 bb3d 2791 04be e84e d73d
000001b0: d4f8 1c3d 46e4 aa3d f6e2 f33d e6c5 eb3d
000001c0: f149 02be 4869 8bbd 5cae 54bd f63a c8bd
000001d0: ca41 95bd ce60 58bd 0467 6f3d 2097 55bc
000001e0: b8c8 09be dc31 613d 4746 103e 8058 663d
000001f0: 7e5c eb3d 7681 e5bd 9348 fcbd 480e bebc
00000200: 14e6 bbbc fb11 c1bd abd7 0dbe a028 d8bb
00000210: c896 ccbd da76 983d 9a60 57bd ce51 05bd
00000220: 68bc 5abd b070 123d 2cab 713d 2cba 03bd
00000230: b095 783d 4429 263d 1420 ad3d 42a1 a63d
00000240: eab2 bc3d 30ea 3d3c 70c4 dfbd a0ae c43c
00000250: f017 44bd 7cc3 66bd 80f3 8d3d 00ff bfbc
00000260: 7e0a 00be ea42 9f3d 708b e43c c8e0 e03c
00000270: aad4 a0bd a035 96bd a853 f83c d8b3 853d
00000280: 567a be3d 9a50 36bd 56f0 bcbd 207f ee3c
00000290: 389f afbd c82e 06be 267c 3dbd 2696 debd
000002a0: 9843 c23c 4292 d73d 4080 7c3b 839b b7bd
000002b0: 4b39 fbbd 40d3 a43d 18ef 01be db0f eebd
000002c0: 4054 30bb bcd3 993d 46a0 64bd 5056 b6bd
000002d0: 4019 0c3d 30f2 e33c eec0 d63d 1481 4d3d
000002e0: c56c 0cbe 28d2 e53c 9661 03bd 400e 44bd
000002f0: c318 063e 1000 0b3c 35ef 0dbe 14f7 a1bc
00000300: 6edf e33d 2082 1a3c fb29 0a3e f042 243c
00000310: 5edc 32bd 9826 a73c de6a f93d a843 b73d
00000320: 676a eebd 436a 0dbe df0f 043e a00d afbb
00000330: 5453 2a3d 66dd f63d a942 05be 9cd1 713d
00000340: bcc7 9c3d 1819 293d 544f 98bd d2bc d4bd
00000350: 3ebe 8b3d 5e48 c63d 4056 d03d da0b 47bd
00000360: e0a9 a4bb dc62 febd d02b f53c dc1e 303d
00000370: de45 f83d 009a d53b 0ccd c33d 6077 813c
00000380: a96d f2bd 8073 13bb 1c3c 7ebd e644 fa3d
00000390: a089 313c 9295 98bd 4c4f 163d 7898 913c
000003a0: 40de 1a3b 1a11 cfbd 8091 dfbd c08a c8bc
000003b0: 8012 b9ba 706e 39bc 385c b2bd 657b dfbd
000003c0: 0011 d8bb a2b1 22bd 5c8b fabc c0c1 413b
000003d0: 50a3 4ebc ba95 e8bd 0494 f8bd 3248 ea3d
000003e0: 90a5 e03c a0a7 bdbd 49c3 98bd 09b5 073e
000003f0: 9c1a eabd 605f 453c 189a 0dbd 40bc bb3d

weight_hh_l1 f4 [200, 50]
-0.11606556 0.12036593 0.005405396 -0.10804652 0.06035635 0.08598554 0.07101826 -0.0010351539
0.006571904 -0.03662937 -0.01378338 0.020313233 0.07571465 -0.11489555 -0.11743635 -0.059902914
0.12692107 0.026894256 0.10779646 0.070983395 -0.07687355 0.13114904 -0.049827017 -0.1043935
-0.07353735 0.08188836 -0.12101246 -0.029267028 -0.115515344 -0.032951184 0.12377553 0.07174741
0.13577373 0.084227815 -0.089343145 0.06927721 0.06782089 -0.006726533 0.020806983 -0.09689598
-0.08285542 -0.07590255 -0.11235194 -0.102276094 0.0062410384 -0.0825221 -0.07646369 0.13904367
-0.034254283 0.13996507 0.07929857 -0.0907667 0.1293547 0.07577756 -0.033052973 -0.022428632
-0.0236324 -0.1399744 -0.029045366 -0.014647216 -0.12776665 0.0394665 0.11996625 -0.0109438
0.09112358 -0.11138642 0.08043282 0.029996619 0.09912275 -0.08754745 0.053383976 -0.095641434
0.07021913 -0.03576278 0.13185124 -0.052512094 0.014622465 0.064223155 0.056551963 0.08668609
0.121437564 0.04268709 -0.039545022 -0.00915356 0.11311863 -0.025937326 -0.10698663 -0.08568647
0.008285493 -0.007322997 -0.050733194 0.011490047 -0.11183945 -0.12451038 0.055336356 -0.09854318
-0.06356927 0.042970806 -0.0761312 0.04644084 0.12079756 0.012934402 -0.097399935 -0.09781043
0.11457516 0.0025203973 -0.077046566 0.04043463 -0.06263371 -0.026190542 -0.06795531 0.1315503
0.010541946 -0.065159686 0.051748335 -0.012289673 0.03607805 0.037879094 -0.1056806 -0.10619159
0.058674723 -0.078735545 -0.0358243 -0.06681191 -0.105661854 0.10472362 0.03211403 -0.12114436
-0.06338763 -0.08096711 -0.10535408 -0.095864296 0.029992446 -0.01215072 0.14041342 0.025181979
-0.087712586 -0.10920883 -0.031031698 -0.029157862 -0.09631114 0.1313708 0.09293926 -0.12060687
0.07719678 0.032921955 -0.08730791 -0.065476686 0.0605765 0.118321344 -0.1267511 -0.07506172
-0.085926436 -0.07574812 -0.028992765 0.10051733 0.0808585 0.026246533 -0.10651657 -0.13733898
0.05221495 -0.0155056715 -0.013667464 0.05133529 0.06271285 -0.1257986 0.13541044 -0.0750454
0.022853494 -0.0750188 -0.026418 0.07223454 -0.1286833 0.1071351 0.1360216 0.002796784
-0.022060268 0.12356557 0.08731088 -0.0028612018 -0.04095701 0.09220284 -0.020970568 -0.03628266
0.08628176 -0.059728578 -0.0732983 -0.082332626 0.018579721 -0.093823425 0.024529725 0.09473474
0.023561254 0.09861328 -0.11000915 0.12539183 -0.12747312 0.08029924 -0.05225397 -0.04200583
-0.12550503 -0.07248132 0.003515631 -0.10687747 -0.03811024 0.04336384 -0.13677016 -0.13017514
0.03186348 0.015447527 0.13166808 -0.06566734 -0.10906902 0.05802335 -0.13018113 0.1207463
-0.053850606 -0.025180757 -0.08751114 -0.04617724 -0.006491676 -0.04126642 -0.09844917 0.08967252
0.05992803 0.052574262 0.08990364 -0.09285976 0.121446446 0.036155984 0.072942376 -0.06313741
0.100298 -0.11237445 -0.13980788 0.07001965 0.07093251 -0.034533024 -0.010232106 -0.08380296
-0.10508777 0.066112176 0.041462913 -0.12188279 -0.05699466 0.08450906 -0.017656311 -0.017714001
0.0650841 0.099200755 -0.11086434 0.06460932 -0.053061873 -0.07338815 -0.07776212 -0.09464089
00000000: c8b3 edbd 6a82 f63d c01f b13b 7e47 ddbd
00000010: 3838 773d 3019 b03d 0672 913d 00ae 87ba
00000020: 2059 d73b ae08 16bd b0d3 61bc f067 a63c
00000030: 4810 9b3d 5c4e ebbd 7882 f0bd c25c 75bd
00000040: 99f7 013e 5851 dc3c 64c4 dc3d be5f 913d
00000050: e16f 9dbd ef4b 063e 6a17 4cbd 42cc d5bd
00000060: c09a 96bd 16b5 a73d 61d5 f7bd 68c1 efbc
00000070: 4f93 ecbd d2f7 06bd 067e fd3d 4ef0 923d
00000080: 4508 0b3e a27f ac3d 8af9 b6bd 36e1 8d3d
00000090: aee5 8a3d 406a dcbb 6873 aa3c 6671 c6bd
000000a0: 1ab0 a9bd cc72 9bbd c618 e6bd 2176 d1bd
000000b0: a081 cc3b 5901 a9bd ff98 9cbd 7761 0e3e
000000c0: 384e 0cbd 0153 0f3e 4a67 a23d e4e3 b9bd
000000d0: 8f75 043e 4431 9b3d 8e62 07bd 40bc b7bc
000000e0: bc98 c1bc 7355 0fbe 8cf0 edbc e0fa 6fbc
000000f0: 43d5 02be a0a7 213d deb0 f53d a04d 33bc
00000100: 009f ba3d 901e e4bd f6b9 a43d 78bb f53c
00000110: de00 cb3d 144c b3bd 28a9 5a3d a8df c3bd
00000120: 0ccf 8f3d fe7b 12bd 0304 073e ec16 57bd
00000130: 1093 6f3c 6e87 833d 08a3 673d 7a88 b13d
00000140: 42b4 f83d a8d8 2e3d f6f9 21bd d0f8 15bc
00000150: beaa e73d 847a d4bc ce1b dbbd 637c afbd
00000160: e0bf 073c c0f5 efbb 9ccd 4fbd c040 3c3c
00000170: 150c e5bd 4cff febd 60a8 623d 02d1 c9bd
00000180: 9b30 82bd 2802 303d adea 9bbd c038 3e3d
00000190: b664 f73d d0ea 533c 9e79 c7bd d650 c8bd
000001a0: 62a6 ea3d 402d 253b 97ca 9dbd c89e 253d
000001b0: 1a46 80bd 8c8d d6bc 272c 8bbd 1fb5 063e
000001c0: 20b8 2c3c 7172 85bd 10f6 533d a05a 49bc
000001d0: 94c6 133d 1c27 1b3d 126f d8bd fa7a d9bd
000001e0: e854 703d 1a40 a1bd 80bc 12bd afd4 88bd
000001f0: 3e65 d8bd 5679 d63d 008a 033d 891a f8bd
00000200: 60d1 81bd 16d2 a5bd e1c3 d7bd 8054 c4bd
00000210: b8b2 f53c d013 47bc 89c8 0f3e 704a ce3c
00000220: a8a2 b3bd e1a8 dfbd 3036 febc 78dc eebc
00000230: c63e c5bd 1186 063e f056 be3d bc00 f7bd
00000240: 5819 9e3d 2cd9 063d 7dce b2bd a418 86bd
00000250: 101f 783d 7652 f23d 0acb 01be f6b9 99bd
00000260: 33fa afbd d521 9bbd 3c82 edbc 08dc cd3d
00000270: 2499 a53d f802 d73c 5c25 dabd 97a2 0cbe
00000280: 58df 553d 800b 7ebc 80ed 5fbc f444 523d
00000290: 986f 803d 59d1 00be 09a9 0a3e 67b1 99bd
000002a0: 4037 bb3c 75a3 99bd 906a d8bc b4ef 933d
000002b0: 8ec5 03be a669 db3d 3f49 0b3e 404a 373b
000002c0: bcb7 b4bc f20f fd3d 0cd0 b23d 0083 3bbb
000002d0: 8ac2 27bd d8d4 bc3d 78ca abbc 209d 14bd
000002e0: 7eb4 b03d f4a5 74bd 6b1d 96bd 029e a8bd
000002f0: 8034 983c 7f26 c0bd 90f2 c83c 4a04 c23d
00000300: 8803 c13c c2f5 c93d 7a4c e1bd b766 003e
00000310: 5088 02be ee73 a43d 4208 56bd 4e0e 2cbd
00000320: 6484 00be 1671 94bd 8066 663b 93e2 dabd
00000330: 7c19 1cbd 489e 313d 7a0d 0cbe a24c 05be
00000340: 4883 023d a017 7d3c ffd3 063e 997c 86bd
00000350: 945f dfbd e4a9 6d3d 344e 05be d649 f73d
00000360: 7492 5cbd e047 cebc 0a39 b3bd 5824 3dbd
00000370: 20b8 d4bb fa06 29bd b89f c9bd 3aa6 b73d
00000380: 1877 753d 1c58 573d 661f b83d 422d bebd
00000390: eab8 f83d 4c18 143d d062 953d 304e 81bd
000003a0: 0a69 cd3d 9324 e6bd cc29 0fbe 7666 8f3d
000003b0: 1045 913d 8072 0dbd 90a4 27bc e3a0 abbd
000003c0: 4238 d7bd d265 873d 04d5 293d af9d f9bd
000003d0: 3c73 69bd 1613 ad3d f8a3 90bc f41c 91bc
000003e0: d04a 853d c429 cb3d d80c e3bd e451 843d
000003f0: 6857 59bd 874c 96bd bf41 9fbd 15d3 c1bd

bias_ih_l1 f4 [200]
0.13041644 0.03462997 -0.063200265 0.036997557 0.026022673 0.11591454 -0.13349873 0.12252574
0.12680627 0.07631828 -0.084970355 -0.04436352 0.13140468 -0.07918422 -0.13055032 0.11631636
-0.09976652 0.087089315 0.025887951 -0.093765914 -0.096336335 0.024940833 -0.057633072 0.005183369
-0.090206295 -0.0068604946 0.106150836 0.10621828 -0.12892848 -0.115387015 0.119655 0.040778905
0.0006928891 0.020547286 0.13152649 -0.02569078 0.060842723 -0.079300866 -0.061768062 0.03046684
-0.0957527 0.00095783174 -0.13246734 0.07814175 -0.05999776 -0.10851094 0.060717046 0.009426653
-0.0886075 -0.088622466 -0.10204499 0.003944978 -0.09764938 0.06793548 -0.09359 0.11346121
-0.13754642 0.051197335 -0.014912367 0.09046382 -0.0071766376 -0.07706714 0.009153172 -0.020415515
0.13116749 -0.106607825 -0.12803034 -0.012684345 -0.13743015 0.1410294 -0.09945409 -0.0142213255
0.11570729 0.040697947 0.115116194 -0.08409286 -0.09969112 -0.011383504 0.11329822 -0.076356806
0.04322411 -0.055505246 -0.08124392 -0.058927014 0.06047499 0.012449622 0.04286149 -0.13282007
0.04061079 0.02422075 -0.010836825 -0.1004028 0.11572562 0.045238435 0.048692912 0.114176854
-0.10941176 -0.106277645 -0.0639421 -0.0879748 -0.07676708 -0.07806689 0.114360765 -0.077661894
-0.08495334 0.014497057 0.07558738 0.0013247132 -0.017773814 0.05441077 -0.1309671 -0.09937063
-0.04203046 0.029844955 -0.13634387 -0.05384004 -0.067062065 -0.107115984 0.022409663 0.079953775
0.06769216 -0.1075481 -0.11454508 -0.11030047 0.066720545 0.0071367472 -0.04400342 0.0022585988
-0.10119531 -0.1283158 -0.094114795 -0.082665995 0.119154766 0.02088283 0.0138184875 0.07701224
0.031194583 -0.03402163 0.07735556 -0.13556187 -0.024341643 -0.120315194 0.13666244 0.13062494
-0.12264742 -0.010977164 -0.099216975 -0.0037757307 -0.06798907 0.07217854 0.13460957 0.03961706
0.09892154 -0.06453138 -0.015217125 0.09345536 0.113350704 0.08177684 -0.027894266 -0.13811518
0.0899156 0.1310776 0.088312924 -0.015059069 -0.03124538 0.07868008 0.10138042 0.093560725
0.05356686 -0.020097509 0.050482035 0.13176863 -0.008021697 -0.0335233 -0.017906986 0.013727769
0.03635545 -0.025210187 0.11779456 0.12982659 0.11787449 0.066905305 0.03816898 0.13130288
-0.117837265 -0.06659054 0.092618465 -0.029829971 -0.14133334 -0.008085489 0.10361537 -0.11561178
0.017939597 0.10358587 0.034255624 -0.095691115 -0.09531365 0.10677722 0.11124958 -0.09460125
00000000: e38b 053e 28d8 0d3d 246f 81bd c08a 173d
00000010: 802d d53c 9a64 ed3d e4b3 08be c6ee fa3d
00000020: 81d9 013e c24c 9c3d f004 aebd 86b6 35bd
00000030: f38e 063e 562b a2bd fcae 05be 4637 ee3d
00000040: 6452 ccbd e25b b23d f812 d43c 5808 c0bd
00000050: fc4b c5bd b850 cc3c a810 6cbd 40d9 a93b
00000060: 14be b8bd 00ce e0bb 9c65 d93d f888 d93d
00000070: d405 04be 0750 ecbd ae0d f53d c807 273d
00000080: 00a3 353a c852 a83c e1ae 063e 7875 d2bc
00000090: 3836 793d 7e68 a2bd 8200 7dbd 9895 f93c
000000a0: fe19 c4bd 0017 7b3a 85a5 07be c808 a03d
000000b0: 36c0 75bd fc3a debd 70b2 783d 4072 1a3c
000000c0: d977 b5bd b27f b5bd f7fc d0bd e044 813b
000000d0: 66fc c7bd c221 8b3d 1dac bfbd 5a5e e83d
000000e0: f8d8 0cbe 4cb4 513d 0053 74bc 1845 b93d
000000f0: 002a ebbb 60d5 9dbd 30f7 153c 703e a7bc
00000100: c550 063e 3455 dabd 631a 03be 00d2 4fbc
00000110: 7dba 0cbe 036a 103e 96ae cbbd 9000 69bc
00000120: f2f7 ec3d e4b2 263d 0ac2 eb3d e138 acbd
00000130: dc2a ccbd e081 3abc e608 e83d f560 9cbd
00000140: c40b 313d 7859 63bd 3663 a6bd 745d 71bd
00000150: a0b4 773d 80f9 4b3c 888f 2f3d fc01 08be
00000160: 8057 263d 986a c63c f08c 31bc fc9f cdbd
00000170: 8e01 ed3d f04b 393d 3872 473d 8ed5 e93d
00000180: 4613 e0bd 18a8 d9bd 13f4 82bd 222c b4bd
00000190: 0f38 9dbd 89e1 9fbd fa35 ea3d 330d 9fbd
000001a0: 04fc adbd 1085 6d3c 8ecd 9a3d 00a2 ad3a
000001b0: 649a 91bc d4dd 5e3d 3d1c 06be d482 cbbd
000001c0: 2228 2cbd 687d f43c ba9d 0bbe 6087 5cbd
000001d0: d657 89bd a05f dbbd 7894 b73c cebe a33d
000001e0: 30a2 8a3d 2e42 dcbd 9c96 eabd 36e5 e1bd
000001f0: c8a4 883d 60db e93b ee3c 34bd 0005 143b
00000200: 7d3f cfbd 3865 03be 42bf c0bd ca4c a9bd
00000210: 6a07 f43d 7812 ab3c f066 623c 98b8 9d3d
00000220: c88b ff3c 445a 0bbd 986c 9e3d bbd0 0abe
00000230: 2068 c7bc d067 f6bd 3df1 0b3e 8bc2 053e
00000240: 922e fbbd 90d9 33bc 4532 cbbd 4072 77bb
00000250: db3d 8bbd 58d2 933d 17d7 093e 8045 223d
00000260: 6097 ca3d 0729 84bd 4051 79bc 8665 bf3d
00000270: 6a24 e83d 9e7a a73d 8482 e4bc 116e 0dbe
00000280: ac25 b83d 3539 063e 68dd b43d 50ba 76bc
00000290: 50f6 ffbc 0623 a13d 8aa0 cf3d c49c bf3d
000002a0: ec68 5b3d 88a3 a4bc 40c6 4e3d 5bee 063e
000002b0: 706d 03bc ba4f 09bd acb1 92bc 70ea 603c
000002c0: 74e9 143d 9885 cebc 463e f13d 43f1 043e
000002d0: 2e68 f13d a605 893d 1457 1c3d 4374 063e
000002e0: aa54 f1bd 9f60 88bd c0ae bd3d fc5d f4bc
000002f0: b0b9 10be 0079 04bc 4c34 d43d dec5 ecbd
00000300: 10f6 923c d424 d43d a04f 0c3d b4f9 c3bd
00000310: ce33 c3bd 04ae da3d d2d6 e33d 4dbe c1bd

bias_hh_l1 f4 [200]
-0.10404717 0.089555174 0.030881181 0.13196103 0.08339563 0.1309946 -0.08993224 -0.1404156
0.09043005 -0.008914873 0.05123605 0.123839006 0.021361336 0.08706282 0.104870126 0.05146168
0.05323063 0.04818192 -0.07609083 -0.11817554 -0.00478898 0.13519733 0.1113383 -0.077261165
-0.07267049 -0.01657211 -0.06660743 -0.045635045 -0.09137542 -0.004288137 0.024290532 -0.001995638
0.024542823 0.0044832975 -0.03177426 -0.020751521 0.08354086 -0.04907264 -0.019524142 0.03905271
0.07041915 -0.030886054 0.0162763 0.11562736 0.06384222 0.04251094 0.07474761 0.10948454
0.09110287 -0.08772221 -0.057603955 -0.059461854 -0.032337442 -0.10720724 -0.005367473 -0.11416646
-0.13976645 0.040298402 -0.09846796 -0.040480517 -0.09549569 -0.042639986 0.05912073 -0.09788449
0.11355339 0.11668731 -0.054260477 0.011177242 0.060934126 -0.07542551 0.10469854 -0.08436493
-0.08893286 -0.054077193 0.028906077 0.12981062 -0.09757137 -0.07049035 -0.03679631 0.105179414
-0.10421288 -0.0644588 -0.00064463913 0.050268233 0.07543765 0.1086248 0.11930795 -0.06010677
0.057045072 0.06698462 0.009780332 -0.12519228 -0.058114424 0.06890698 0.0126737505 0.035053566
-0.08177998 0.053888768 -0.071414925 0.059780672 0.08635691 0.010795206 -0.045253344 0.124299124
0.13027309 -0.04471282 -0.019132815 0.095234826 -0.10150206 -0.057656877 0.09823865 -0.13141614
-0.055063307 -0.09075709 -0.12558 -0.09156364 0.055933714 0.06565867 0.015567496 0.06711924
-0.056690484 -0.07963365 -0.040256247 -0.07753459 0.086706236 -0.0070255995 0.13860856 0.10067922
0.12421273 -0.010582954 0.07912058 -0.13600582 0.041095123 0.055316254 0.023798272 -0.0059910864
0.07134111 -0.026897967 -0.13354556 0.07009992 0.050335616 -0.015493199 0.12586199 -0.08783735
0.0043611974 0.11045785 0.05799216 0.08645305 0.1249633 -0.014633343 0.0028764457 -0.070758596
-0.018302351 0.075455844 0.09814821 -0.052235305 -0.023860782 0.073641255 0.099971935 -0.09582936
-0.11213234 0.077561095 -0.025187701 0.11519207 0.09116185 0.0333824 0.049842775 -0.04908193
-0.11590296 0.09919858 0.016719595 0.101494506 0.0069449395 0.13248537 -0.03992694 0.0069481134
-0.09222512 -0.04948227 -0.0058684796 -0.10020392 -0.10787861 -0.007528931 -0.11199062 -0.062715136
0.09589034 -0.12456977 0.0633198 0.00048081577 -0.055588715 -0.047888547 0.11208318 -0.10234085
-0.10189815 -0.04871227 0.10321802 0.034549862 -0.105207115 0.02991341 -0.06386035 0.08160475
00000000: af16 d5bd b468 b73d 88fa fc3c cb20 073e
00000010: 54cb aa3d 7323 063e 652e b8bd 1bc9 0fbe
00000020: 6433 b93d b00f 12bc e4dc 513d 4e9f fd3d
00000030: f8fd ae3c fe4d b23d 26c6 d63d 7cc9 523d
00000040: 5c08 5a3d 685a 453d 82d5 9bbd 0406 f2bd
00000050: e0ec 9cbb 2b71 0a3e 5605 e43d 1a3b 9ebd
00000060: 44d4 94bd 3cc2 87bc 7a69 88bd d0eb 3abd
00000070: 0923 bbbd 8083 8cbb f0fc c63c 40c9 02bb
00000080: 080e c93c a0e8 923b ba25 02bd 18ff a9bc
00000090: 7817 ab3d 6400 49bd 18f1 9fbc bcf5 1f3d
000000a0: ea37 903d c004 fdbc e055 853c 0ace ec3d
000000b0: b6bf 823d f41f 2e3d 4615 993d 6e39 e03d
000000c0: 2494 ba3d b4a7 b3bd 20f2 6bbd 468e 73bd
000000d0: 4474 04bd 788f dbbd a0e1 afbb 1bd0 e9bd
000000e0: f01e 0fbe f00f 253d 92a9 c9bd e6ce 25bd
000000f0: 3f93 c3bd 44a7 2ebd 9428 723d aa77 c8bd
00000100: ae8e e83d c2f9 ee3d 3c40 5ebd c020 373c
00000110: 1096 793d b178 9abd 306c d63d 85c7 acbd
00000120: 6e22 b6bd 0c80 5dbd 70cc ec3c 13ed 043e
00000130: 80d3 c7bd 3f5d 90bd bab7 16bd 4e68 d73d
00000140: 906d d5bd fa02 84bd 00fd 28ba 10e6 4d3d
00000150: 0e7f 9a3d ae76 de3d ba57 f43d 8432 76bd
00000160: 18a8 693d 3c2f 893d b03d 203c 6832 00be
00000170: 6409 6ebd 1a1f 8d3d 90a5 4f3c 5494 0f3d
00000180: 437c a7bd 78ba 5c3d fd41 92bd 94dc 743d
00000190: e4db b03d 60de 303c 925b 39bd 8a90 fe3d
000001a0: 4f66 053e ca24 37bd 6cbc 9cbc 7a0a c33d
000001b0: 50e0 cfbd 9e29 6cbd 5831 c93d f491 06be
000001c0: 108a 61bd dade b9bd 0b98 00be b885 bbbd
000001d0: c01a 653d 0e78 863d d00e 7f3c d075 893d
000001e0: 4834 68bd f816 a3bd bce3 24bd 75ca 9ebd
000001f0: 0a93 b13d 0037 e6bb 67ef 0d3e e830 ce3d
00000200: 3e63 fe3d 2064 2dbc f809 a23d 1c45 0bbe
00000210: 5c53 283d 4c93 623d 98f4 c23c e050 c4bb
00000220: 4a1b 923d 2059 dcbc 2bc0 08be 8c90 8f3d
00000230: b82c 4e3d 30d7 7dbc f7e1 003e 12e4 b3bd
00000240: 60e8 8e3b ba37 e23d 3089 6d3d 4c0e b13d
00000250: c2ec ff3d b0c0 6fbc c082 3c3b e2e9 90bd
00000260: d0ee 95bc 9888 9a3d ee01 c93d b0f4 55bd
00000270: b077 c3bc 3ad1 963d 16be cc3d 2f42 c4bd
00000280: a4a5 e5bd 5ad8 9e3d 7056 cebc d2e9 eb3d
00000290: 10b3 ba3d fcbb 083d f027 4c3d 220a 49bd
000002a0: 885e edbd a028 cb3d 88f7 883c 5adc cf3d
000002b0: 6092 e33b 3faa 073e 6e8a 23bd 00ad e33b
000002c0: 86e0 bcbd ecad 4abd 604c c0bb b637 cdbd
000002d0: 76ef dcbd 40b5 f6bb 575b e5bd cb70 80bd
000002e0: 2862 c43d 701e ffbd d0ad 813d 0016 fc39
000002f0: feb0 63bd c826 44bd de8b e53d 1498 d1bd
00000300: faaf d0bd 8486 47bd f863 d33d 2884 0d3d
00000310: d476 d7bd f80c f53c 37c9 82bd 6420 a73d

weight f4 [1, 50]
-0.047267996 -5.6877732e-05 0.114224866 -0.012339085 0.109501705 -0.09450575 -0.058960423 0.028669253
-0.11124133 -0.046769112 -0.07782906 -0.014905363 0.08983539 0.020956025 -0.02116222 0.029860184
-0.09269684 -0.09265409 -0.081825316 0.029962644 -0.11927301 -0.020754509 0.08863884 -0.10044578
0.12085052 0.07672875 -0.10001761 -0.12104326 -0.003702715 -0.027998522 -0.059805147 0.012139291
0.048778966 -0.13115892 0.13866745 -0.09238635 0.0014104992 0.031681508 -0.041856103 0.06386161
-0.13137147 -0.023702964 -0.14063409 -0.0040365607 0.0864792 0.07637486 -0.052446425 0.008705556
-0.0006546527 0.024344116
00000000: 169c 41bd 0090 6eb8 baee e93d e029 4abc
00000010: 6e42 e03d 3b8c c1bd 7c80 71bd c8db ea3c
00000020: 7fd2 e3bd f890 3fbd d864 9fbd a035 74bc
00000030: 9efb b73d f8ab ab3c 645c adbc 589d f43c
00000040: d7d7 bdbd 6dc1 bdbd 0894 a7bd 3874 f53c
00000050: 6845 f4bd 5c05 aabc 4888 b53d 84b6 cdbd
00000060: 7a80 f73d f623 9d3d 08d6 ccbd 87e5 f7bd
00000070: 40a9 72bb 285d e5bc 3ef6 74bd e0e3 463c
00000080: 74cc 473d 864e 06be d7fe 0d3e 0e35 bdbd
00000090: 80e0 b83a 78c4 013d 4e71 2bbd e0c9 823d
000000a0: 3e86 06be b82c c2bc 6202 10be 2045 84bb
000000b0: 021c b13d 6c6a 9c3d 10d2 56bd c0a1 0e3c
000000c0: 009d 2bba 506d c73c

weight f4 [10, 1]
-0.58756953 1.1297158 -0.3116398 -0.15534838 -0.2190162 0.20505393 0.76078975 0.45317507
0.6082294 1.0472969
00000000: f56a 16bf 879a 903f 408f 9fbe a513 1fbe
00000010: c845 60be a8f9 513e 1ec3 423f 9006 e83e
00000020: ecb4 1b3f d30d 863f

bias f4 [10]
1.0389477 -0.6783374 0.7630189 0.6067287 0.6703955 0.24632524 -0.30941093 -0.0017959296
-0.15685019 -0.5959175
00000000: 3dfc 843f 85a7 2dbf 3555 433f 9252 1b3f
00000010: 0a9f 2b3f af3c 7c3e 1c6b 9ebe 6665 ebba
00000020: 569d 20be 0d8e 18bf
