process/mlruns/850336352745823845/models/m-c73b56cb851b417f91696eec4714f686/artifacts/data/model.pth (torch, 139922 bytes, 11 tensors)

weight_ih_l0 f4 [200, 10]
000000 1c 84 a5 bd 76 93 d2 bd be 54 e1 3d f8 2c 40 3d
       -0.080818385 -0.10282032 0.110024914 0.046917886
000010 a6 2b a0 bd 2a 97 1b bd d0 b3 c3 3c 7e df b4 3d
       -0.07820825 -0.03798596 0.023889452 0.0883169
000020 62 59 99 3d 87 ae b3 bd 70 f2 29 3d 5c 61 69 3d
       0.074877515 -0.08773523 0.041490972 0.056977615
000030 14 fb f4 bd 00 eb 7f bc 16 2d 0c bd 34 15 05 be
       -0.11961952 -0.015619993 -0.034222685 -0.1299637
000040 d5 09 aa bd f4 23 8a 3d 02 3f d6 3d 54 8d 86 3d
       -0.083026566 0.06745139 0.104612365 0.06569925
000050 28 d1 72 bd 4c 3a 65 3d ec be e8 bd e9 fc 06 3e
       -0.0592815 0.0559638 -0.113645405 0.13182415
000060 80 e5 24 3d fb df 02 be d8 94 dd 3c 52 bf 9d bd
       0.04025793 -0.12780754 0.027048513 -0.07702507
000070 d8 c0 4d 3d 3c ec 66 3d 64 84 cd bd 32 af e0 bd
       0.05023274 0.056377634 -0.10035017 -0.10970916
000080 18 20 e3 bd 48 b4 58 3d 6c 7b aa 3d 54 7d ca bc
       -0.11090106 0.052906305 0.08324322 -0.024717964
000090 dc 23 41 bd 5f 5f 07 3e 00 da f6 bc e4 3b 51 3d
       -0.04715334 0.13219975 -0.030133247 0.051082507
0000a0 75 90 0b be 73 02 07 be f0 88 d8 3d 1d a0 08 be
       -0.13629325 -0.13184528 0.10572994 -0.13342328
0000b0 98 1d 3e 3d 2e 5f e8 bd f8 2b d6 3d bf 13 03 3e
       0.04641494 -0.11346279 0.10457605 0.12800501
0000c0 58 b9 81 3d de 78 14 bd 40 68 fc bb 00 81 db bc
       0.0633418 -0.03624808 -0.0077028573 -0.02679491
0000d0 90 a0 3b bc 68 47 84 bd 4c 15 e7 bc f0 fa 0f 3d
       -0.011451855 -0.06458932 -0.028208397 0.035151422
0000e0 52 18 b4 bd fe 5c dd bd 40 e9 af 3c a6 21 5d bd
       -0.08793701 -0.108087525 0.021473527 -0.053987168
0000f0 97 17 0c 3e 40 aa e1 bb 90 6d 05 3c e0 b4 ec bb
       0.13680874 -0.0068867505 0.0081437975 -0.0072237104
000100 64 fd bd bc 52 0d e6 3d 38 05 37 bd 10 69 f3 bd
       -0.023192115 0.112330094 -0.04468271 -0.118852735
000110 80 1c 80 ba 78 77 28 bd ae 0e ac bd 41 92 09 3e
       -0.0009774119 -0.04112956 -0.084012374 0.13434698
000120 30 e9 d5 3d 2a ad d9 3d 56 33 ba 3d 47 84 0e 3e
       0.104448676 0.106287315 0.09091823 0.13917647
000130 d6 c7 0e be 96 7f 6f bd 78 4a 3e 3d 18 3a 8a 3c
       -0.13943419 -0.058471285 0.046457738 0.016873404
000140 9a 3d c1 bd 40 98 30 3b 18 81 df 3c f0 57 7e 3c
       -0.09435578 0.0026946217 0.027283236 0.015523896
000150 c6 9c 60 bd e0 cf d3 3b c0 69 79 bc b2 d1 cd bd
       -0.05483701 0.0064639896 -0.015222967 -0.10049762
000160 46 87 e8 3d 70 c5 bb 3c f4 b4 9b 3d 4e 2d cf 3d
       0.11353926 0.022921294 0.076028734 0.10116063
000170 40 f3 b9 3c da 96 6f bd 48 0e c1 3d 6e c1 a9 3d
       0.022698998 -0.058493473 0.09426552 0.08288847
000180 26 af 1a bd 01 26 04 be 4b 04 0e be a2 6b 9b 3d
       -0.03776469 -0.12905122 -0.13868825 0.07588889
000190 d0 44 4a bd a8 d0 73 3d a4 eb a2 3d da 2d cb bd
       -0.04938203 0.059525162 0.07955101 -0.09920855
0001a0 c0 01 4f 3d a8 37 7e 3d cc b9 f8 bc 18 55 87 bc
       0.05053878 0.062064797 -0.030362032 -0.016520068
0001b0 8e 07 f4 3d c1 ce 01 3e f6 e4 99 bd f4 f7 39 3d
       0.119155034 0.12676527 -0.07514374 0.045402482
0001c0 46 b2 ed 3d 09 68 03 3e 95 68 08 be 0c 0d d9 3d
       0.116062686 0.12832655 -0.13321145 0.105981916
0001d0 7e 93 43 bd 38 11 96 3c 40 71 3a 3d 46 75 ab bd
       -0.04774808 0.018318757 0.04551816 -0.083719775
0001e0 40 05 70 3b dc 52 dd 3d e0 81 21 bc 3c 02 e6 bc
       0.0036624223 0.1080682 -0.009857625 -0.028077237
0001f0 d0 df d5 bc c8 ed 74 3d 08 66 e6 3c f8 3a 80 bc
       -0.026107699 0.05979708 0.028124824 -0.015653118
000200 aa 96 34 bd 68 c2 2f 3d e0 a2 86 3d 70 11 c1 3c
       -0.044088997 0.04291001 0.06574035 0.023567885
000210 54 fe 5f 3d 50 9d f9 bc 7e ec d6 bd 7c 0a eb bd
       0.054685906 -0.03047052 -0.10494326 -0.11476609
000220 be 44 e2 3d 10 fe d9 3c 36 c1 bf 3d a6 68 03 be
       0.11048268 0.026610404 0.09363024 -0.12832889
000230 ba ea dd 3d 51 fc 01 3e f0 aa b3 3c a0 b8 4f 3c
       0.10835786 0.12693907 0.021932095 0.012678295
000240 a9 8a 84 bd c2 00 4d bd 40 1a f5 3b 22 e7 02 be
       -0.0647176 -0.05004955 0.007479936 -0.12783483
000250 e8 f3 0a be 78 87 b1 3d e0 ac a2 bb 94 ee 8e bd
       -0.13569605 0.08668417 -0.004964456 -0.06979099
000260 af 7f 99 bd 12 a7 b2 3d 82 c8 fa bd 9a 27 b3 bd
       -0.07495057 0.087232724 -0.12245275 -0.08747788
000270 0f d1 06 3e c0 91 3e 3c 28 cc fe 3c 4c ea 2a 3d
       0.13165687 0.011631429 0.031103209 0.04172735
000280 36 1b 06 be 02 9b ef bd c4 12 a1 bd c8 0f 5a 3d
       -0.13096318 -0.11699487 -0.078649074 0.053237706
000290 27 7f 05 3e be e7 f9 3d 19 17 10 3e 98 7e b6 3c
       0.13036786 0.122024044 0.14071311 0.022277161
0002a0 1e cc 94 3d 60 66 ea 3b b0 9b 74 3d ae d7 97 3d
       0.07265495 0.0071533173 0.059718788 0.074141845
0002b0 be 90 83 3d f4 7b 91 3d 52 02 37 bd 58 a3 31 bd
       0.06424092 0.0710372 -0.044679947 -0.043368667
0002c0 68 22 03 bd c0 34 c1 3c 1c 55 70 3d 36 e0 b0 bd
       -0.032015234 0.023584723 0.058674917 -0.08636515
0002d0 d6 d8 c2 3d e0 5e 48 bc ea bf a5 3d 86 0c 7e bd
       0.095140144 -0.012229651 0.08093245 -0.062023662
0002e0 60 6a fd bb b8 ef 74 3d f8 52 7a 3d cb 5d 9c bd
       -0.007733628 0.059798926 0.06111428 -0.07635077
0002f0 c4 a9 d8 3d d6 28 fd 3d 7c a6 2a 3d b6 70 a4 bd
       0.10579255 0.123613045 0.041662678 -0.080293104
000300 ae c5 ec 3d 70 1c 7e 3c d3 e7 82 bd 29 f7 83 bd
       0.11561142 0.01550971 -0.06391873 -0.064436264
000310 0a 6a f4 3d 4e 33 c8 bd 95 0a 0f 3e 85 9a 0e 3e
       0.11934288 -0.097754106 0.1396888 0.13926132
000320 28 75 b3 3c 0b f8 0f 3e ec cb bd 3d 16 0e e5 bd
       0.02190645 0.14059465 0.09267411 -0.11184327
000330 56 95 0e be bc 7e 4f 3d f6 7c 3b bd 19 32 07 be
       -0.13924155 0.050657973 -0.04577347 -0.13202704
000340 26 03 b3 bd 4e 5f 68 bd f9 05 0c 3e 22 24 b5 bd
       -0.08740835 -0.056731515 0.13674153 -0.088447824
000350 8e 2e ee bd 64 df fd bd c2 b2 39 bd d4 f9 4c 3d
       -0.11629973 -0.12396124 -0.045336492 0.050042942
000360 88 86 00 3d a8 98 62 3d c2 8d a0 3d 14 76 c2 3d
       0.0313783 0.055321366 0.07839538 0.09495178
000370 ca c5 34 bd 26 92 dd bd f0 10 53 3c 8e 74 bb 3d
       -0.04413394 -0.10818891 0.012882456 0.091530904
000380 76 41 eb bd 48 99 8f 3c d6 47 e9 bd f8 ad 44 3d
       -0.11487095 0.017529145 -0.11390655 0.048017472
000390 8e 23 2a bd e0 51 eb bd dc 44 0c 3d a0 91 02 be
       -0.041537814 -0.11490226 0.034245357 -0.12750864
0003a0 14 e1 bd 3d df 61 0d be ff 01 90 bd 6c f7 85 bd
       0.09271446 -0.13806866 -0.07031631 -0.065413326
0003b0 f0 23 ce 3d 12 83 9a 3d fa 16 6d bd 80 ba d6 3b
       0.10065448 0.07544531 -0.05788324 0.0065529943
0003c0 1e c7 d2 3d 86 40 79 bd 1c 8d 64 3d 4f 97 b2 bd
       0.10291885 -0.06085255 0.055798635 -0.08720266
0003d0 63 d9 08 be 04 75 81 3d b4 14 e2 bd f0 5f 4a 3d
       -0.13364176 0.06321147 -0.11039105 0.0494079
0003e0 78 05 75 bd 00 82 97 bb d4 0d 12 bd fc 3d b9 bc
       -0.05981967 -0.0046236515 -0.03565772 -0.022612564
0003f0 fc 9e cf bd b6 07 f7 3d e0 08 51 bd e0 c8 d6 bc
       -0.10137746 0.120620176 -0.051033854 -0.026218832

weight_hh_l0 f4 [200, 50]
000000 22 f5 a2 3d f6 f1 b9 bd c0 91 5c bb 83 38 0f 3e
       0.079569116 -0.090793535 -0.003365621 0.13986401
000010 3e 1d f7 bd 00 d0 df 3a 6e 6a a7 3d 26 35 d5 bd
       -0.120661244 0.0017075539 0.08174597 -0.10410528
000020 9d 03 08 3e 8f 5b 03 3e ca e8 b6 3d a0 9e ab bb
       0.13282628 0.12827896 0.0893112 -0.0052374154
000030 68 e7 5f bd 08 05 7d 3d 34 f4 c0 bd 54 0b 18 3d
       -0.054664046 0.061772376 -0.09421578 0.03712018
000040 42 55 f5 3d a8 88 4c 3d 90 cc c7 3d 60 14 97 3b
       0.11979152 0.049935013 0.09755814 0.004610583
000050 e2 3a fd 3d 68 6c 07 3d 5b 17 b5 bd c6 b9 0f be
       0.12364747 0.03306237 -0.08842345 -0.1403571
000060 08 65 d0 3d 08 6e 77 3d 99 06 01 be 36 c6 10 be
       0.1017552 0.06040767 -0.12600173 -0.14138111
000070 80 63 c9 3c 12 70 15 bd 40 66 aa bd 18 c8 a2 3c
       0.024583578 -0.03648383 -0.08320284 0.019870803
000080 c0 46 28 bb ae ca 19 bd f2 0e ba bd f9 a9 e2 bd
       -0.0025676936 -0.037546806 -0.09084882 -0.11067576
000090 50 29 6f bc 14 71 2c 3d c3 a6 0b 3e ae ea d6 3d
       -0.014597252 0.042100027 0.13637833 0.1049398
0000a0 60 56 29 3c 14 63 f7 bd b0 24 ed 3c bf 4d 0d be
       0.010335535 -0.120794445 0.028948158 -0.13799189
0000b0 18 e3 fa bd b0 f5 cd 3c 30 ad 5b bc 54 99 45 3d
       -0.12250346 0.025141567 -0.01340799 0.04824193
0000c0 eb 1d 06 3e b4 04 f8 bd 9e 46 ab 3d 3f 05 0f 3e
       0.1309735 -0.12110272 0.083630785 0.13966845
0000d0 f2 d6 be 3d 30 d2 24 3d 1e 03 f0 3d 08 71 d0 3d
       0.09318341 0.040239513 0.117193446 0.10177809
0000e0 3f 6a 8a bd 94 53 9b bd 0d 19 a0 bd 00 ba 6b 3c
       -0.06758546 -0.07584301 -0.07817278 0.014387608
0000f0 68 5a 89 3d 4e 15 9e 3d 52 dc 9a 3d 28 94 c7 3d
       0.06706697 0.07718907 0.07561554 0.097450554
000100 7a ae 99 3d ac 5c 5f bd 86 ef 97 3d 74 f8 b2 bc
       0.07503982 -0.05453174 0.07418732 -0.021846987
000110 cc e9 78 bd 76 50 15 bd 8c 08 d6 bd 28 d7 79 bd
       -0.06076984 -0.036453687 -0.10450849 -0.060996205
000120 72 8a df bd a0 15 b2 3b cc a7 cd bd 45 00 87 bd
       -0.10915078 0.005434707 -0.1004177 -0.06591848
000130 6f e5 ff bd 7c 80 2b 3d 42 80 d7 3d 66 a6 0e be
       -0.12494933 0.04187058 0.1052251 -0.13930663
000140 60 56 2f bc 62 f6 e5 bd b4 a4 c1 bd 54 8c 1a 3d
       -0.010701746 -0.112286344 -0.09455243 0.037731484
000150 e0 19 a7 3d c8 a0 93 3c 00 cf 55 bc b5 ac 9c bd
       0.08159232 0.018021002 -0.013049841 -0.07650129
000160 b8 ee 09 bd ef 67 d1 bd 40 fe a2 bd 63 57 10 be
       -0.033674926 -0.10224902 -0.079586506 -0.14095835
000170 48 83 c8 3c ce 33 e7 3d 03 9c 01 3e bc 20 06 bd
       0.024476662 0.11289178 0.1265717 -0.03274606
000180 60 56 d5 bb 88 25 27 3d ac 37 01 be bb 92 05 3e
       -0.006510541 0.040807277 -0.12618893 0.13044254
000190 c2 25 d1 3d 80 9b 33 bb 70 10 ff bd 93 4b 0c 3e
       0.1021228 -0.0027405918 -0.12454307 0.13700704
0001a0 e8 5f 21 bd 1a 27 a2 bd ce 96 23 bd 86 6f db 3d
       -0.039398104 -0.07917614 -0.03993874 0.10714631
0001b0 a0 51 38 3d 70 2a 63 bc ff f3 b7 bd 70 b8 a3 3c
       0.04499972 -0.013865098 -0.089820854 0.019985408
0001c0 50 66 73 3c 52 d5 c7 bd 3f fd 89 bd 14 98 e2 bc
       0.014855936 -0.097574845 -0.06737756 -0.027660407
0001d0 fa 5c fa 3d 38 68 9a 3d e7 4b 93 bd 90 f2 80 3d
       0.12224765 0.075394094 -0.071922116 0.06296265
0001e0 89 c6 0f be c6 e4 cd 3d 48 42 96 3c 2a 14 ed 3d
       -0.14040579 0.10053401 0.018342152 0.115761116
0001f0 d0 4e 3d 3c ec 81 34 3d e4 8f 8b 3d 6e 2d a6 3d
       0.011554435 0.044069216 0.06814554 0.08114134
000200 00 e2 bf b9 5d d1 b1 bd 27 32 8c bd 40 4b 99 3d
       -0.00036598742 -0.08682511 -0.06845503 0.07485056
000210 ba a2 05 bd fe 0d a1 bd c3 2e f4 bd aa dd b4 bd
       -0.03262589 -0.07863997 -0.119229816 -0.088313416
000220 c0 a2 aa 3d b2 b7 d9 bd 39 02 0f 3e a2 6a 51 bd
       0.08331823 -0.1063074 0.13965692 -0.051127084
000230 84 ed f0 bd 70 04 fe 3c 00 fc 12 bc 6e 26 e3 3d
       -0.117640525 0.031007975 -0.008971214 0.11091314
000240 11 43 0b 3e af b8 a6 bd b8 71 60 3d 75 61 97 bd
       0.13599803 -0.08140694 0.05479595 -0.07391635
000250 44 65 9a 3d 00 20 0d bc 64 c8 a4 3d 62 7b ed bd
       0.07538846 -0.008613586 0.08046034 -0.11595799
000260 00 2f 29 3c 38 7a 46 bd 94 77 ef bd 5d ea b6 bd
       0.010326147 -0.0484564 -0.116927296 -0.0893142
000270 00 cd 01 bd 22 8d d5 3d fc 6f c5 bd 3e c6 e3 3d
       -0.031689644 0.104273096 -0.096405 0.11121796
000280 e0 e6 00 3d 82 04 db 3d 40 e6 00 bd 80 27 c4 3d
       0.03147018 0.10694219 -0.031469584 0.095778465
000290 2a ae c9 bd c0 f1 e7 bb 52 4c 83 3d 28 ee d9 3c
       -0.09847672 -0.0070783794 0.06411041 0.02660282
0002a0 04 c9 b1 3d 38 75 e7 3c 92 cb cc 3d 7d 50 96 bd
       0.08680919 0.028254136 0.099997655 -0.07339571
0002b0 c6 41 01 be 22 bf 2a bd 78 33 a1 3c fd 95 03 be
       -0.12622747 -0.041686185 0.019677863 -0.12850185
0002c0 25 78 04 3e ae 26 ed bd a4 9b 89 bc 00 8d d7 3d
       0.12936457 -0.11579643 -0.016797848 0.105249405
0002d0 dc c5 f9 bd 42 4f 10 be 72 7d b0 3d bc 62 5f bd
       -0.12195942 -0.14092734 0.08617677 -0.05453752
0002e0 b4 14 a8 3d a0 f2 e1 3b a4 7e 08 be 2c e3 8a 3d
       0.08207074 0.006895378 -0.1332956 0.06781611
0002f0 44 20 d1 bc 11 d8 94 bd 20 1c a2 bd 87 f4 0e 3e
       -0.02552808 -0.07267774 -0.07915521 0.13960467
000300 60 b6 d5 3c 7a cf d4 3d 3c cc bb 3d dc 4e 3f 3d
       0.02608794 0.103911355 0.09169814 0.046706066
000310 29 2d 06 3e 2b aa 0f be 84 34 9e 3d 58 9f 0d bd
       0.13103165 -0.14029758 0.0772486 -0.03457579
000320 00 74 0e 39 18 dc bd 3c 26 78 07 be f0 9e 4e 3c
       0.00013585389 0.023176238 -0.13229427 0.012611136
000330 d8 74 96 3c 7a f1 ef 3d 80 46 84 bb 73 94 0a be
       0.018366262 0.1171598 -0.0040367246 -0.13533191
000340 78 23 50 bd 08 71 b5 3d 22 e6 e1 3d f8 59 cc 3c
       -0.050815076 0.088594496 0.110302225 0.024945244
000350 03 cc 92 bd bc a2 25 3d fa 68 6f bd 64 04 35 3d
       -0.071678184 0.0404384 -0.058449723 0.04419364
000360 e0 7c 34 3c 20 25 90 3b 79 74 eb bd f0 7c a9 bd
       0.011016101 0.004398957 -0.11496825 -0.08275783
000370 77 6a cc bd 9e 68 cb 3d c7 d0 0e 3e 20 8b 10 bc
       -0.09981244 0.099320635 0.1394683 -0.0088222325
000380 84 3e 04 be b4 02 17 3d c4 36 8b 3d f0 8a 57 3c
       -0.12914473 0.036867812 0.06797555 0.013155684
000390 42 fc 0f be 5b 4d 09 3e 02 28 8c 3d 84 2c a9 3d
       -0.14061072 0.13408415 0.068435684 0.08260444
0003a0 2b 0f 0a 3e fa f3 3a bd 68 c1 f9 bc a0 a3 bd 3c
       0.13482349 -0.04564283 -0.030487731 0.023149312
0003b0 07 7c 04 3e 02 a2 b8 bd a6 57 00 be d8 8d 21 bd
       0.12937938 -0.090152755 -0.12533435 -0.039441913
0003c0 0c f5 9b 3d 90 69 e6 3c 86 85 e4 3d 38 c9 5c bd
       0.07615098 0.028126508 0.1115828 -0.053902835
0003d0 1a 38 9c 3d 5a de d7 3d b0 75 2c bc 00 b3 78 bb
       0.07627888 0.10540457 -0.010526106 -0.003794849
0003e0 f1 46 02 3e 9c b9 6e 3d c3 ff ee bd 3a cc 53 bd
       0.12722374 0.05828248 -0.116698764 -0.051708438
0003f0 ee da a2 3d 00 f5 00 bd 7a 7a 98 3d dc c9 16 3d
       0.07951914 -0.03148365 0.074452356 0.0368136

bias_ih_l0 f4 [200]
000000 ec cc ac bc b0 c7 81 bd 20 24 b7 3c ad 36 0d 3e
       -0.021093808 -0.063369155 0.022356093 0.13790388
000010 1c 71 51 3d 70 9c 61 3d 10 90 9a 3d c2 e7 94 3d
       0.05113326 0.05508083 0.07547009 0.07270767
000020 a8 bd d5 bd 3c 95 bb 3d a0 db 76 bc f0 0c 1a bd
       -0.10436565 0.091593236 -0.015067011 -0.037609994
000030 30 d1 ab bc 8f 98 07 be 6e ef eb 3d 0d 80 10 3e
       -0.020973772 -0.1324179 0.11520277 0.14111347
000040 8e 9d aa bd 50 88 3e bc f8 f0 fe bc 6a 52 21 bd
       -0.083308324 -0.011629179 -0.031120762 -0.039385237
000050 20 c8 8b 3d 94 82 27 bd 08 84 13 3d 04 44 ae 3d
       0.0682528 -0.040896013 0.036014587 0.08509067
000060 80 f4 08 bc c0 54 61 3b 24 bc 93 bc 00 82 2b 3d
       -0.008359075 0.003438279 -0.018034048 0.041872025
000070 3a 09 d8 3d c0 87 ca bd 22 d8 2f bd 58 ae cb 3c
       0.10548635 -0.098891735 -0.04293073 0.024863407
000080 af 27 bb bd 58 a7 2f 3d 08 2a 90 3c e8 d6 cd 3c
       -0.091384284 0.0428842 0.017598167 0.02512689
000090 ba ef 90 3d 82 70 3a bd 48 97 77 3d bc a2 9d bd
       0.07076974 -0.045517452 0.060447007 -0.07697055
0000a0 3c 5d 0b bd bc 98 0a be 1e d7 e8 3d 6c 8b 67 3d
       -0.034024462 -0.13534826 0.11369155 0.056529447
0000b0 ef cf 00 3e 18 02 08 be 62 89 22 bd cb dc 00 3e
       0.1257932 -0.13282049 -0.0396818 0.12584226
0000c0 40 ec 50 3b 1b cc 0b 3e e0 58 f7 bd 67 b7 0e 3e
       0.0031879097 0.13652079 -0.120774984 0.1393715
0000d0 00 cd 0d 3a 52 c2 f0 bd 07 d9 cf bd c8 9a d8 3c
       0.00054092705 -0.11755814 -0.101488166 0.026440993
0000e0 5b 3f db bd 25 c3 ec bd 80 80 3d 3c 5e 15 ca 3d
       -0.107054435 -0.11560658 0.011566281 0.09867357
0000f0 18 d4 59 3d 52 3d 1a bd ab a3 a3 bd b8 0d 6c 3d
       0.053180784 -0.037656136 -0.079902016 0.05763027
000100 e0 da 64 bd 66 dc 06 bd 00 b5 db ba 98 e5 7d bd
       -0.055872798 -0.032925032 -0.0016762316 -0.061986536
000110 d0 8d 16 3d e6 f9 00 be 12 cd ea 3d e0 02 84 bb
       0.036756337 -0.12595329 0.11464895 -0.004028663
000120 3c 41 9b bc fc d4 9b bc dc 89 09 be 12 db 57 bd
       -0.018952005 -0.019022457 -0.13431495 -0.052699156
000130 58 09 bf bd 66 c6 df 3d 78 dc d8 bc 86 64 8d bd
       -0.09327954 0.109265134 -0.026472315 -0.06903939
000140 00 a2 0a bb 28 48 e5 bc 1d 96 08 3e 64 12 8f bd
       -0.0021153688 -0.027988508 0.13338514 -0.069859296
000150 40 df 65 3c c0 52 04 3c 00 bb 1d 3a 20 d7 47 bd
       0.014030278 0.00807637 0.000601694 -0.048789144
000160 36 15 46 bd 2a b2 38 bd 2a e0 fc 3d c7 fe 02 3e
       -0.048360072 -0.045091785 0.123474434 0.12792502
000170 f8 3b a4 bc 5c d1 09 be 90 49 5a 3d 4a ca c1 3d
       -0.020048127 -0.1345877 0.05329281 0.09462412
000180 fc 45 4f 3d 11 8e 97 bd 60 d8 d8 bb a2 a5 d7 bd
       0.05060385 -0.07400144 -0.006617591 -0.10529639
000190 0b e6 a8 bd dc c5 ae bd 10 7f d8 3c 00 be 63 ba
       -0.08247002 -0.085338324 0.026427776 -0.0008687675
0001a0 30 85 05 bc 00 14 aa 3a 48 4c 5d bd 14 59 10 be
       -0.00814943 0.0012975931 -0.054027826 -0.1409648
0001b0 87 e7 05 3e c8 af dc 3c 7a 9a d0 3d 87 64 e0 bd
       0.13076602 0.026939288 0.10185714 -0.10956674
0001c0 44 68 be bd 22 7a b2 3d a0 da e6 bb e8 e5 36 3d
       -0.09297231 0.08714701 -0.007045105 0.04465285
0001d0 9a 8c f9 3d 90 7d f0 bc 20 b1 1b 3c 5c b3 b3 3d
       0.12185021 -0.029356748 0.009502679 0.087744445
0001e0 98 93 be 3d 47 1f 0e 3e 40 03 a4 bb 06 fc f6 3d
       0.09305495 0.13879119 -0.0050052702 0.120597884
0001f0 ac 79 f5 bc a0 e2 5c bd a8 87 9d 3d f0 58 95 3c
       -0.029965244 -0.053927064 0.0769189 0.018230885
000200 40 ff f0 bb 90 b2 5c bd 12 9b ac bd 10 23 c9 3c
       -0.007354647 -0.053881228 -0.08428015 0.024552852
000210 62 c6 e3 3d 5d 3c 94 bd dc c2 36 3d 55 88 0f 3e
       0.11121823 -0.07238076 0.044619426 0.1401685
000220 21 5e 03 be 63 79 05 3e a2 f0 07 bd 90 0b fe 3c
       -0.12828876 0.13034587 -0.03318847 0.031011373
000230 20 21 80 3b aa e6 43 bd ec 04 14 3d 22 42 88 3d
       0.003910199 -0.0478274 0.036137506 0.06653239
000240 4a 50 ff 3d dd ee 04 3e 5c a9 a6 bd 86 8e da bd
       0.12466486 0.12981744 -0.081377715 -0.106717154
000250 16 f7 f8 3d 18 1c e7 bd 05 33 05 be 82 39 ff bd
       0.12156503 -0.11284655 -0.13007744 -0.124621406
000260 be 55 af 3d ee 3c a7 bd e0 35 a9 bb 7b 8e 0b be
       0.08561276 -0.08165918 -0.005163893 -0.1362857
000270 81 b6 e3 bd f3 a0 d4 bd a6 c4 b1 3d be 46 cb bd
       -0.11118794 -0.10382261 0.08680086 -0.099256024
000280 30 9e ba bc d6 ff 08 be 34 79 52 bd 02 c7 d6 3d
       -0.022780508 -0.13378844 -0.05138512 0.104871765
000290 18 92 b9 bd b9 13 03 be 84 c6 56 3d c6 55 ad bd
       -0.09061068 -0.12800492 0.052435413 -0.084636256
0002a0 1b fe a6 bd 9b 04 ee bd 24 24 96 3d d0 dc 3b 3c
       -0.081539355 -0.11621972 0.07331112 0.01146622
0002b0 21 bd 0d be 37 dd 08 3e 2d a9 ef bd 30 b7 67 bd
       -0.13841678 0.13365637 -0.117021896 -0.056571186
0002c0 56 6d 8b 3d 12 f2 e3 3d c0 ce b8 bd 65 89 e8 bd
       0.068079636 0.111301556 -0.090238094 -0.11354331
0002d0 92 b6 55 bd ae cc d7 bd 02 c0 bc 3d 30 0f 6c bc
       -0.052176066 -0.105370864 0.0921631 -0.014407918
0002e0 a1 5a 08 3e 00 2f 99 3b c8 50 87 bd 8a 3b d4 bd
       0.13315822 0.0046747923 -0.06607205 -0.10362919
0002f0 ac 43 9f bc c8 25 c8 3d c0 3b ed bd 10 29 48 bc
       -0.019441448 0.09772831 -0.11583662 -0.012216821
000300 50 c6 50 3d b6 83 fd bd 2a b0 f9 3d fc 75 c1 3d
       0.050970376 -0.123786375 0.12191804 0.09446332
000310 40 b5 3a bb 46 67 e1 3d 60 28 9f 3d dc f7 8b bd
       -0.002848938 0.11006026 0.07771373 -0.06834385

bias_hh_l0 f4 [200]
000000 0c d1 10 bd 72 4e 5b bd 6c e0 49 bd bc 5b b8 3d
       -0.035355613 -0.05354161 -0.04928629 0.09001872
000010 1a 65 0d bd 2a e9 c5 bd d3 90 ee bd a6 eb ec 3d
       -0.034520246 -0.09663613 -0.11648717 0.11568384
000020 24 e2 bc bd 5d fc c6 bd c0 1b 51 bc db ce a2 bd
       -0.092228204 -0.09716103 -0.012762964 -0.07949611
000030 78 a5 97 bc 87 b5 10 be 2c 92 60 bd 18 79 ac 3c
       -0.018511519 -0.14131747 -0.0548269 0.021053836
000040 30 17 55 3d 00 ee 26 3a 3e 7e 47 bd fe 15 a4 3d
       0.052024066 0.0006367862 -0.04870438 0.08012007
000050 96 c1 9a bd 3e 61 c5 bd c2 a9 90 bd bb 51 ba bd
       -0.07556455 -0.09637688 -0.07063629 -0.0909762
000060 22 bd f0 bd bc 83 58 bd d0 9d bd 3c c0 ce 0e 3d
       -0.11754824 -0.052860007 0.02314654 0.03486514
000070 88 0c aa 3c 7a 48 b4 3d 81 a9 03 3e f7 a9 f6 bd
       0.020757928 0.08802886 0.1285763 -0.12044137
000080 58 71 c8 bd d0 d2 b7 3d 80 ba 11 bc 22 ea d7 3d
       -0.097872436 0.08975756 -0.008894563 0.10542704
000090 e6 67 dc bd a8 15 e2 3c e0 db f2 bc 60 cb 80 3c
       -0.107620046 0.027598217 -0.02964586 0.015721977
0000a0 5b 9a 09 3e 6a 16 f7 3d 58 53 0a be aa 30 83 bd
       0.13437788 0.12064822 -0.13508356 -0.06405766
0000b0 7e 41 a6 3d 40 5b 53 3d a0 62 b0 bb 3e 76 0f bd
       0.081179604 0.051600695 -0.0053828508 -0.035024874
0000c0 dc 9c 94 3d 2c 88 2a bd ae 77 0a be 58 80 d8 3d
       0.07256481 -0.04163377 -0.13522217 0.10571355
0000d0 10 78 77 3c c6 3c 05 be 78 a5 28 bd 60 01 82 3d
       0.015104309 -0.13011464 -0.04117343 0.063479185
0000e0 6e c0 8e bd 4f 23 c6 bd 0c 28 28 bd 90 a7 bc 3d
       -0.06970297 -0.09674703 -0.041053817 0.092116475
0000f0 c7 c6 0f be ad c5 03 3e ca d7 05 be fe 09 0e be
       -0.14040671 0.12868376 -0.13070598 -0.13870999
000100 88 16 b5 3c 78 b6 4f bd c0 ff 56 3d 12 c2 8d 3d
       0.02210547 -0.050711125 0.052489996 0.069217816
000110 70 67 e2 3c e3 a0 9e bd 0e 1d a1 3d 90 e1 ca 3d
       0.027637213 -0.077455305 0.0786687 0.09906304
000120 32 e2 f0 3d e3 ef e3 bd 74 ff 23 3d 29 49 00 be
       0.11761893 -0.11129739 0.04003854 -0.12527908
000130 cc 26 ba bc b0 e7 65 bc 90 4e 4a 3c cc ee 64 bd
       -0.022723578 -0.014032289 0.012347832 -0.055891797
000140 c6 38 0f be 02 d6 18 bd 0a c9 df 3d 4c f2 52 bd
       -0.13986501 -0.03731347 0.10927017 -0.051500604
000150 1a 7d 51 bd 13 7f 8f bd c4 70 ca 3d 60 04 6e 3c
       -0.051144697 -0.07006659 0.098847896 0.01452741
000160 80 b3 52 3c 16 8b 21 bd 60 d7 b6 bb d3 85 91 bd
       0.012860179 -0.039439283 -0.005579874 -0.07105603
000170 bb 81 aa bd b8 8b b1 3d a2 b4 f5 3d 4b c0 0a 3e
       -0.083255254 0.08669227 0.119973436 0.13549916
000180 6a bf 81 bd fc f6 ed bd aa b2 89 3d b0 3e 77 bc
       -0.063353375 -0.11619374 0.067235306 -0.015090629
000190 6c 8f 51 3d 22 ad 69 bd 50 3a f7 bd 66 56 e0 3d
       0.05116217 -0.057049878 -0.12071669 0.10953979
0001a0 4e d5 95 3d 3a 2a 93 3d 8c b4 90 bd 48 8c e5 bd
       0.07316075 0.071857885 -0.070656866 -0.11208397
0001b0 c0 56 b9 3c 19 2d 0e be 9c 41 c2 3d 00 e9 80 3c
       0.022624373 -0.13884391 0.0948517 0.015736103
0001c0 d1 93 08 3e a2 e4 a2 bd a9 91 0f be 18 4e 90 bc
       0.13337637 -0.079537645 -0.14020409 -0.017615363
0001d0 06 20 ca bd 00 b1 e7 bc 2c 81 c9 3d 34 34 ad 3d
       -0.09869389 -0.028282642 0.09839091 0.084572226
0001e0 5c 27 92 bc 2c 7c 99 3d c0 79 e1 bb 46 23 ca 3d
       -0.017841034 0.07494387 -0.006880969 0.09870009
0001f0 de 10 a7 3d a4 f8 19 3d 28 e6 b4 bc 5a 29 c8 3d
       0.08157514 0.037590638 -0.022082403 0.09773512
000200 f4 42 06 3d 2c e7 b8 3d 38 47 dc bd d4 ac f8 bd
       0.032778695 0.090284675 -0.107557714 -0.12142339
000210 80 95 9b 3d f9 ed 94 bd 24 22 14 bd 40 f9 f3 3b
       0.07596874 -0.07271952 -0.03616537 0.0074454844
000220 d8 f7 59 3d ec 28 5c bd 5f 8e bf bd 2c 32 cb 3d
       0.053214878 -0.053749964 -0.09353327 0.09921679
000230 46 4e e7 bd ea 7b fc 3d f0 b4 1f bc d0 46 49 3c
       -0.11294226 0.12328322 -0.009747729 0.012284949
000240 ce da 5d bd 98 d4 a3 3d 80 68 d7 ba 66 c0 ea bd
       -0.054163747 0.079995334 -0.0016434342 -0.11462478
000250 01 35 90 bd a4 4c 82 bd 19 42 06 3e c0 a7 31 3d
       -0.0704136 -0.06362274 0.13111152 0.04337287
000260 84 3b 03 be 6e 2b de bd 62 94 76 bd 16 f7 a8 3d
       -0.12815672 -0.10848127 -0.060200103 0.08250253
000270 22 18 fe 3d 38 31 89 bc 20 b5 9b bc 76 21 5a bd
       0.12406947 -0.016747102 -0.019007266 -0.053254567
000280 a4 39 27 3d 60 da a7 bd 98 cf 4a 3d a0 42 df 3c
       0.040826455 -0.081959486 0.049514383 0.027253449
000290 70 2f e8 bc 9c 1e 77 3d 80 02 80 3d 5c 5d 1f bd
       -0.028342932 0.060331926 0.06250477 -0.038907394
0002a0 60 2d 67 bc e4 16 f9 bc 84 b1 18 bd fe 2f e3 3d
       -0.014109939 -0.030406423 -0.037278667 0.11093138
0002b0 86 45 a4 3d e0 63 ea bd c5 ec 02 3e 1e c5 60 bd
       0.08021073 -0.11444831 0.12785633 -0.054875486
0002c0 2e 63 78 bd 36 e9 b2 3d 20 0b bc bd 58 33 a7 bd
       -0.06064146 0.08735888 -0.091818094 -0.0816409
0002d0 6c 52 6b bd f2 7e f9 bd 58 ad 39 3d 06 14 87 bd
       -0.05745165 -0.12182416 0.04533133 -0.06595616
0002e0 28 78 14 3d 44 e5 01 3d 6e 7f 19 bd 02 28 ea 3d
       0.036247402 0.031712785 -0.037475042 0.11433412
0002f0 98 83 8e 3c b2 ab 99 3d 6a 4d ed 3d 6f 02 aa bd
       0.017396733 0.075034514 0.11587031 -0.083012454
000300 36 28 fe bd 76 a6 f4 3d e0 88 d1 3d 72 d1 f2 3d
       -0.124100134 0.119458124 0.10231185 0.11856355
000310 c0 eb f4 3b b8 43 a6 3d de e3 b4 bd b8 8f cb bd
       0.0074743927 0.08118385 -0.08832525 -0.099395216

weight_ih_l1 f4 [200, 50]
000000 86 cf e0 3d 10 3b 7a 3c 1c 65 a9 3d 90 74 70 3c
       0.10977082 0.015272871 0.08271238 0.014676228
000010 64 fd a4 bd e6 f5 e7 3d 18 fd 93 bd 64 d0 38 3d
       -0.08056143 0.11326198 -0.07226008 0.04512061
000020 2a 50 92 bd 08 6e 33 bd a4 f3 1e 3d 4c cf d6 3d
       -0.07144196 -0.043806106 0.038806573 0.104887575
000030 16 30 71 bd 80 e0 6b bc ef 42 e7 bd 4f e7 0c be
       -0.05888375 -0.014396787 -0.112920634 -0.13760112
000040 dc 09 db 3d b6 03 fb bd 66 72 68 bd 10 97 20 bc
       0.1069524 -0.12256567 -0.056749724 -0.009801641
000050 9d 6b 96 bd 20 23 99 3b 18 d3 89 3d 36 1a f5 bd
       -0.07344744 0.0046733767 0.06729716 -0.1196789
000060 b0 ff af bd 72 dc ab 3d 80 04 08 bb 7e c8 71 bd
       -0.085936904 0.08391656 -0.0020754635 -0.059029095
000070 4a cb 93 3d c4 1b 10 be c2 3a 0b be 18 7a 30 3d
       0.07216509 -0.14073092 -0.13596633 0.043085188
000080 c3 c4 03 be b8 0a c0 3c 0e a4 22 bd 24 67 bb 3d
       -0.12868027 0.023442611 -0.039707236 0.09150532
000090 e1 d6 99 bd 5c 12 06 be bc c0 29 bd 20 bf 38 3d
       -0.07511688 -0.13092941 -0.04144357 0.045104146
0000a0 b0 4e 5b 3d f2 a6 f3 3d e4 49 8c bc 00 8a e3 ba
       0.05354184 0.11897077 -0.017125078 -0.0017359853
0000b0 ee 57 f9 3d 17 18 d3 bd 84 07 7d 3d 10 90 0b be
       0.121749744 -0.10307329 0.061774746 -0.13629174
0000c0 88 70 d3 bc 66 95 cc 3d fe e4 0c be 10 4a 48 3c
       -0.025810495 0.09989433 -0.13759229 0.012224689
0000d0 fa 9a 8d 3d ff 87 03 be d8 d2 a4 3c 0a 12 d7 3d
       0.06914325 -0.12844847 0.02012007 0.105014876
0000e0 cc b4 83 3d 74 48 81 3d 50 c9 bc 3d c0 5e bd 3c
       0.06430969 0.063126475 0.09218085 0.02311647
0000f0 60 08 54 bc ac 60 f7 bd 14 ee dd 3d 20 e5 55 3c
       -0.01294145 -0.120789856 0.108364254 0.013055116
000100 da c7 f6 3d 48 8d 8b bd 00 9a b6 3b 60 1d 5a 3c
       0.120498374 -0.06814057 0.0055725574 0.013312668
000110 6a 3b 35 bd a6 53 cf 3d 00 c8 15 bc 2a 72 14 bd
       -0.044246115 0.101233765 -0.009141922 -0.036241688
000120 fe cc f6 bd 97 ff 0d 3e 00 e3 53 bc 80 54 0b 3b
       -0.12050818 0.13867031 -0.012932539 0.0021260083
000130 40 6a fe 3c a6 3b ec 3d e7 69 08 3e e1 b9 f1 bd
       0.031056523 0.115348145 0.13321649 -0.11803032
000140 ee a1 39 bd 22 41 fb 3d 24 9b 02 be ab 50 89 bd
       -0.045320444 0.122682825 -0.12754494 -0.06704839
000150 d8 19 28 3d 10 a3 db 3d fe a6 8d bd 20 02 b0 bc
       0.04104027 0.10724461 -0.06916617 -0.021485388
000160 e8 f5 9f bd 2e dd e0 bd 38 50 25 3d 33 a6 0c 3e
       -0.07810575 -0.10979687 0.040359706 0.13735275
000170 b6 90 02 be 64 60 3f 3d 0e 8b e1 3d a0 cd b5 3b
       -0.12750515 0.046722785 0.11012851 0.005548194
000180 20 4a 82 3c 08 03 8a 3d 80 ac bd bc c3 0d 01 be
       0.015904486 0.067388594 -0.023153543 -0.12602906
000190 7a d8 dc 3d 90 1f f5 bc 27 9c 91 bd ff e7 0a be
       0.10783477 -0.029922277 -0.07109862 -0.13565062
0001a0 04 3c 01 be 34 24 72 bd b8 53 74 3d 92 5e 2b bd
       -0.1262055 -0.059116557 0.059650153 -0.041838236
0001b0 62 31 97 bd b4 df da bc aa c5 7c bd f8 4f 30 3d
       -0.07382466 -0.026717998 -0.061711945 0.043045014
0001c0 d6 a1 c0 3d 10 e5 af bc 9d 31 0a 3e c4 33 f1 bd
       0.09405868 -0.02147153 0.13495488 -0.11777452
0001d0 5c 29 ab bc 44 18 b1 bd f8 1f b2 3c 98 bf bf 3d
       -0.020893745 -0.086472064 0.02174376 0.093627155
0001e0 30 2a 81 3c 7a 5e 85 3d b0 e3 80 3c 50 70 76 bc
       0.015767187 0.065121606 0.01573357 -0.015041426
0001f0 9c 2d b2 3d f9 c6 05 3e 6a 0a 6e bd a0 3a 5b bc
       0.087001055 0.13064183 -0.0581154 -0.0133806765
000200 28 f5 80 3c 49 e5 d2 bd 46 87 e4 3d 5a 94 fb 3d
       0.0157419 -0.10297639 0.11158614 0.12284155
000210 c8 ff da 3c f8 c1 b5 3d 90 f6 89 3c 00 43 1c 3b
       0.026733294 0.08874887 0.016841203 0.0023843646
000220 f4 bc ba bc 30 e1 57 bc a4 11 a8 bc 7c 1a 88 bd
       -0.022795178 -0.0131762475 -0.020516224 -0.066456765
000230 e4 9f b1 3d d3 b2 f1 bd b0 19 4e bc da 3c e2 3d
       0.08673075 -0.11801686 -0.012579367 0.11046763
000240 e0 e4 9c 3d b8 fa 6e 3d 6c 46 2d 3d 50 80 3c bc
       0.07660842 0.058344573 0.042303488 -0.011505201
000250 ba 4d 0a be 48 fc 36 3d 3c b4 0e bd 28 de ad bd
       -0.13506213 0.044674188 -0.034839854 -0.084896386
000260 00 18 42 39 5e 7a c8 bd 58 05 d3 3c 66 5e 99 3d
       0.00018510222 -0.09788965 0.025759384 0.07488708
000270 bc f7 c1 bd 24 a0 b1 3d 98 b3 50 3d 5c aa 31 3d
       -0.0947108 0.086731225 0.050952524 0.043375358
000280 80 6e 10 3b a4 96 a5 3d 20 94 c4 bb 55 cc a8 bd
       0.002203852 0.08085373 -0.005999103 -0.08242098
000290 c0 f3 70 bc d0 d2 89 3d 68 86 b2 bd d4 12 83 3d
       -0.014706552 0.067296624 -0.08717042 0.064000756
0002a0 3e 49 f2 bd be 3a c0 3d 50 c7 75 3c be e1 9a bd
       -0.11830376 0.09386204 0.015001133 -0.07562588
0002b0 34 a3 73 3d 40 f4 ad 3c a8 89 4b 3d 3e e3 72 bd
       0.059481815 0.021234632 0.049691826 -0.059298746
0002c0 9c 4a 9f bc a9 5d a9 bd 2c ca 89 bd a8 e7 d5 3d
       -0.019444756 -0.082698174 -0.06728014 0.104445755
0002d0 fe b8 ea bd a0 2c 63 3c 90 f8 df 3c c8 20 8a 3c
       -0.11461066 0.01386562 0.027340204 0.016861334
0002e0 70 df a1 3c e0 16 b0 3c 1e 1a 98 bd f8 fa 8a 3c
       0.019759864 0.021495283 -0.074268565 0.016965374
0002f0 2b ec 0b 3e e8 ec 84 bd 00 ff 8a bb b9 30 04 3e
       0.1366431 -0.06490499 -0.004241824 0.12909211
000300 04 38 8a bd 08 e0 b7 bc 84 df 84 bd 08 d5 fa 3c
       -0.067489654 -0.022445694 -0.06487945 0.03061916
000310 ab 81 0c be 40 2b 1b 3c 24 6c 94 bc c0 cf 01 bc
       -0.1372134 0.009470761 -0.018117972 -0.007923067
000320 ad 5a 0a 3e 59 bd f6 bd 78 d4 aa bd cd fe be bd
       0.13511153 -0.12047834 -0.083413064 -0.09325943
000330 c1 99 0f be 40 d3 b5 bd 07 af d7 bd 1c f9 72 3d
       -0.14023496 -0.08878183 -0.10531431 0.0593196
000340 30 85 4b 3d 50 13 d1 bc e6 52 0c be 01 cb 94 bd
       0.049687564 -0.025521904 -0.13703498 -0.072652824
000350 32 38 e4 3d 00 29 de bd dc 8e 6d 3d a4 9a cb bc
       0.11143531 -0.10847664 0.05799757 -0.024854012
000360 63 13 0c 3e 6e 0a 5c bd cc ba a3 3d 81 53 d5 bd
       0.1367927 -0.053720884 0.07994613 -0.10416318
000370 44 5f 99 bc 7a ce be bd 56 27 01 be 60 fe 54 3c
       -0.018722184 -0.09316726 -0.12612662 0.013000101
000380 0e d1 fc 3d e0 9f f2 bd 34 7b 2a 3d 13 1f b0 bd
       0.123445615 -0.118469 0.041621402 -0.08599677
000390 8c 40 e3 bc 02 7b 9d 3d c0 37 49 3c 5c 21 a1 bd
       -0.02774074 0.076894775 0.012281358 -0.07867691
0003a0 c2 fe eb 3d e0 04 e7 bb f8 c3 ff 3c 80 08 f2 3b
       0.115232006 -0.0070501417 0.031221375 0.007386267
0003b0 75 b3 96 bd ed 2b 05 3e a6 a8 ca bd fe 98 0e bd
       -0.073584475 0.13005038 -0.098954484 -0.034813873
0003c0 b4 cf c6 bd a1 88 0d be 16 3b ea 3d 80 fc 1d 3b
       -0.09707585 -0.13821651 0.11437051 0.00241068
0003d0 f0 bd 04 3d 0f d2 ff bd c4 d8 8e bc 20 d3 4a 3d
       0.0324077 -0.12491237 -0.017437346 0.04951775
0003e0 e8 ff 8f 3d 2c 2c 99 3d 8a 18 10 be 3c 19 01 3d
       0.07031232 0.07479128 -0.14071861 0.031518206
0003f0 ea 58 ca 3d 3a 3a e5 3d 1e b3 8d 3d b8 5b df 3c
       0.0988024 0.111927465 0.069189295 0.027265415

weight_hh_l1 f4 [200, 50]
000000 10 d1 2e 3d b0 9b 6e 3d 92 cc fd 3d 08 ab 86 3c
       0.042679846 0.058253944 0.12392534 0.016438976
000010 2c 96 00 bd f4 d0 b2 bd 20 c8 4b bc 80 e1 04 3c
       -0.031393215 -0.08731261 -0.01243785 0.008110404
000020 44 c4 e7 bc 88 05 2d 3d 73 50 0e 3e c0 13 2c bd
       -0.028291829 0.042241603 0.13897876 -0.042011023
000030 c8 c9 b1 bc 55 46 03 3e 20 46 5f 3d f2 9e 91 3d
       -0.021702662 0.12819798 0.054510236 0.071103945
000040 28 b0 70 3d 75 fa 07 be 50 fc 8e 3d 00 b0 a7 b9
       0.058761746 -0.13279136 0.069817185 -0.00031983852
000050 48 68 75 3d 64 75 d1 bc ac 54 0b be 29 b5 03 3e
       0.059913903 -0.025568672 -0.13606519 0.12862076
000060 2b 8d eb bd 00 76 7b 3d 8a 76 b7 bd 76 8c d3 3d
       -0.11501535 0.06139183 -0.089581564 0.10329525
000070 d7 c7 94 bd a0 fe c0 bb a0 09 15 bd a0 67 20 bc
       -0.07264679 -0.0058897287 -0.036386132 -0.009790331
000080 35 47 07 be 28 3b 40 3d 7e b4 a7 bd 1a cf 82 3d
       -0.13210757 0.046931416 -0.08188723 0.06387158
000090 14 c6 fc bd 54 c7 9d 3d 0e a0 02 be b0 b4 0b be
       -0.12342468 0.077040344 -0.12756369 -0.13643146
0000a0 66 e3 c8 3d c4 0b ca bd 90 eb b1 3d 44 e1 c9 bc
       0.09808998 -0.09865525 0.08687508 -0.024643548
0000b0 9a 4f a3 3d c2 f2 15 bd 20 48 fc bb f6 b7 93 3d
       0.07974167 -0.036608465 -0.0076990277 0.07212822
0000c0 48 ed 95 bd 48 f9 f0 3c 78 f7 c6 3d 20 43 90 3c
       -0.073206484 0.029415742 0.0971517 0.017610133
0000d0 38 22 e1 bc b0 cd 09 bc 60 93 e8 bb 04 be 29 3d
       -0.027482137 -0.008410856 -0.0070976466 0.04144098
0000e0 50 ee 11 3c 00 d5 4c 3b b6 57 4a bd d6 98 df 3d
       0.008906916 0.0031254888 -0.049400054 0.10917823
0000f0 98 ac 37 3d 2e bb f4 3d b4 ac db bc 80 87 7a 3d
       0.044842333 0.11949764 -0.02681575 0.06116438
000100 1c 5d d8 3d 9a 26 ab 3d 80 8b cf 3c 2a e3 eb 3d
       0.10564634 0.08356972 0.025335073 0.115179375
000110 00 d8 b2 bb 38 80 84 bc 8d 4d 03 be dc e7 22 3d
       -0.005457878 -0.01617442 -0.12822552 0.0397719
000120 28 28 a3 3c 7b 9e a0 bd b0 53 50 bc c4 06 c6 3d
       0.019916609 -0.07842728 -0.012715265 0.09669259
000130 1c ff a9 3d e8 b8 db 3c 92 41 45 bd 57 0f 01 3e
       0.083006114 0.026821569 -0.048158236 0.12603508
000140 e6 e0 12 bd 00 a8 95 3a bc 7d 4f 3d 47 a1 06 3e
       -0.03585901 0.0011417866 0.05065702 0.1314746
000150 04 d2 94 3d 7c f4 7c 3d 16 ce f4 3d 0c b6 3e 3d
       0.0726662 0.061756596 0.1195337 0.046560332
000160 b0 5a 8b bd 6c 67 35 3d 44 dc f8 bd c0 69 dd 3d
       -0.06804407 0.044288084 -0.12151387 0.10811186
000170 4a 7e fc 3d c0 f0 e7 3b 08 de 9d 3c d6 72 cc bd
       0.12328775 0.00707826 0.019270912 -0.09982841
000180 c0 ae 19 bb c0 0b 12 bc ff 5c 05 3e 9a 0e 7d bd
       -0.0023450106 -0.008913934 0.13023756 -0.061781503
000190 71 bf 10 3e 6c 90 95 3d a8 a4 5d bd 2d 80 92 bd
       0.14135529 0.07302937 -0.054112107 -0.07153354
0001a0 76 b1 ba 3d ea a2 cf 3d 3b 54 05 3e 1e 78 a5 bd
       0.09115879 0.10138495 0.13020413 -0.08079551
0001b0 a8 64 9a bd c2 57 f4 bd 50 bf fc bc 36 b5 ef bd
       -0.0753873 -0.11930801 -0.030852944 -0.11704485
0001c0 de f4 29 bd cc 82 50 3d 3a 4d ea 3d 2a 62 79 bd
       -0.04149329 0.050905988 0.11440511 -0.060884632
0001d0 ce a6 9b bd ae 4c eb bd 74 90 cc bd 4a db e7 3d
       -0.07600175 -0.11489235 -0.0998849 0.11321123
0001e0 d1 3e 0c be 4a d1 dc bd a3 05 04 be a0 f6 87 bc
       -0.13695838 -0.10782106 -0.12892775 -0.016597092
0001f0 77 85 10 3e 6e 35 10 bd a4 dd 9a 3d 00 13 ab 3a
       0.14113413 -0.035207205 0.07561806 0.0013051927
000200 aa a6 eb 3d 1e bd 7b bd 60 c1 3f 3c 0e ce e1 bd
       0.11506398 -0.061459653 0.011703819 -0.1102563
000210 00 ea ed 39 68 e9 20 bd 2a 50 ee 3d 88 44 47 3d
       0.00045378506 -0.039285094 0.11636384 0.04864934
000220 ec bf 86 bc e6 7c be 3d 88 48 b5 bd 62 e0 63 bd
       -0.016448937 0.09301166 -0.08851725 -0.05563391
000230 34 45 9e 3d f2 77 0c be a0 6a ef 3c 36 f9 e0 3d
       0.07728043 -0.1371763 0.029225647 0.10985033
000240 c0 c6 88 bb 0a 4d 39 bd f5 eb d3 bd 90 03 d6 bc
       -0.0041740835 -0.045239486 -0.103477396 -0.026124746
000250 d6 3e c3 3d fa f9 74 bd 62 46 f8 bd 6a 05 f4 bd
       0.095334694 -0.05980871 -0.121227995 -0.11915095
000260 b5 23 9b bd 60 63 a1 3c b6 6d 98 3d 16 b7 0d be
       -0.0757517 0.019700706 0.07442801 -0.13839373
000270 20 c6 4c 3d ca 6c d9 bd af 57 cb bd d1 6c 05 be
       0.049993634 -0.10616453 -0.09928834 -0.13029791
000280 1a 07 aa 3d 30 03 16 3d 79 db be bd 70 06 10 bd
       0.08302136 0.036624134 -0.09319205 -0.03516239
000290 a4 9e 95 3d 1c 3d f4 bc e0 5d 7d 3c c2 4f f0 bd
       0.07305649 -0.029814295 0.015464276 -0.117339626
0002a0 53 87 cb bd 28 1d f9 3c 4a fb a5 3d 7b 6c 06 be
       -0.099379204 0.03040941 0.0810457 -0.1312732
0002b0 62 53 a3 3d 07 21 0c 3e 86 f9 a9 3d e8 8a 1e bd
       0.079748884 0.13684474 0.08299546 -0.03870669
0002c0 ee 4d d0 3d 4c 58 9a 3d 22 7f 0a be b2 81 a9 bd
       0.10171114 0.075363725 -0.1352506 -0.082766905
0002d0 a0 e7 8c 3c 70 a3 dd bd 65 61 83 bd de bc d5 3d
       0.017200291 -0.10822189 -0.06415061 0.10436414
0002e0 a8 1d cd 3c 36 a3 b8 bd 00 46 e8 3a 38 db 4f 3d
       0.025038555 -0.09015505 0.0017721057 0.050746173
0002f0 64 13 0f be 2f 6c 8f bd 13 97 0b be d4 93 a7 bd
       -0.1397224 -0.07003056 -0.13631849 -0.08182493
000300 e5 39 10 3e 50 be 04 be ec 81 43 3d b4 90 8e 3d
       0.14084585 -0.12963223 0.047731325 0.06961194
000310 92 b3 56 bd 20 18 0b be 76 96 d8 bd cd 78 0e be
       -0.052417345 -0.13583422 -0.10575573 -0.1391327
000320 f6 72 f9 3d 10 5c 34 3d c2 cb d9 3d d2 ac d3 bd
       0.1218013 0.04403311 0.10634567 -0.10335697
000330 f9 1b 09 be ac d3 ed bc ec 49 42 3d b8 13 95 3c
       -0.13389577 -0.029031597 0.04743378 0.01819788
000340 e4 1f 75 3d 44 fe 5b bd ce 00 df 3d b8 d9 f6 3c
       0.059844866 -0.053709283 0.10888825 0.030133113
000350 c0 70 0c 3c 40 b5 f3 bb 9c 1d ec bd 76 38 ae bd
       0.008571804 -0.007437378 -0.11529085 -0.08506863
000360 d8 09 f1 3c 1c 47 34 3d 7b a8 f4 bd 24 e7 dc bd
       0.02942364 0.044013128 -0.119461976 -0.10786274
000370 68 3e d9 3c 00 8d 81 bc 50 23 7f 3d 4f 6b 0b 3e
       0.026519015 -0.015814304 0.062289536 0.13615154
000380 32 3e ec 3d 94 36 12 3d e0 06 99 bb 60 18 99 bd
       0.115353 0.03569658 -0.004670009 -0.07475352
000390 20 34 b7 3c 08 08 d0 3c 9c 73 da 3d 8b a8 e9 bd
       0.022363722 0.025394455 0.10666582 -0.114091
0003a0 f6 97 e3 3d 39 c4 08 3e 8a b9 e9 3d fe c2 fe 3d
       0.111129686 0.13356103 0.11412342 0.124395356
0003b0 80 75 ab bb 76 d5 f8 3d e6 b6 cf 3d 62 c1 b1 bd
       -0.005232513 0.121500894 0.10142307 -0.08679463
0003c0 d4 b6 35 bd a0 7a ae 3c b8 a4 fd bd 59 b8 10 be
       -0.04436381 0.021298707 -0.12384933 -0.14132823
0003d0 fc e7 23 bd 00 8c 10 39 8e b0 b1 bd 86 a6 a1 bd
       -0.04001616 0.00013785064 -0.08676253 -0.0789309
0003e0 0f c0 09 3e 18 89 b5 3d f1 9f a0 bd e0 a8 26 3d
       0.13452171 0.08864039 -0.078430064 0.040688396
0003f0 80 57 f2 3a 98 d6 ac 3d 20 fc 6e 3c 84 71 54 bd
       0.0018489212 0.08439368 0.0145864785 -0.05186607

bias_ih_l1 f4 [200]
000000 e0 84 e7 3c 3c 01 0b 3d e4 d2 1e 3d 00 c7 49 bb
       0.028261602 0.033936724 0.03877534 -0.003078878
000010 46 09 e3 3d ef 66 08 3e fc a9 48 bd f6 d7 7a bd
       0.11085753 0.13320516 -0.048990235 -0.061241113
000020 2e 8e eb 3d d8 17 c9 bd 62 43 8b 3d d6 ff d6 bd
       0.11501728 -0.09819001 0.067999616 -0.104980156
000030 c0 43 44 bc ae b0 81 3d 7c 6a ed bd 00 16 a5 3c
       -0.0119790435 0.06332527 -0.11592576 0.020152092
000040 e0 38 84 3c 16 73 8e 3d 00 d2 06 3c d4 87 c8 3d
       0.016140401 0.06955545 0.008228779 0.09791532
000050 1e ee a1 bd 34 84 e1 bc 20 48 de bb 73 f7 92 bd
       -0.079067454 -0.02752886 -0.0067835003 -0.071761034
000060 6d c2 0b be f1 55 03 3e ac e0 6e 3d d0 1e 7e 3c
       -0.13648386 0.12825753 0.058319733 0.015510276
000070 fc 56 48 bd 50 52 2d bd 00 5c 5e ba dc f1 04 3d
       -0.04891108 -0.042314827 -0.0008482337 0.032457218
000080 fc 08 de bd d4 58 55 3d f0 e6 9a 3d 26 51 45 bd
       -0.108415574 0.052086666 0.07563579 -0.048173092
000090 00 25 0e ba 80 8b 57 bc ae 51 c3 bd 94 94 d2 bd
       -0.00054223835 -0.013155818 -0.095370635 -0.10282245
0000a0 60 0d 19 3c b9 cd 01 3e a0 66 4b 3d c1 46 e4 bd
       0.009341568 0.12676133 0.049658418 -0.11146308
0000b0 7a 1c c9 3d 3a 75 bc 3d e0 4d 3a bd b8 ba 11 3d
       0.098198846 0.09202047 -0.045484424 0.03557846
0000c0 7c a4 93 bd a0 61 ca bb 22 b2 c5 3d 56 be 1d bd
       -0.07209107 -0.0061761886 0.09653117 -0.038511597
0000d0 54 eb 46 3d 06 d4 fb bd af 47 8e bd 76 3f 9c bd
       0.04856427 -0.122963 -0.06947266 -0.07629292
0000e0 2e f8 f3 bd 93 6a 04 be ac 9f c9 3d 3c 3b 93 bd
       -0.11912571 -0.1293128 0.09844908 -0.071890324
0000f0 4e 2e ed 3d 08 7b 78 3d 78 c1 b9 bc 86 47 d7 bd
       0.115810975 0.060664207 -0.02267526 -0.10511689
000100 b4 a3 0c be ec c6 ae bc e0 aa e8 bb 0c 6f 36 3d
       -0.13734323 -0.021335088 -0.007100448 0.044539496
000110 86 e2 95 bd c0 84 ba 3d 68 35 d9 bd b0 7d 64 bc
       -0.073185965 0.09107351 -0.106058896 -0.013945982
000120 3f 1d 03 be 2f a5 02 3e 8c 8b a8 bc 1a 4a bd bd
       -0.12804125 0.12758325 -0.020574354 -0.092426494
000130 c8 17 a6 3c 40 33 3b 3d 90 8f 6f bc d8 62 58 3d
       0.020275012 0.045703173 -0.01462163 0.05282864
000140 dc 67 07 be 08 63 4a 3d f0 ff 26 3c 04 2f 7e 3d
       -0.13223213 0.04941085 0.010192856 0.062056556
000150 d1 9a 0d be 04 da 48 bd 86 23 08 bd 78 ff cb 3c
       -0.13828589 -0.04903604 -0.033237003 0.02490209
000160 98 e7 98 bd a6 4c a1 3d ba a7 8c bd 28 f5 90 3c
       -0.07466048 0.07875948 -0.06867929 0.017695025
000170 c8 d1 a7 3c f9 d6 01 3e f6 05 0a be 80 46 63 3c
       0.020485774 0.12679662 -0.13478836 0.013871789
000180 3c 94 47 bd 28 64 07 3d dd 40 0b 3e 34 b3 c5 bc
       -0.04872535 0.0330545 0.13598962 -0.024133302
000190 14 b2 9f 3d 44 23 84 bd f8 17 e5 bd 88 e2 55 3d
       0.077976376 -0.06452039 -0.11186212 0.05221799
0001a0 61 9b 04 3e 84 5d a6 3d 30 0f bc 3c 11 a6 0e 3e
       0.12949897 0.081233054 0.02295646 0.13930537
0001b0 28 77 80 3d 72 4d 92 3d 00 de a4 b9 70 2a cb 3d
       0.06272727 0.07143678 -0.0003144592 0.09920204
0001c0 14 3a 21 3d 56 39 84 bd 6a fa c9 3d 2c 64 02 be
       0.03936203 -0.064562485 0.09862216 -0.12733525
0001d0 c6 86 c4 3d 5e f9 00 be c4 7a 0e be b7 2b fb bd
       0.095960185 -0.12595126 -0.13914019 -0.12264197
0001e0 8c d8 3d bd 4c 49 87 bd aa fa fe 3d cb bc 06 be
       -0.046349093 -0.06605777 0.12450154 -0.13157956
0001f0 f5 59 0e 3e 80 7d ab ba 00 65 5d 3d 86 fd d7 3d
       0.13901503 -0.0013083667 0.0540514 0.10546403
000200 dc 5c 61 bd 00 20 96 b8 a8 cf a4 3d 80 0b 71 3d
       -0.0550202 -7.158518e-05 0.0804742 0.058848858
000210 08 f4 e0 3c 78 23 eb 3c 77 b6 0d be 44 7a b4 3d
       0.027460113 0.028703436 -0.13839136 0.08812383
000220 b8 94 84 bd 94 fc c4 3d 36 86 c8 3d 91 f8 8c bd
       -0.06473678 0.09618488 0.09791224 -0.06883348
000230 f4 85 90 bc 3d 8e ea bd 26 a4 59 bd f0 ee c7 bd
       -0.017641999 -0.11452911 -0.05313506 -0.097623706
000240 56 56 74 bd a5 62 02 3e 7c 57 de bd f4 c8 34 bd
       -0.05965265 0.12732942 -0.1085653 -0.044136956
000250 5c b3 a2 3d 1a 59 f2 bd d2 f0 c3 bd 80 37 be 3b
       0.07944366 -0.11833401 -0.09567417 0.005804956
000260 51 10 0b 3e 8a 1d f4 3d 38 4e ea 3c ac 43 c2 bd
       0.13580443 0.11919697 0.02860175 -0.09485564
000270 00 aa d2 bd 88 f4 a1 3d 6c 81 c3 3d e4 2a 9d 3d
       -0.10286331 0.07907969 0.0954617 0.07674196
000280 94 b2 09 be 9a a5 a4 3d 1a 6b 66 bd 7b 32 02 3e
       -0.13447028 0.080393985 -0.056254484 0.1271457
000290 00 df 35 3d 6a b9 d8 bd f4 7c 0e 3d 5a ad e3 3d
       0.044402122 -0.1058224 0.034787133 0.111170486
0002a0 70 25 27 3c b2 44 da bd b2 ff d0 bd 97 94 8d bd
       0.010201797 -0.10657634 -0.1020502 -0.06913107
0002b0 30 67 d7 bc 64 04 a8 3d fa e0 fb 3d 8a da f4 3d
       -0.02629432 0.082039624 0.1229877 0.119557455
0002c0 14 90 6f bd 00 56 ea b9 41 46 d5 bd 6e 9a 08 be
       -0.058487013 -0.00044696033 -0.104137905 -0.1334016
0002d0 ae 2c 9c 3d 8a f9 c3 bd 2e 1e a5 3d f4 51 d7 bd
       0.076257095 -0.0956908 0.08062397 -0.10513678
0002e0 72 2c d1 bd 80 b9 e5 bd 05 90 d8 bd c2 d4 54 bd
       -0.102135554 -0.11217022 -0.105743445 -0.051960714
0002f0 40 ad b6 bb e0 2a a0 3c cc 85 d1 bd c2 09 f8 3d
       -0.005574852 0.019551694 -0.10230598 0.12111236
000300 2c e7 2c bd d4 a3 43 bd 72 06 00 be 00 93 58 3b
       -0.04221265 -0.04776366 -0.12502459 0.0033046603
000310 0c e3 74 bd 78 54 f3 bc 0e d9 5b bd 94 56 30 3d
       -0.05978684 -0.029703364 -0.053673796 0.043051317
