process/mlruns/850336352745823845/models/m-b7ce3f44be7243a5a27422dc1e247ab7/artifacts/data/model.pth (torch, 139858 bytes, 11 tensors)

weight_ih_l0 f4 [200, 10]
0	0x3d88775e	0.066633925
1	0xbd976374	-0.07392016
2	0xbd70406e	-0.058655195
3	0xbcc86a88	-0.02446486
4	0xbd5e9590	-0.054341853
5	0xbc7d7630	-0.015470073
6	0xbdc0257a	-0.09382148
7	0xbcf470f0	-0.029839009
8	0x3c9e05f0	0.01928994
9	0x3d4f26b0	0.050574005
10	0x3afa4100	0.0019092858
11	0x3cf66ae0	0.030080259
12	0xbd06d942	-0.032922037
13	0x3ba23860	0.004950568
14	0xbbb6f420	-0.005583301
15	0x3dfc1672	0.123089686
16	0x3d9c124a	0.07620676
17	0x3d333a44	0.04375674
18	0xbdf84008	-0.12121588
19	0x3e09cd95	0.1345733
20	0x3df6bede	0.12048124
21	0xbdb2a2ca	-0.08722456
22	0x3dce78b4	0.10081616
23	0xbd9ad00e	-0.075592145
24	0xbd89b657	-0.06724232
25	0xbda3eb90	-0.08003914
26	0xbdbd62d5	-0.09247366
27	0x3cbb0e40	0.022833943
28	0xbc57cd00	-0.013171434
29	0x3d9d9b56	0.076956436
30	0xbde9e08a	-0.114197806
31	0xbe0322e1	-0.12806274
32	0x3d9c67b8	0.0763697
33	0xbdbc7616	-0.092022106
34	0xbdeb4c90	-0.114892125
35	0xbd0dbf98	-0.034606546
36	0x3d7ba2d0	0.061434567
37	0xbe0c72ec	-0.13715714
38	0xbd400d4c	-0.04688768
39	0x3d63cb24	0.055613652
40	0xbda971c2	-0.08273651
41	0xbdcd86f6	-0.100355074
42	0x3db7571a	0.0895216
43	0x3b848740	0.0040444434
44	0x3da33d96	0.07970731
45	0xbdbeef6c	-0.0932301
46	0x3d4408e0	0.047860026
47	0xbd930a4d	-0.07179699
48	0x3dff8a9e	0.12477611
49	0x3e0e23a3	0.13880782
50	0xbbc6d580	-0.0060679317
51	0x3d80dc74	0.06292048
52	0xbcf899f4	-0.030346848
53	0xbc8f0f0c	-0.01746323
54	0x3c853d88	0.016264692
55	0x3c12bd20	0.008956224
56	0x3dfcd9a6	0.12346201
57	0xbb5d0100	-0.003372252
58	0x3d2429d4	0.040078953
59	0x3e0f3537	0.13985144
60	0xbe0c90f1	-0.13727166
61	0x3d61df34	0.055144504
62	0xbd2d93be	-0.042377226
63	0xbd657636	-0.056020938
64	0x3ddc2376	0.10748951
65	0x3d99d49c	0.07511255
66	0xbd450f28	-0.048110157
67	0xbdac0e5b	-0.084011756
68	0xbc5c0150	-0.013428047
69	0xbe1022b7	-0.14075743
70	0xbd4f4e1e	-0.050611608
71	0x3d656844	0.05600764
72	0x3de979d2	0.114001885
73	0x3dfe93d2	0.12430538
74	0x3dde2e36	0.10848658
75	0xbdc62a4d	-0.09676037
76	0x3de03a42	0.10948612
77	0x3deb41e6	0.114871785
78	0xbdf64b5f	-0.12026095
79	0xbdf5303c	-0.119720906
80	0xbab3b100	-0.0013709366
81	0xbdb715ee	-0.0893973
82	0x3d961694	0.07328525
83	0x3dea2eda	0.114347175
84	0xbe05ed90	-0.13078904
85	0x3dafc516	0.08582513
86	0xbdaf56ac	-0.08561453
87	0x3c5f8a40	0.013643801
88	0xbd6bf43e	-0.057605974
89	0x3d530fa8	0.051528603
90	0xbdb6ce19	-0.08926029
91	0x3de80bca	0.113303736
92	0xbcb1b4d0	-0.021692663
93	0x3d6efbac	0.05834548
94	0xbd90c518	-0.07068843
95	0xbdbaf46e	-0.091286525
96	0x3e062289	0.13099112
97	0xbd4c76a6	-0.04991784
98	0x3df40c0a	0.11916359
99	0x3ce9dbd0	0.028547198
100	0x3e0e91dd	0.1392283
101	0x3d1bdfdc	0.038055286
102	0xbd657632	-0.056020923
103	0x3c59e290	0.013298646
104	0x3d648df4	0.05579944
105	0xbdef07eb	-0.11671432
106	0xbda9882c	-0.08277926
107	0xbd7d92be	-0.061907522
108	0x3d93d950	0.072191834
109	0xbca04d60	-0.019568145
110	0xbc72e570	-0.01482521
111	0x3d0a261c	0.03372775
112	0x3d74b888	0.059746295
113	0x3d35a264	0.04434432
114	0x3d808a64	0.06276396
115	0xbd613634	-0.054983333
116	0xbd90728c	-0.07053098
117	0xbe0beab1	-0.13663746
118	0xbde34d6c	-0.110987514
119	0x3dffcd8e	0.12490378
120	0xbddd920f	-0.10818874
121	0x3d462cb0	0.04838246
122	0x3df78c5a	0.12087317
123	0x3d005054	0.031326607
124	0xbd3e855e	-0.046513908
125	0x3e0bb65f	0.13643788
126	0xbdc380da	-0.09546061
127	0x3d97e4f4	0.07416716
128	0xbdcd078a	-0.100112036
129	0xbd94555a	-0.07242842
130	0xbe0e3ad8	-0.13889635
131	0x3e085fc3	0.1331778
132	0xbdd03d90	-0.10167992
133	0x3e0c2cf5	0.13689025
134	0xbd02769e	-0.031851403
135	0xbc4f5220	-0.0126538575
136	0x3d2f8ab8	0.042856902
137	0xbd9e6120	-0.07733369
138	0x3e05c8b3	0.13064842
139	0xbe046516	-0.12929186
140	0xbd47ccce	-0.0487793
141	0x3db7d5b8	0.089763105
142	0x3d6217a8	0.05519834
143	0x3dc1e8ec	0.094682544
144	0x3ccbcb68	0.024877265
145	0x3ccc6228	0.024949148
146	0xbe0922b7	-0.13392149
147	0xbd41d766	-0.04732456
148	0x3be59720	0.007006541
149	0xbdeadf7e	-0.11468409
150	0xbd8998ea	-0.06718619
151	0x3da26bdc	0.07930729
152	0xbe075b97	-0.13218533
153	0x3e0a7e5b	0.13524763
154	0x3db47b7e	0.08812617
155	0xbd02fa68	-0.031977087
156	0x3baf9320	0.005358115
157	0x3d33a2f8	0.04385659
158	0xbd9ac3c0	-0.075568676
159	0x3c67d970	0.014150962
160	0xbde3b1fd	-0.11117933
161	0x3c10aaf0	0.008829817
162	0x3d1bb7fc	0.038017258
163	0xbdb7f050	-0.08981383
164	0x3e01632f	0.12635492
165	0xbb354880	-0.0027661622
166	0x3d5f4070	0.05450481
167	0x3e06e4e5	0.13173254
168	0xbdfc327a	-0.12314315
169	0xbd592694	-0.053015307
170	0xbcc56fa4	-0.024101086
171	0xbcea9040	-0.028633237
172	0x3d914434	0.07093087
173	0x3dc064aa	0.093942
174	0xbd2c2cac	-0.04203479
175	0x3c0fbb70	0.008772716
176	0xbd420ee8	-0.047377497
177	0xbe0ab236	-0.13544545
178	0x3ddf9e3e	0.10918854
179	0x3df03356	0.117285416
180	0xbe0dc1ec	-0.13843507
181	0xbd96fb5a	-0.0737216
182	0xbd259cfa	-0.040432908
183	0xbd1b0ae6	-0.03785219
184	0x3e014963	0.12625651
185	0xbd03251e	-0.03201782
186	0x3e0595b1	0.13045384
187	0x3dc60282	0.09668447
188	0x3d1db194	0.03849943
189	0x3e0cb2a7	0.13740025
190	0x3d99144e	0.07474576
191	0xbdecc73b	-0.11561438
192	0xbdca3bb1	-0.098746665
193	0xbde12b25	-0.10994557
194	0x3bdabe60	0.0066755265
195	0xbdc48808	-0.095962584
196	0x3bb07d00	0.005385995
197	0xbd03ee52	-0.0322097
198	0x3d38cd74	0.04511781
199	0xbe0137d8	-0.12618959
200	0x3e059327	0.13044415
201	0x3d0284bc	0.031864867
202	0x3cf22180	0.02955699
203	0x3dcca0d0	0.0999161
204	0xbde50cc5	-0.11184076
205	0x3de8ee4e	0.11373578
206	0xbdfa2094	-0.12213245
207	0x3de9c13e	0.11413811
208	0x3cd086c8	0.025454894
209	0xbdd4e288	-0.1039477
210	0x3d5a79ec	0.05333893
211	0xbd2f211e	-0.042756192
212	0xbb4bc080	-0.003109008
213	0x3d0b75dc	0.034047946
214	0x3dc50034	0.09619179
215	0x3db721cc	0.08941993
216	0x3cfdb1f8	0.030968651
217	0x3d73c0e4	0.059510127
218	0x3d67d448	0.05659893
219	0xbde5aebe	-0.1121497
220	0xbd836e18	-0.06417483
221	0xbcc82c2c	-0.024435125
222	0xbd9d786d	-0.07688985
223	0xbd913e9f	-0.07092022
224	0x3cc53800	0.024074554
225	0x3d3cb954	0.04607518
226	0x3d9ec998	0.07753295
227	0xbc9a37f0	-0.018825501
228	0xbcd5dbb4	-0.02610574
229	0x3df8768e	0.121319875
230	0x3e008803	0.12551884
231	0x3d6a49d4	0.057199314
232	0xbcca81a4	-0.02472002
233	0xbda4b11c	-0.080415934
234	0xbdbacb20	-0.09120774
235	0xbd88ac5a	-0.066734985
236	0x3b34f0c0	0.0027609318
237	0xbe006aab	-0.1254069
238	0x3dce0e36	0.10061304
239	0x3dcc06a0	0.09962201
240	0xbcbe55f4	-0.023234345
241	0x3c0d49d0	0.008623555
242	0x3d9c2ca0	0.07625699
243	0xbd579f0a	-0.052641906
244	0xbd91bba3	-0.07115867
245	0xbd9c7094	-0.0763866
246	0xbcef125c	-0.02918356
247	0x3ce764d0	0.028246313
248	0xbd8b3f80	-0.06799221
249	0xbdf8a9d4	-0.12141767
250	0xbe04bb14	-0.1296199
251	0xbd830957	-0.06398266
252	0xbb9da960	-0.004811451
253	0xbdf7f461	-0.121071585
254	0x3d4c7290	0.049913943
255	0xbda1acfe	-0.07894324

weight_hh_l0 f4 [200, 50]
0	0xbdef5570	-0.11686218
1	0x3cbdc9d0	0.02316752
2	0x3cfdcf70	0.030982703
3	0x3dcfc5f8	0.101451814
4	0xba9d3000	-0.0011992455
5	0xbe04f08e	-0.1298239
6	0x3dcd564e	0.10026227
7	0xbe074ac9	-0.13212122
8	0x3d9acab6	0.07558195
9	0xbdd7ff36	-0.105467245
10	0xbd13a782	-0.03604842
11	0xbd1a42f2	-0.0376615
12	0x3d123a8c	0.035700366
13	0x3c69dbd0	0.014273599
14	0x3dc13462	0.09433819
15	0x3da37c40	0.07982683
16	0xbe0104a6	-0.1259943
17	0xbdea1423	-0.11429622
18	0x3c999738	0.018748865
19	0xbd9a522c	-0.07535204
20	0x3da8153e	0.082071766
21	0x3da0f38c	0.07858953
22	0xbcfeecc4	-0.031118758
23	0xbdb5a51a	-0.08869381
24	0x3bf39700	0.007433772
25	0xbb80a320	-0.003925696
26	0x3e02449d	0.12721486
27	0xbdeebee9	-0.11657507
28	0xbcb54e2c	-0.022132002
29	0xbab71a00	-0.0013969541
30	0xbe0c3ca9	-0.13695015
31	0x3d7fa6f4	0.06241508
32	0xbbc09e20	-0.005878225
33	0x3d35f730	0.04442519
34	0xbc902138	-0.017593965
35	0x3df8aa5a	0.12141867
36	0xbdf92bd0	-0.1216656
37	0x3cdb0000	0.026733398
38	0xbd26b99a	-0.040704347
39	0xbc071aa0	-0.008246094
40	0x3de26d5e	0.110560164
41	0xbc934f58	-0.01798217
42	0xbcc313f4	-0.023813225
43	0x3dee6b02	0.11641504
44	0xbe0acced	-0.13554735
45	0xbdaf1f7c	-0.08550927
46	0xbdb236f9	-0.087018915
47	0x3cbe6ec0	0.02324617
48	0x3e03e395	0.12879784
49	0x3d8dd7ca	0.06925924
50	0x3dd7880a	0.10523994
51	0xbdd3a6db	-0.103345595
52	0xbdc53bc6	-0.096305415
53	0x3e013bb1	0.12620427
54	0xbe0230ce	-0.1271393
55	0x3cb922e0	0.022599638
56	0xbe0e41b3	-0.1389225
57	0xbddc4f63	-0.10757329
58	0x3db16738	0.086622655
59	0xbd223ae4	-0.039606944
60	0xbdf3d978	-0.11906713
61	0x3d0e3b10	0.034724295
62	0x3dfc0a42	0.12306644
63	0x3e00e9cb	0.12589185
64	0xbd706906	-0.05869391
65	0x3dc95d14	0.09832206
66	0xbceb68a8	-0.028736427
67	0xbde4e2ee	-0.11176096
68	0xbd2d8f5c	-0.042373046
69	0x3d6da564	0.058019057
70	0xbd3a4e12	-0.04548461
71	0xbc119b80	-0.008887172
72	0x3dbca208	0.092105925
73	0x3dae207a	0.08502288
74	0xbdd43e36	-0.10363428
75	0xbdf25f75	-0.11834613
76	0x3d4b7abc	0.049677595
77	0x3d05c4c8	0.03265837
78	0x3db2eca8	0.08736545
79	0x3dc3c09e	0.09558223
80	0xbcbf2ba4	-0.02333624
81	0x3e066117	0.13122974
82	0x3dadaec6	0.08480601
83	0xbd3bfcca	-0.045895375
84	0xbe0d1fd9	-0.1378168
85	0x3c9a0158	0.018799469
86	0xbe00c14e	-0.1257374
87	0xbde48249	-0.111576624
88	0xbdd46181	-0.1037016
89	0xbdc43ccd	-0.09581909
90	0x3c5e7ca0	0.013579518
91	0x3b929b60	0.0044740885
92	0xbd851312	-0.06497778
93	0x3d8c7c84	0.06859687
94	0xbcf06f90	-0.029350072
95	0xbd864a90	-0.065571904
96	0x3cc99f18	0.024611995
97	0xbd3ce2ac	-0.04611461
98	0x3def3b52	0.11681236
99	0xbd2b3e38	-0.041807383
100	0x3bd39740	0.0064572394
101	0xbd37dd6e	-0.044888906
102	0x3c837450	0.016046673
103	0x3dc0bd68	0.094111264
104	0xbdadb9c4	-0.084826976
105	0x3cb11958	0.02161853
106	0x3d4718f8	0.048607796
107	0xbd3813bc	-0.044940695
108	0xbd1f24d4	-0.03885348
109	0x3e0a12d3	0.13483743
110	0xbd9292e8	-0.071569264
111	0xbd8197a2	-0.0632775
112	0x3d730838	0.05933401
113	0x3dd9003a	0.10595746
114	0xbdc0678f	-0.09394752
115	0x3dbce35a	0.09223051
116	0x3a22a200	0.00062039495
117	0xbd494950	-0.049142182
118	0xbe0ea6ef	-0.13930868
119	0x3d7a62d8	0.06112942
120	0x3d9cacd2	0.0765015
121	0x3df25df2	0.11834325
122	0xbd7b023a	-0.06128142
123	0x3dabfa8a	0.08397396
124	0xbc051880	-0.008123517
125	0x3b9e9120	0.0048390776
126	0x3cae7bb8	0.021299228
127	0x3db910e0	0.09036422
128	0x3daa1f30	0.0830673
129	0x3bc09c40	0.0058780015
130	0xbdf00bd6	-0.117210075
131	0x3d9f042c	0.077644676
132	0x3bb910a0	0.005647734
133	0x3d15ed78	0.03660342
134	0x3d79f774	0.061027005
135	0xbd4490ba	-0.047989585
136	0x3c866ba8	0.016408756
137	0xbc7e1f60	-0.01551041
138	0x3ce229e0	0.027607858
139	0x3cd8df60	0.026473701
140	0xbdffa420	-0.12482476
141	0xbd9ba82a	-0.07600434
142	0x3d956888	0.072953284
143	0x3b8bcae0	0.004266128
144	0x3b3fc140	0.0029259473
145	0xbd3b7190	-0.0457626
146	0xbe046d8b	-0.12932412
147	0x3d7f95e8	0.06239882
148	0xbdd5941e	-0.10428642
149	0xbcd72114	-0.02626089
150	0x3dbfdf44	0.093687564
151	0x3df7b22a	0.12094529
152	0x3d856296	0.065129444
153	0xbdcc8ee0	-0.09988189
154	0x3e0a9faf	0.13537477
155	0x3d08fea4	0.03344597
156	0xbcfef38c	-0.031121992
157	0x3d6b5bfc	0.05746077
158	0xbc876c2c	-0.016531073
159	0x3dfa9d7e	0.122370705
160	0xbd9c4f06	-0.0763226
161	0xbd741570	-0.059590757
162	0x3ac8d180	0.0015321225
163	0x3d951664	0.07279661
164	0xbdc97086	-0.09835915
165	0x3dc69dd0	0.09698069
166	0x3d0a1ba8	0.03371778
167	0x3d791aa8	0.060816437
168	0x3dfaa53a	0.12238546
169	0x3deafae2	0.11473633
170	0x3d8e50bc	0.069489926
171	0x3de0805a	0.10961981
172	0xbdc9ecf7	-0.098596506
173	0xbcf7f8c4	-0.030269988
174	0xbd035bee	-0.032070093
175	0x3d882360	0.06647372
176	0xbc0c5ff0	-0.008567795
177	0x3d987aa8	0.0744527
178	0x3e0393a5	0.1284929
179	0xbcbf996c	-0.023388587
180	0xbdbba29e	-0.09161876
181	0xbc82a460	-0.01594752
182	0xbd8c14cc	-0.06839904
183	0xbe0a614b	-0.13513677
184	0xbdeeee01	-0.116664894
185	0x3dd36ac8	0.10323101
186	0xbc0f42d0	-0.008743957
187	0x3dc37aac	0.09544882
188	0xbca1fc64	-0.01977367
189	0x3dd3e42c	0.10346255
190	0xbd0e3354	-0.03471692
191	0xbe0b6586	-0.13612947
192	0xbe042959	-0.12906398
193	0x3dd0f2ba	0.102025464
194	0x3d3f7678	0.04674384
195	0xbd138f5c	-0.03602539
196	0xbdf498cf	-0.119432084
197	0xbdf2e321	-0.11859728
198	0xbdab95c9	-0.083781786
199	0x3d99d9a0	0.07512212
200	0xbdbf92c8	-0.09354168
201	0xbcd85b80	-0.026410818
202	0x3d8d3608	0.06895071
203	0xbdf09aa9	-0.11748249
204	0x3cb83268	0.022484973
205	0xbdcf83fd	-0.10132597
206	0xbe06e584	-0.13173491
207	0xbddc3d1a	-0.10753842
208	0xbd4c3f9e	-0.049865358
209	0xbd686982	-0.056741245
210	0xbc6d9090	-0.014499798
211	0xbe0b581b	-0.13607828
212	0x3d8d8f0a	0.06912048
213	0xbddf5dfc	-0.10906598
214	0xbe0c5b2c	-0.13706654
215	0x3c33d7f0	0.0109767765
216	0xbd496402	-0.04916764
217	0xbd8dea88	-0.06929499
218	0x3ca18f58	0.019721672
219	0x3dedf22a	0.11618455
220	0xbd46deea	-0.04855243
221	0x3985f200	0.0002554804
222	0xbda79332	-0.08182372
223	0xbdfede30	-0.12444723
224	0xbc29dba0	-0.010367304
225	0x3d661c3c	0.05617927
226	0xbd4fe61c	-0.05075656
227	0xbde06416	-0.1095659
228	0xbdc10ef0	-0.09426677
229	0xbd7a02e4	-0.061037913
230	0x3cfb7970	0.030697554
231	0x3dc6f980	0.09715557
232	0x3d20dfe0	0.039276004
233	0xbd0ea6c8	-0.034827024
234	0x3d6db164	0.0580305
235	0x3c6e6a70	0.014551744
236	0xbcfcfe5c	-0.030883007
237	0xbde51860	-0.1118629
238	0xbd916ea6	-0.07101183
239	0xbdc48524	-0.09595707
240	0x3dcd6a76	0.100300714
241	0xbe0dd8fa	-0.13852301
242	0x3c89f528	0.016840532
243	0xbd633f1c	-0.055480108
244	0x3d017250	0.031603158
245	0xbdf6efc2	-0.12057449
246	0x3e0bcfe1	0.13653518
247	0x3d3aeae0	0.04563415
248	0x3dabde2a	0.08391984
249	0xbd9c0813	-0.076187275
250	0x3de312a6	0.11087541
251	0xbdb85d7a	-0.09002204
252	0x3c09f8d0	0.008421138
253	0xbdb20c8c	-0.086937994
254	0xbc7d8ec0	-0.015475929
255	0x3d970aa8	0.073750794

bias_ih_l0 f4 [200]
0	0xbdc38a42	-0.09547855
1	0x3d0ec028	0.034851223
2	0x3dc463d4	0.09589353
3	0x3cd09a50	0.025464207
4	0xbc880a24	-0.016606398
5	0xbe0f969e	-0.140223
6	0xbdc20948	-0.094744265
7	0x3db1c954	0.086809784
8	0xbdf7262b	-0.12067827
9	0x3e056bcf	0.13029407
10	0xbd96b061	-0.0735786
11	0x3d1c482c	0.038154766
12	0xbd818eff	-0.063261025
13	0xbd93a65c	-0.07209465
14	0x3e0a1465	0.13484342
15	0xbb801140	-0.0039083064
16	0x3dc714ac	0.0972074
17	0xbdd52048	-0.10406548
18	0x3be322c0	0.0069316328
19	0xbdbb5f2f	-0.09149014
20	0xbdf19a1c	-0.11796972
21	0x3d97d36c	0.074133724
22	0xbaf96700	-0.0019027889
23	0xbd7a8062	-0.06115759
24	0xbdcbc78e	-0.099501714
25	0xbb1e9340	-0.0024196655
26	0xbd9dc076	-0.07702725
27	0xbdcc7bbe	-0.099845394
28	0xbb511880	-0.0031905472
29	0xbd48c2ce	-0.049013905
30	0x3da7ef24	0.08199909
31	0x3e0472bf	0.12934397
32	0x3e0bf935	0.13669284
33	0xbdd355c9	-0.103190966
34	0x3dbdf91c	0.092760295
35	0xbe007364	-0.12544018
36	0x3db7f5f4	0.08982459
37	0xbd359eb2	-0.044340797
38	0x3e0eca0d	0.13944264
39	0xbd8e7551	-0.0695597
40	0xbc09c340	-0.008408368
41	0x3d87bddc	0.0662801
42	0xbcd9f490	-0.026605874
43	0xbd8982ec	-0.067144245
44	0x3c952d28	0.018210009
45	0x3ce9b0f8	0.028526768
46	0x3d19fdb0	0.03759545
47	0xbcf26074	-0.029587008
48	0x3cd38bc8	0.025823489
49	0xbddffa91	-0.109364636
50	0x3e077ca9	0.13231148
51	0x3dcc3f4c	0.099730104
52	0x3d2a253c	0.041539416
53	0xbd4198fa	-0.04726503
54	0xbd32b87a	-0.04363296
55	0x3dd990d6	0.106233284
56	0x3dc8ace8	0.09798604
57	0xbe042768	-0.12905657
58	0xbda01c0e	-0.07817851
59	0xbc7cfb70	-0.015440807
60	0xbc55af70	-0.013042316
61	0xb9b72a00	-0.00034935772
62	0xbddcb0cf	-0.10775911
63	0xbdf456db	-0.11930629
64	0x3deb33ea	0.11484511
65	0x3c909c58	0.017652676
66	0x3dcd48de	0.10023664
67	0x3dcf8340	0.10132456
68	0xbdc3529c	-0.09537241
69	0x3bba8a00	0.0056927204
70	0xbd808194	-0.06274715
71	0xbdf3dadf	-0.11906981
72	0xbdafb070	-0.08578575
73	0xbded3595	-0.115824856
74	0x3dbfaf82	0.09359647
75	0x3c6413a0	0.013920695
76	0x3d7d00d8	0.061768383
77	0xbc40a760	-0.011758655
78	0xbdfb49d4	-0.12269941
79	0xbd99a102	-0.07501413
80	0xbe10c89e	-0.1413903
81	0xbe0ea792	-0.1393111
82	0xbca94db0	-0.020666927
83	0xbcb2b864	-0.02181644
84	0xbd372e4c	-0.044721887
85	0x3ddf0f3e	0.10891579
86	0x3c9c8630	0.019106954
87	0x3e0c883f	0.13723849
88	0xbd22de7c	-0.03976296
89	0x3daee29c	0.08539316
90	0x3bf40e40	0.007447988
91	0x3e0ebd89	0.1393949
92	0xbd8aab43	-0.06770947
93	0x3ddf9ce2	0.10918595
94	0x3c9ef1c8	0.0194024
95	0x3e066113	0.13122968
96	0xbd71fc7a	-0.05907867
97	0x3d8bfd5a	0.06835432
98	0xbc907ae4	-0.017636724
99	0x3dd4b7c2	0.103866115
100	0xbd170f40	-0.036879778
101	0x3dbfd260	0.09366298
102	0xbd9ab57f	-0.07554149
103	0xbdc7a38d	-0.09747992
104	0xbc584490	-0.01319994
105	0xbd12c3f2	-0.0358314
106	0xbe0beb7f	-0.13664053
107	0x3e006667	0.12539063
108	0x3db5220c	0.088443846
109	0xbd63d3cc	-0.055621907
110	0xbdf48de5	-0.11941127
111	0x3df97952	0.12181343
112	0xbccd8824	-0.025089331
113	0x3d851f08	0.06500059
114	0xbdc14045	-0.094360866
115	0xbdb04195	-0.08606259
116	0xbddcf504	-0.107889205
117	0x3d319f8c	0.043365046
118	0x3d92cdc6	0.071681544
119	0x3b858f40	0.0040759146
120	0xbda961ba	-0.08270593
121	0x3d550fb4	0.05201693
122	0xbd46db40	-0.048548937
123	0xbdadf210	-0.084934354
124	0xbdd3b9fe	-0.103382096
125	0xbd10ae60	-0.035322547
126	0x3dde4056	0.10852115
127	0x3d8d4d50	0.06899512
128	0x3d8c461a	0.06849308
129	0x3dda5486	0.10660653
130	0xbdc67d70	-0.09691894
131	0x3dd9be0c	0.10631952
132	0x3c8b0ff8	0.016975388
133	0xbaf53800	-0.0018708706
134	0xbdb17bbc	-0.086661786
135	0xbdd1c404	-0.10242465
136	0xbc0995b0	-0.008397505
137	0x3da8085a	0.08204718
138	0x3e0f38d3	0.1398652
139	0x3d9f6b3a	0.07784124
140	0xbd84f29b	-0.06491586
141	0xbd2c8cfa	-0.042126633
142	0xbdee3ea8	-0.116330445
143	0xbe071386	-0.13191041
144	0x3d1868e8	0.03720942
145	0x3c992240	0.01869309
146	0xbc595630	-0.013265178
147	0xbda8add4	-0.0823628
148	0x3dea27ba	0.114333585
149	0xbd4a02f6	-0.04931923
150	0x3dcad6d4	0.099042565
151	0xbdb15524	-0.086588174
152	0xbdaa042f	-0.08301579
153	0xbe06e330	-0.13172603
154	0xbd8c7db9	-0.06859917
155	0xbd5fb6ea	-0.0546178
156	0xbb468940	-0.003029421
157	0x3d2e5e14	0.04257019
158	0xbdf2eb98	-0.11861342
159	0x3cb30408	0.021852508
160	0x3dce5a9a	0.100758746
161	0xbc89282c	-0.016742788
162	0xbe0500c6	-0.12988576
163	0x3e028f23	0.12749915
164	0xbce6bfa0	-0.028167546
165	0xbdc0a127	-0.09405737
166	0x3d7ee58c	0.06223063
167	0x3d48b698	0.04900226
168	0x3dd9ec70	0.106408
169	0xbdc9ce40	-0.09853792
170	0x3d56a75c	0.0524057
171	0x3e0fc0f3	0.14038448
172	0x3e015fe5	0.12634237
173	0x3cbd23f0	0.023088425
174	0x3dd53532	0.10410537
175	0xbc6873e0	-0.014187783
176	0x3c498720	0.012300283
177	0xbe0a336f	-0.13496183
178	0xbdc6871c	-0.09693739
179	0xbd36ab4e	-0.044596963
180	0x3e070243	0.13184457
181	0x3ca35348	0.019937173
182	0x3daf3f68	0.08557016
183	0xbcb7d038	-0.022438154
184	0x3e0e0ebd	0.1387281
185	0x3db7b20a	0.08969505
186	0xbd429f70	-0.047515333
187	0xbd3608da	-0.044442035
188	0x3e0dfaf7	0.13865267
189	0x3dbe9b78	0.09306997
190	0x3dfe5762	0.12419011
191	0xbe0f5c45	-0.14000042
192	0x3b0d4680	0.0021556914
193	0xbd677916	-0.05651196
194	0x3d7a0584	0.061040416
195	0xbde8edf2	-0.113735095
196	0x3c963848	0.018337384
197	0x3dc43bbc	0.09581706
198	0xbdec937f	-0.1155157
199	0x3dc45600	0.09586716

bias_hh_l0 f4 [200]
0	0xbe02900d	-0.12750264
1	0xbdf09273	-0.11746683
2	0xbd5fa00e	-0.054596
3	0x3dd6c710	0.10487187
4	0x3df9cd9e	0.121974215
5	0xbda99bda	-0.082816795
6	0xbde54a68	-0.111958325
7	0xbc40d580	-0.011769652
8	0x3da2477e	0.07923792
9	0xbd7d2600	-0.061803818
10	0xbd1e95da	-0.03871713
11	0x3cf10120	0.029419482
12	0x3c912278	0.017716631
13	0x3d711c74	0.058865026
14	0x3df75f52	0.12078728
15	0x3d278890	0.04090172
16	0x3cd4b708	0.025966182
17	0x3d90029a	0.07031746
18	0xbd804eb2	-0.0626501
19	0x3bf6eb80	0.007535398
20	0x3bf1cc20	0.00737907
21	0x3c36d600	0.01115942
22	0xbdb17d23	-0.08666446
23	0x3db57b6e	0.08861433
24	0xbdc2e88f	-0.09517013
25	0x3db7f0e2	0.089814916
26	0x3d9c8392	0.076422825
27	0xbd793c68	-0.060848624
28	0xbdc41a9f	-0.0957539
29	0x3e017afb	0.1264457
30	0x3dd044c8	0.10169369
31	0xbd432764	-0.047644988
32	0x3ddf3c26	0.10900144
33	0x3d657844	0.056022897
34	0x3d2e918c	0.042619273
35	0xbc938c04	-0.0180111
36	0xbb0e3d80	-0.0021704137
37	0x3e0fab87	0.14030276
38	0x3d8c5b52	0.068533555
39	0xbda6e418	-0.08148974
40	0xbd5ce52c	-0.053929493
41	0xbd1695f2	-0.036764093
42	0x3a8e8480	0.0010873228
43	0x3e101631	0.14070965
44	0x3d9dbc26	0.07701902
45	0xbddd42fe	-0.10803793
46	0x3dbe9b78	0.09306997
47	0x3df863fe	0.12128447
48	0x3d7575fc	0.05992697
49	0x3dc4682c	0.09590182
50	0xbd7c1ac6	-0.06154897
51	0x3d9e5f7c	0.07733056
52	0xbe0f7eb5	-0.14013179
53	0x3d07f770	0.03319496
54	0x3d2a8394	0.04162939
55	0xbc3f58e0	-0.011678904
56	0xbd85a73a	-0.065260366
57	0x3c864598	0.016390607
58	0xbe0d22cd	-0.13782807
59	0x3dde53ea	0.10855849
60	0xbd983f8d	-0.07433996
61	0xbd654d20	-0.055981755
62	0x3d95e94e	0.0731989
63	0x3d9ee6c2	0.07758857
64	0x3d7e14cc	0.062031552
65	0x3dac0fec	0.08401474
66	0x3d57f700	0.052725792
67	0x3d4602a0	0.048342347
68	0x3de92552	0.113840714
69	0x3dadc3c6	0.084846064
70	0x3e0a03fb	0.13478081
71	0x3ded103a	0.115753606
72	0xbcf1954c	-0.029490136
73	0x3d643420	0.055713773
74	0xbdbbfca8	-0.0917905
75	0x3e037c6f	0.12840436
76	0xbc654800	-0.013994217
77	0xbd7ce9c2	-0.061746366
78	0x3d366a8c	0.044535205
79	0x3e057f9d	0.13036962
80	0xbe0146ce	-0.12624666
81	0xbd388d06	-0.045056365
82	0xbd9da71d	-0.0769789
83	0xbbdafa40	-0.006682664
84	0x3cb94418	0.022615477
85	0xbe0a1c58	-0.13487375
86	0x3e0e64bd	0.13905616
87	0x3d8fe124	0.07025364
88	0xbd06720a	-0.0328236
89	0x3dbc5b66	0.0919712
90	0x3d8c48ae	0.068498
91	0x3de8e0f6	0.11371033
92	0x3cb6a598	0.022295758
93	0x3d496528	0.049168736
94	0x3d808f52	0.06277336
95	0xbd1f1daa	-0.03884665
96	0x3dd075d6	0.101787254
97	0x3d992eea	0.07479651
98	0xbcb82dfc	-0.022482865
99	0x3cf85ee0	0.030318677
100	0x3d8ad91e	0.06779693
101	0xbb1d0fc0	-0.0023965687
102	0xbd9cc749	-0.07655198
103	0x3dae82b8	0.085210264
104	0xbdf65e5b	-0.120297156
105	0x3db24c10	0.08705914
106	0xbd9b44b6	-0.07581465
107	0xbd0e0e9c	-0.0346819
108	0xbdd7f2c2	-0.10544349
109	0xbe0d1d73	-0.13780765
110	0x3d602128	0.05471912
111	0x3cdd57d0	0.027019411
112	0x3dda65de	0.10663961
113	0x3ce54198	0.02798538
114	0x3d86c03a	0.06579633
115	0x3e0cfdd9	0.1376871
116	0x3dffb23a	0.12485166
117	0x3d89d7fa	0.067306474
118	0x3cca4f38	0.024695978
119	0x3d70e8ec	0.05881588
120	0xbe040b85	-0.1289502
121	0x3d7f5284	0.062334552
122	0xbe075d2c	-0.13219136
123	0xbd4fa6f6	-0.050696336
124	0xbe0d51e4	-0.1380077
125	0x3e0e70a1	0.13910152
126	0xbe04c408	-0.12965405
127	0xbd5a961e	-0.05336582
128	0x3d92cb58	0.07167691
129	0xbd81e872	-0.063431635
130	0xbdd0a3e4	-0.1018751
131	0x3dd66010	0.10467541
132	0x3d6515f4	0.05592914
133	0xbd9fdbf0	-0.078056216
134	0x3dea0aaa	0.11427815
135	0x3b019200	0.001977086
136	0x3d135054	0.03596528
137	0x3de8e7ae	0.113723144
138	0x3da5d666	0.08097534
139	0x3cc32d98	0.023825452
140	0x3d10a790	0.03531605
141	0x3db18b58	0.08669156
142	0xbdc89960	-0.09794879
143	0x3babeb60	0.0052465647
144	0xbc3d9170	-0.0115703195
145	0x3c8605e8	0.016360238
146	0x3d9f7a8e	0.07787047
147	0xbe0a9fad	-0.13537474
148	0x3d0e2d30	0.034711063
149	0x3da1d8ee	0.07902704
150	0xbd69c93c	-0.057076678
151	0xbccaac74	-0.024740435
152	0x3d927a0e	0.07152186
153	0xbde5634e	-0.112005815
154	0xbdb8a5e1	-0.09016014
155	0x3d332874	0.04373975
156	0x3d1f4458	0.038883537
157	0x3c82ccb0	0.015966743
158	0x3dcbc3e4	0.099494725
159	0xbda68de1	-0.0813253
160	0x3db66a0c	0.089069456
161	0x3dd63da8	0.10460979
162	0xbdc514aa	-0.09623082
163	0x3db37dd8	0.08764237
164	0x3e00b0d7	0.12567459
165	0x3def6f1a	0.11691113
166	0x3d83afe8	0.06430036
167	0xbdc5d059	-0.0965888
168	0xbdb2c654	-0.08729234
169	0xbd02d7c2	-0.031944044
170	0xbd1b78da	-0.03795705
171	0x3e0afd7d	0.1357326
172	0xbe071367	-0.13190995
173	0x3e061497	0.13093792
174	0x3d6fc7dc	0.05854021
175	0xbd96d6c0	-0.07365179
176	0xbdbeadb6	-0.093104765
177	0xbdf7126c	-0.120640606
178	0x3df64b8e	0.1202613
179	0x3d40c83c	0.04706596
180	0xba9b6d80	-0.0011858195
181	0xbc81d5f8	-0.015849099
182	0xbdb4163c	-0.08793303
183	0xbdced39c	-0.10098955
184	0xbdd46216	-0.10370271
185	0xbca91060	-0.020637691
186	0xbdceb199	-0.10092468
187	0xbd838a0e	-0.06422816
188	0x3df91a8e	0.12163268
189	0xbd032cbc	-0.032025084
190	0x3d83c6b4	0.06434384
191	0x3d990ab6	0.07472746
192	0x3dd90002	0.105957046
193	0x3c3e97b0	0.011632845
194	0xbd31ea2e	-0.04343622
195	0x3d1b2ac4	0.03788258
196	0x3df5fb86	0.12010865
197	0xbb84dc00	-0.0040545464
198	0x3c8e0d90	0.017340451
199	0x3d3b44a8	0.045719773

weight_ih_l1 f4 [200, 50]
0	0xbd026252	-0.031832047
1	0xbdb02a4a	-0.08601816
2	0xbb56e0c0	-0.003278777
3	0xbd675314	-0.056475714
4	0x3dd0675c	0.10175964
5	0xbd02ed46	-0.031964563
6	0x3d5d53f4	0.054035142
7	0x3c789b60	0.015173763
8	0xbdf38a4e	-0.11891614
9	0xbdecf3f0	-0.11569965
10	0x3ddcc1ee	0.10779177
11	0x3cf2dd70	0.029646605
12	0x3df6cb76	0.12050526
13	0x3dc1ccea	0.094629124
14	0xbe0a5f44	-0.13512903
15	0x3d80c1d8	0.06286973
16	0xbc8e2724	-0.017352648
17	0xbdf3e5ba	-0.11909051
18	0xbe0e409c	-0.13891834
19	0xbddfc76d	-0.10926709
20	0x3db65ea8	0.08904773
21	0x3d395ef4	0.04525657
22	0xbdfa7f79	-0.12231345
23	0x3df69bea	0.12041457
24	0xbd85ee2b	-0.065395676
25	0x3dcea3ca	0.10089834
26	0x3dc129b0	0.094317794
27	0xbc95f6d8	-0.01830618
28	0x3c5fe540	0.013665497
29	0xbdd902c8	-0.105962336
30	0x3d8751c6	0.06607394
31	0xbcffca54	-0.031224407
32	0xbe04d95e	-0.12973544
33	0xbcb51870	-0.02210638
34	0x3e0869b1	0.13321568
35	0x3de20176	0.11035435
36	0xbe059d67	-0.13048325
37	0xbd5c1cd8	-0.053738445
38	0xbdcbf7b2	-0.099593535
39	0xbdb365da	-0.08759661
40	0x3df0adca	0.11751898
41	0x3d243e64	0.040098563
42	0xbdac057e	-0.08399485
43	0x3d955ff8	0.07293695
44	0xbc9f6c0c	-0.0194607
45	0xbd954b4f	-0.072897546
46	0xbde1e49a	-0.110299304
47	0xbd7caa70	-0.06168598
48	0xbdc022a0	-0.09381604
49	0x3d2815b8	0.041036338
50	0xbd86525b	-0.06558677
51	0x3d214a28	0.03937736
52	0xbddd6fe6	-0.108123586
53	0xbdcb7802	-0.09934999
54	0xbd1be540	-0.038060427
55	0xbcd8c730	-0.026462168
56	0x3e00fab7	0.1259564
57	0x3d8144d0	0.06311953
58	0x3deff616	0.11716859
59	0xbe0b1a49	-0.13584246
60	0xbdfb4cb4	-0.12270489
61	0x3e056c05	0.13029487
62	0x3d15c1d8	0.036561817
63	0x3de2fcc2	0.11083366
64	0x3e068ac9	0.1313888
65	0xba8e9000	-0.0010876656
66	0xbd6dbe46	-0.058042787
67	0x3e00837f	0.12550162
68	0x3df58d92	0.11989893
69	0xbdefd8cc	-0.117112726
70	0x3dcf2ec2	0.1011634
71	0xbe089fc1	-0.13342191
72	0x3db5862e	0.08863483
73	0x3d160de0	0.036634326
74	0xbcba4714	-0.02273897
75	0xbc7d0050	-0.015441969
76	0x3daf832a	0.085699394
77	0xbccd9648	-0.025096074
78	0xbd5f1752	-0.0544656
79	0x3d42489c	0.047432527
80	0x3e0c2e53	0.13689546
81	0xbe0789ff	-0.13236235
82	0xbe00f850	-0.12594724
83	0x3da03830	0.07823217
84	0x3e0a7dff	0.13524626
85	0xbdccca5c	-0.099995345
86	0xbdf2755e	-0.11838792
87	0xbc478450	-0.012177542
88	0xbd332a92	-0.04374177
89	0xbe0cabf9	-0.13737477
90	0x3dc05ae6	0.093923375
91	0xbd0497ec	-0.032371446
92	0x3e09d9f7	0.13462053
93	0x3e02a059	0.1275648
94	0xbdb71211	-0.08938993
95	0x3df579ee	0.11986147
96	0xbda762dc	-0.08173153
97	0x3d5fb5f0	0.05461687
98	0xbd785d54	-0.06063588
99	0xbdeee553	-0.11664834
100	0xbbe73520	-0.0070558935
101	0x3dcc9ff2	0.09991445
102	0xbd97bb45	-0.07408766
103	0x3bbb5940	0.0057174265
104	0x3dbddc2a	0.092705086
105	0xbce3fbdc	-0.027830057
106	0x3da50884	0.08058265
107	0xbcb14604	-0.021639831
108	0xbdb56620	-0.088573694
109	0x3d571b7c	0.052516446
110	0xbe0c884a	-0.13723865
111	0xbb858ee0	-0.00407587
112	0xbded0932	-0.115740195
113	0x3d6d7b04	0.057978645
114	0xbe0fc1ea	-0.14038816
115	0xbdc8bf88	-0.09802157
116	0x3d93ca8e	0.072163686
117	0x3ddd94fa	0.10819431
118	0x3d46fbbc	0.048579916
119	0xbd533b14	-0.051570013
120	0x3de07f3a	0.109617665
121	0xbe0b3236	-0.13593373
122	0x3d964430	0.073372245
123	0x3d86638e	0.06561957
124	0x3dbe3a70	0.0928849
125	0x3dab5f44	0.0836778
126	0x3bd57320	0.006513968
127	0x3dbf3280	0.09335804
128	0x3d2b5108	0.041825324
129	0x3b41d2c0	0.002957508
130	0x3d8a7e9a	0.067624286
131	0x3da2c1a2	0.07947089
132	0x3db986d0	0.090589166
133	0x3dbfbd4c	0.093622774
134	0xbda2d8a4	-0.07951477
135	0x3d8f1c7e	0.06987856
136	0xbdf73ff6	-0.120727465
137	0x3de04e76	0.10952465
138	0xbda6a51e	-0.08136962
139	0xbd52bba8	-0.051448494
140	0x3d4e28d8	0.05033192
141	0x3d6e06dc	0.05811201
142	0x3dfe945e	0.124306425
143	0x3ded0d0a	0.11574753
144	0xbda3a22c	-0.07989916
145	0xbdef29d3	-0.11677899
146	0xbdc30c06	-0.09523778
147	0xbd958fa9	-0.073027916
148	0xbdf53536	-0.1197304
149	0x3d24bdf0	0.0402202
150	0xbd8a66e3	-0.06757905
151	0x3dfdb622	0.12388255
152	0xbdc58fb1	-0.096465476
153	0x3dc2c946	0.09511046
154	0xbd845e4f	-0.064633004
155	0x3e030b7d	0.12797351
156	0x3de72656	0.11286609
157	0xbd9ebc26	-0.0775073
158	0xbd428314	-0.047488287
159	0x3d841124	0.06448582
160	0xbd3158e0	-0.04329765
161	0x3de0749e	0.10959743
162	0xbd90240f	-0.07038128
163	0x3c13aca0	0.009013325
164	0x3d2c6b1c	0.042094335
165	0x3d2adda4	0.04171528
166	0x3c391c60	0.011298269
167	0xbe04f83e	-0.12985322
168	0x3df6c65a	0.12049551
169	0xbceffe5c	-0.029296093
170	0xbcc0ac7c	-0.023519747
171	0x3d24f564	0.040273085
172	0x3dc8bcee	0.098016605
173	0x3c1d91a0	0.009617239
174	0xbd776100	-0.06039524
175	0x3da7a718	0.081861675
176	0x3d193b20	0.0374099
177	0x3b497b80	0.0030743778
178	0x3e022271	0.12708451
179	0xbd77d750	-0.060508072
180	0x3df1f0da	0.11813517
181	0x3d930972	0.07179536
182	0x3bb34560	0.0054709166
183	0x3c0ef570	0.008725509
184	0xbce0e7ac	-0.02745422
185	0xba15db00	-0.00057165325
186	0xbcc49cf4	-0.024000622
187	0xbdb78b2e	-0.08962093
188	0xbd87e287	-0.066350035
189	0xbe0460d3	-0.1292756
190	0xbdc8ac4a	-0.097984865
191	0x3d946814	0.07246414
192	0x3da1f848	0.07908684
193	0xbdc8bd0a	-0.09801681
194	0xbd6613c0	-0.05617118
195	0xbafc6480	-0.0019256026
196	0xbe05a3b5	-0.1305073
197	0xbd85e1d9	-0.06537218
198	0x3d77415c	0.060365066
199	0x3cbf5ee8	0.023360685
200	0xbdf25fab	-0.118346535
201	0x3e0e181b	0.13876383
202	0xbe063316	-0.13105425
203	0xbe0b1f86	-0.13586244
204	0x3e02d547	0.12776671
205	0x3df47bce	0.11937676
206	0xbc576cd0	-0.0131485015
207	0xbe107047	-0.1410533
208	0x3c899848	0.016796246
209	0xbc1d7d90	-0.009612456
210	0x3c1e3040	0.009655058
211	0xbcced428	-0.025247648
212	0x3d1baf84	0.03800918
213	0x3dd6a3ac	0.10480437
214	0x3e0954b9	0.13411225
215	0xbdc65d71	-0.09685791
216	0xbdf6e4c2	-0.12055351
217	0x3ddcd076	0.10781948
218	0xbdf17a12	-0.11790861
219	0xbdd03700	-0.101667404
220	0x3be20980	0.006898105
221	0x3d5ed48c	0.05440192
222	0x3d14838c	0.036258265
223	0xbd734dce	-0.059400372
224	0x3c62b290	0.013836518
225	0x3d9bc618	0.07606143
226	0x3db6836a	0.08911784
227	0xbd2a3478	-0.041553944
228	0x3ded6e2a	0.11593278
229	0xbb6e3040	-0.0036344677
230	0xbc986cac	-0.018606506
231	0x3d4bc608	0.049749404
232	0xbdd60a26	-0.104511544
233	0x3da30e1c	0.079616755
234	0xbd4f5062	-0.05061377
235	0xbb943520	-0.0045229346
236	0xbcb7da10	-0.022442847
237	0xbc29b400	-0.010357857
238	0x3e0b0569	0.13576283
239	0x3df3ad56	0.118982956
240	0x3da4e616	0.08051698
241	0x3da48f62	0.080351606
242	0x3da4dab0	0.08049524
243	0xbdd49a9a	-0.103810504
244	0xbdd57122	-0.10421969
245	0xbd40c41a	-0.047062017
246	0xbdafe664	-0.085888654
247	0x3d753b58	0.059871048
248	0xbdfc1c5c	-0.123100966
249	0xbceac580	-0.028658628
250	0xbb188d80	-0.00232777
251	0xbe0a32e9	-0.13495983
252	0x3cd345b8	0.02579008
253	0x3dbfe01e	0.09368919
254	0x3d0fe384	0.035129085
255	0x3d42fab8	0.047602385

weight_hh_l1 f4 [200, 50]
0	0xbdb1d007	-0.08682256
1	0xbd70ff52	-0.058837242
2	0xbe023c77	-0.12718378
3	0xbdbe2208	-0.09283835
4	0x3d981c7e	0.074273095
5	0xbc6e3660	-0.014539331
6	0xbd8d4560	-0.06897998
7	0xbdbd67f8	-0.09248346
8	0x3dbc2696	0.09187047
9	0x3de225c2	0.11042358
10	0x3cbb81e8	0.022889093
11	0xbdb4ad82	-0.088221565
12	0xbd850058	-0.06494206
13	0x3d6fc33c	0.0585358
14	0xbc5ab470	-0.013348684
15	0x3d74b42c	0.059742138
16	0xbda4b945	-0.0804315
17	0xbd4cbb14	-0.0499831
18	0xbde9493e	-0.11390923
19	0xbdedb544	-0.11606839
20	0x3d4699b0	0.04848641
21	0x3d92b086	0.071625754
22	0x3de537b2	0.11192264
23	0x3d33b5d0	0.04387456
24	0xbe00dacd	-0.12583466
25	0x3c48d660	0.012258142
26	0xbd45906e	-0.048233442
27	0xbd977cbc	-0.07396838
28	0x3d0172fc	0.0316038
29	0x3d5175e8	0.051137835
30	0xbd6b2382	-0.05740691
31	0x3d8da1b0	0.06915605
32	0xbe02c9ec	-0.1277234
33	0x3ddd5afe	0.10808371
34	0x3d82cff6	0.06387322
35	0x3cfb42a8	0.030671433
36	0x3d7db4c4	0.06193997
37	0xbd256b44	-0.0403855
38	0xbd271620	-0.040792584
39	0x3d40f19c	0.047105417
40	0x3d97c8d2	0.0741135
41	0x3dc4ef44	0.09615949
42	0x3e107d0f	0.14110206
43	0x3b77d8c0	0.0037818402
44	0xbcda6d18	-0.026663348
45	0xbd14315c	-0.036179885
46	0x3e081435	0.13288958
47	0x3d398808	0.045295745
48	0xbdf33525	-0.11875371
49	0xbb6cb200	-0.0036116838
50	0xbe07d753	-0.13265733
51	0xbdbbc608	-0.09168631
52	0xbd159d14	-0.036526754
53	0x3df6e4ee	0.120553836
54	0x3dcaff50	0.09911978
55	0x3d63d7ac	0.055625603
56	0xbbebec00	-0.0071997643
57	0x3e0868c5	0.13321216
58	0xbde061cc	-0.10956153
59	0x3d1ce7e8	0.0383071
60	0x3df388d6	0.11891334
61	0xbd755a60	-0.05990064
62	0x3d92db4a	0.07170732
63	0xbdfce8ee	-0.12349115
64	0x3dc77216	0.09738557
65	0xbd6d505a	-0.057937957
66	0xbd97916f	-0.07400786
67	0x3cfe8230	0.031067938
68	0xbc9ca57c	-0.019121878
69	0x3ca608c8	0.02026786
70	0x3cf6d930	0.03013286
71	0xbdf1d9bc	-0.11809108
72	0x3d84df8a	0.06487949
73	0xbd67d90c	-0.056603476
74	0x3d1950a4	0.03743042
75	0xbd8f20e3	-0.069886945
76	0x3d638370	0.05554527
77	0x3c4ea000	0.012611389
78	0x3d853dda	0.06505938
79	0x3ddf70c6	0.10910182
80	0xbda04675	-0.078259386
81	0x3c0a1da0	0.008429915
82	0x3d531d58	0.051541656
83	0x3d0a2ca0	0.033733964
84	0xbdcb9aa1	-0.099416025
85	0xbdad5ddc	-0.08465168
86	0xbcb2161c	-0.021739058
87	0xbe09595e	-0.13412997
88	0xbd762e02	-0.06010247
89	0x3de3d222	0.11124064
90	0xbca89800	-0.020580292
91	0x3d7f93ec	0.06239693
92	0x3e0d3237	0.13788687
93	0xbd87f15c	-0.066378325
94	0x3e05a119	0.13049735
95	0xbdb208c2	-0.08693077
96	0x3db0bf26	0.08630209
97	0xbd2d0aa6	-0.042246483
98	0x3dbeb02c	0.09310946
99	0xbd8ffeb0	-0.07031
100	0xbddef080	-0.108857155
101	0x3d45f320	0.048327565
102	0xbdc6f150	-0.097139955
103	0x3d30f38c	0.043201014
104	0x3dd4c9f4	0.10390082
105	0xbdc9cd92	-0.098536626
106	0xbdd060df	-0.10174727
107	0x3d1439d0	0.036187947
108	0x3c6438c0	0.013929546
109	0x3de7da72	0.11320962
110	0x3df50586	0.11963944
111	0x3d72a540	0.059239626
112	0x3df5ee86	0.12008385
113	0xbd9338a7	-0.0718854
114	0xbd620632	-0.05518169
115	0x3d74ca98	0.05976352
116	0x3d490c40	0.049083948
117	0x3dddffc4	0.10839799
118	0xbde27163	-0.11056783
119	0x3d09083c	0.03345512
120	0xbdd10e10	-0.1020776
121	0x3d2e31b4	0.04252787
122	0xbde02b30	-0.10945737
123	0x3dc64338	0.0968079
124	0xbc887750	-0.016658455
125	0x3d399e00	0.045316696
126	0x3d8830ee	0.066499576
127	0xbdc04149	-0.09387452
128	0x3df3f4f6	0.11911957
129	0x3db0741a	0.086158946
130	0x3d05b834	0.032646373
131	0x3de2731a	0.1105711
132	0xbdac0995	-0.08400265
133	0xbb136380	-0.0022489727
134	0x3d8c4a7a	0.06850143
135	0xbe0c19c3	-0.13681702
136	0xbd94bfec	-0.07263169
137	0x3df9faee	0.12206064
138	0x3df4c542	0.119516864
139	0xbcfe6ae8	-0.031056836
140	0x3be0eb00	0.0068639517
141	0xbd82d99f	-0.06389164
142	0xbc92676c	-0.017871581
143	0xbc415720	-0.011800557
144	0xbb7759c0	-0.0037742704
145	0x3bf003c0	0.007324666
146	0x3c48f710	0.012265936
147	0x3d1218a4	0.03566803
148	0x3d9ec7de	0.077529654
149	0x3da46848	0.080277026
150	0x3d5e66b0	0.05429715
151	0x3d143d4c	0.03619127
152	0xbd846ff3	-0.06466665
153	0x3ddc79ea	0.10765441
154	0xbd70f35a	-0.058825828
155	0xbe026003	-0.12731938
156	0xbce6e648	-0.028185979
157	0xbde5be8a	-0.11217983
158	0xbe062787	-0.13101016
159	0xbde17396	-0.110083744
160	0x3d1faaf4	0.038981393
161	0xbddb1416	-0.106971905
162	0x3d672334	0.056430057
163	0x3da34278	0.07971662
164	0x3e08bc49	0.13353075
165	0xbd9fd94a	-0.078051165
166	0x3d93e7cc	0.07221946
167	0xbd77fb46	-0.060542367
168	0xbdf12f8f	-0.11776649
169	0xbe0aec07	-0.135666
170	0x3dd7bb2e	0.105337486
171	0x3dc83562	0.09775807
172	0x3cafe700	0.021472454
173	0xbc114de0	-0.0088686645
174	0x3d90474a	0.07044847
175	0x3c8d4290	0.017243654
176	0xbd81f920	-0.06346345
177	0xbdfe769f	-0.12424969
178	0x3dee555a	0.11637373
179	0x3dd3b45e	0.10337137
180	0xbd13f99a	-0.03612671
181	0x3d8fc1c8	0.07019383
182	0x3e06d001	0.13165285
183	0xbc4a66e0	-0.012353629
184	0x3dd9b366	0.10629921
185	0xbde7be16	-0.11315553
186	0xbdc8c96a	-0.09804042
187	0x3dd510ee	0.1040362
188	0xbd0c224e	-0.034212403
189	0x3d98fb74	0.07469836
190	0xbded407d	-0.11584566
191	0x3d8565ce	0.06513558
192	0xba9a2c00	-0.0011762381
193	0x3dc1decc	0.09466323
194	0xbc3a1560	-0.011357635
195	0x3de305e2	0.110851064
196	0x3dbe475a	0.09290953
197	0x3dde3cd6	0.10851447
198	0xbb1d13c0	-0.002396807
199	0x3df2a56e	0.118479595
200	0xbdafba56	-0.08580463
201	0x3d809e52	0.06280197
202	0xbdd16563	-0.10224416
203	0x3d377bbc	0.044795737
204	0x3dce5f2e	0.10076748
205	0xbdd943f6	-0.10608666
206	0x3e0e99dd	0.13925882
207	0xbe073e26	-0.13207301
208	0x3df68a22	0.120380655
209	0xbd178cbe	-0.036999457
210	0x3e0bd49b	0.13655321
211	0x3d4beb90	0.049785197
212	0x3c1e7ab0	0.009672806
213	0x3db98cb2	0.090600386
214	0x3d94a1dc	0.07257435
215	0xbdeb747d	-0.11496828
216	0x3df12bb2	0.11775912
217	0x3ca711c0	0.020394206
218	0xbd89b9f9	-0.067249246
219	0x3cbf51a0	0.023354352
220	0xbd485f54	-0.048919037
221	0xbe0254c7	-0.12727652
222	0xbd120df0	-0.035657823
223	0x3e02b06b	0.1276261
224	0x3e0e0b4b	0.13871495
225	0xbd5918f4	-0.053002313
226	0xbcfe2d98	-0.0310276
227	0xbcb24488	-0.021761194
228	0xbdf2d1ae	-0.118563995
229	0x3d2789d4	0.040902928
230	0x3cf16448	0.029466763
231	0x3e0d97f3	0.13827495
232	0xbc881c10	-0.016614944
233	0x3d2db5c8	0.04240969
234	0xbd3e6ff0	-0.04649347
235	0x3c0f7fa0	0.0087584555
236	0xbe0c7d89	-0.13719763
237	0x3d3fc24c	0.046816155
238	0x3dc5a2a2	0.0965016
239	0xbd2bec66	-0.041973494
240	0x3dfce952	0.1234919
241	0x3d3347ec	0.043769762
242	0xbd06bd92	-0.032895632
243	0x3e0688a7	0.13138066
244	0x3dc9514a	0.09829958
245	0x3c89a768	0.016803458
246	0xbdc4d352	-0.09610619
247	0x3d14fdf4	0.036375
248	0xbdb470c7	-0.08810573
249	0xbe0f2547	-0.13979064
250	0xbc8243b8	-0.015901431
251	0xbe1017e9	-0.14071621
252	0x3de8828e	0.11353026
253	0xbd844243	-0.06457951
254	0xbd4d57c6	-0.050132535
255	0xbd53f668	-0.051748663

bias_ih_l1 f4 [200]
0	0xbd9349df	-0.07191824
1	0x3d4bc650	0.049749672
2	0xbbc8f2e0	-0.0061324686
3	0x3e0f8e8f	0.14019226
4	0xbd99fe78	-0.07519239
5	0x3dc80a74	0.09767619
6	0x3ad07300	0.0015903413
7	0xbd94a2d7	-0.07257622
8	0xbdec9949	-0.11552674
9	0x3d54da40	0.051965952
10	0xbd7c29c2	-0.06156326
11	0x3d0ecdcc	0.034864232
12	0x3de0ab36	0.10970156
13	0x3d9d0ea4	0.07668808
14	0x3c8e0700	0.017337322
15	0xbdf54c66	-0.119774625
16	0x3d850f56	0.06497066
17	0xbb83a4e0	-0.0040174574
18	0x3d329434	0.04359837
19	0xbddbf57d	-0.107401825
20	0xbe0abf6f	-0.13549589
21	0xbd34eeb2	-0.04417295
22	0x3c349470	0.011021718
23	0x3e0bc37b	0.13648789
24	0x3d474878	0.048653096
25	0xbdfcfe5c	-0.12353203
26	0x3b4dc200	0.003139615
27	0x3d60ae9c	0.05485402
28	0xbcbc6550	-0.022997528
29	0x3ba3a020	0.0049934536
30	0xbd5a1a56	-0.053247772
31	0x3c5c27d0	0.013437226
32	0x3d8113ea	0.063026264
33	0x3d311da8	0.043241173
34	0x3cba4568	0.022738174
35	0x3c64c060	0.013961881
36	0x3dc9498e	0.098284826
37	0x3d6a7774	0.057242826
38	0x3d7e6374	0.062106565
39	0xbcfa24e8	-0.030535176
40	0x3db55c68	0.08855516
41	0x3df83b5e	0.121206984
42	0xbe0fdc6c	-0.14048928
43	0x3dba57bc	0.09098765
44	0x3d909572	0.070597544
45	0x3e05607b	0.13025086
46	0x3de5037e	0.11182307
47	0x3dad9c3e	0.084770665
48	0xbd1ee4da	-0.03879247
49	0xbdb63c0b	-0.08898171
50	0x3d590b98	0.052989572
51	0x3cce4610	0.025179893
52	0xbcf779cc	-0.030209444
53	0xbd361a04	-0.044458404
54	0x3ced28f0	0.028950185
55	0xbde0c4a4	-0.10975006
56	0xbdbb56b2	-0.09147395
57	0x3d9d7ac0	0.07689428
58	0xbdd17548	-0.10227448
59	0x3dd71466	0.105019376
60	0x3d09715c	0.033555374
61	0x3e0b5a23	0.13608603
62	0xbce85d64	-0.028364845
63	0xbdd980d1	-0.10620273
64	0xbcf7d970	-0.03025505
65	0xbc826250	-0.01591602
66	0xbe10afa0	-0.14129496
67	0x3dcb2a60	0.09920192
68	0xbcb71960	-0.022350967
69	0xbd6db87a	-0.05803726
70	0xbda483e2	-0.08032967
71	0xbd6bb58c	-0.057546183
72	0xbc752000	-0.014961243
73	0xbce18fd4	-0.027534403
74	0xbe0dce17	-0.13848148
75	0xbd8d996a	-0.06914027
76	0xbd414092	-0.04718072
77	0xbe0b4d7e	-0.1360378
78	0x3d3191fc	0.043352112
79	0x3c630e90	0.013858452
80	0x3d8f66e6	0.07002048
81	0x3e0bbe03	0.13646702
82	0x3d60ba54	0.054865196
83	0xbdb9b98e	-0.09068595
84	0xbdb0d5da	-0.08634539
85	0xbdf67b67	-0.12035256
86	0xbdae5093	-0.08511462
87	0x3de6de66	0.11272888
88	0x3cc5e478	0.024156794
89	0x3ac5db00	0.0015095174
90	0x3dec487e	0.11537264
91	0xbc5c3560	-0.01344046
92	0xbd606eac	-0.054793045
93	0x3d515670	0.051107824
94	0xbceca23c	-0.028885953
95	0x3d98dd10	0.07464039
96	0x3da1f804	0.07908633
97	0xbdafd426	-0.08585386
98	0xbdc00110	-0.09375203
99	0xbdeb2f83	-0.114836715
100	0x3d980dfc	0.07424542
101	0xbd45c5e8	-0.04828444
102	0xbe00b18c	-0.12567729
103	0xbe0247ca	-0.12722698
104	0xbdd560dc	-0.10418865
105	0x3dfeea3a	0.12447019
106	0xbe096e01	-0.1342087
107	0xbdb00a0a	-0.08595665
108	0x3d08a2b4	0.03335829
109	0x3d82604e	0.06366025
110	0xbce335b0	-0.027735561
111	0xbb2b45c0	-0.0026134104
112	0x3da1cb0e	0.07900058
113	0x3e0d0eb3	0.13775139
114	0x3d66f9dc	0.05639063
115	0xbd74825e	-0.05969464
116	0xbdaec984	-0.0853453
117	0xbdeab986	-0.11461167
118	0x3e0b2103	0.13586812
119	0x3da9b1a6	0.08285837
120	0xbde53d1a	-0.11193295
121	0x3d4c2918	0.049843878
122	0x3e0135f7	0.12618242
123	0xbd68fd80	-0.05688238
124	0xbdec5d30	-0.115412116
125	0xbcac5440	-0.021036267
126	0x3d194f50	0.037429154
127	0x3da009ce	0.0781437
128	0xbe022e61	-0.12713005
129	0xbd03c308	-0.03216842
130	0x3e02e119	0.1278118
131	0xbc4fff30	-0.012695119
132	0x3d528130	0.051392734
133	0x3dbdc54e	0.092661485
134	0xbcb92570	-0.02260086
135	0xbd94e9a4	-0.07271126
136	0x3dea49da	0.11439867
137	0xbdb3106d	-0.08743367
138	0x3e0ba403	0.13636784
139	0xbd94f4f4	-0.072732836
140	0xbdcb72df	-0.09934019
141	0xbdf5e101	-0.12005807
142	0xbd895e52	-0.06707443
143	0x3d740030	0.05957049
144	0x3d32aa34	0.04361935
145	0xbdbe83c2	-0.093024746
146	0x3d14ea60	0.03635633
147	0xbe02a164	-0.12756878
148	0xbb087500	-0.002082169
149	0xbd94023d	-0.072269894
150	0xbd19025c	-0.037355766
151	0xbd88cf49	-0.066801615
152	0xbd5267d4	-0.05136855
153	0x3de29aee	0.11064707
154	0x3d81b2f4	0.06332961
155	0x3d3bf894	0.04589136
156	0xbdc19ea0	-0.094540834
157	0xbd9365f1	-0.07197178
158	0x3e06f823	0.13180594
159	0xbde0ad65	-0.109705724
160	0x3d90d3ac	0.07071623
161	0xbdc37036	-0.09542887
162	0x3e0bfe49	0.13671221
163	0xbd1e0cac	-0.038586304
164	0xbbc66420	-0.0060544163
165	0x3cf801e0	0.030274332
166	0xbd907416	-0.07053392
167	0xbd8cc71b	-0.06873914
168	0xbdd32c80	-0.10311222
169	0xbdee67d4	-0.116408974
170	0x3dd56116	0.10418908
171	0x3c8b9440	0.017038465
172	0xbe00c852	-0.12576416
173	0x3dc17630	0.094463706
174	0xbd5649a2	-0.052316315
175	0xbdba47c0	-0.090957165
176	0x3dc92f24	0.098234445
177	0xbe095e8b	-0.13414972
178	0x3d8ae11e	0.06781219
179	0xbe0a195e	-0.1348624
180	0xbde10d38	-0.109888494
181	0x3cbba378	0.022905096
182	0x3d9c6980	0.0763731
183	0x3d7ed5ec	0.06221573
184	0x3df2d01e	0.118561015
185	0xbe02336b	-0.12714927
186	0xbc1c4850	-0.009538725
187	0x3d9caa92	0.07649721
188	0x3df2fb5e	0.11864351
189	0xbd906288	-0.07050043
190	0xbdfba584	-0.12287429
191	0xbdba1d73	-0.09087648
192	0x3c020e30	0.007937953
193	0xbe07f664	-0.13277584
194	0xbde43b75	-0.11144153
195	0xbdd0f098	-0.102021396
196	0x3d2630d0	0.040573895
197	0x3d3e79b8	0.0465028
198	0x3da47acc	0.08031234
199	0xbdd1ce5e	-0.102444395

bias_hh_l1 f4 [200]
0	0xbc2e2f50	-0.010631397
1	0x3e019601	0.12654878
2	0x3dd25b0a	0.102712706
3	0xbd1cc6e4	-0.038275614
4	0x3d18d458	0.03731188
5	0xbe083cec	-0.1330449
6	0xbdd72aad	-0.10506187
7	0x3e0a4ead	0.13506575
8	0xbcce4454	-0.025179066
9	0xbdd15544	-0.10221341
10	0xbd7700b0	-0.06030339
11	0xbe06a086	-0.13147172
12	0x3d5f36fc	0.054495797
13	0x3e0d7b81	0.13816644
14	0xbc722480	-0.01477921
15	0x3d33212c	0.043732807
16	0x3db26fec	0.08712754
17	0xbb17e5c0	-0.0023177713
18	0xbdfb67ea	-0.122756794
19	0x3dde9766	0.10868721
20	0xbcd63c3c	-0.026151769
21	0x3db0e7bc	0.0863795
22	0x3d553a54	0.05205758
23	0x3d5e3464	0.054249182
24	0xbd518858	-0.05115542
25	0xbe04eeb1	-0.12981679
26	0x3d87dfde	0.06634496
27	0xbd2c5458	-0.042072624
28	0x3df7efd6	0.12106292
29	0xbc9ac478	-0.018892512
30	0x3db1139a	0.08646317
31	0xbe049c22	-0.12950185
32	0xbdee029e	-0.11621593
33	0xbd3917b0	-0.045188606
34	0x3d43c1a8	0.047792107
35	0x3dc980be	0.09839009
36	0x3e0e34bd	0.13887306
37	0xbc3e1390	-0.011601344
38	0x3ccdc9a0	0.025120556
39	0x3dcc5bea	0.09978469
40	0x3dc14a36	0.09437983
41	0xbd0658b0	-0.032799423
42	0x3d8b7464	0.06809309
43	0x3d16070c	0.036627814
44	0x3c4782d0	0.012177184
45	0xbd9314e2	-0.071817175
46	0x3e10a12b	0.1412398
47	0xbda9ef62	-0.08297612
48	0x3c897870	0.016781062
49	0x3d2a4fbc	0.041579947
50	0xbd9e99d3	-0.077441834
51	0xbdca6f76	-0.09884541
52	0xbdf74a88	-0.120747626
53	0xbda4b0d2	-0.08041538
54	0xbd1d034a	-0.038333215
55	0xbdb3978c	-0.0876914
56	0x3df00c52	0.117211
57	0x3e0dfd01	0.13866045
58	0xbd871ff0	-0.065978885
59	0x3d63c1b0	0.055604637
60	0xbdb22ebe	-0.087003216
61	0xbdcd6d42	-0.10030605
62	0x3d5c64ec	0.053807184
63	0x3b678940	0.003532961
64	0xbe089056	-0.1333631
65	0x3c346bd0	0.011012033
66	0x3db067b2	0.08613528
67	0xbc4491b0	-0.011997625
68	0xbc858c80	-0.016302347
69	0xbd8a9701	-0.06767083
70	0xbc9ded4c	-0.019278191
71	0xbd452e7c	-0.048140034
72	0xbe0017ee	-0.12509128
73	0xbdb2d9f6	-0.08732979
74	0x3d79d954	0.060998276
75	0x3e0df4e1	0.13862945
76	0xbde060a3	-0.10955932
77	0x3dcfb5e0	0.10142112
78	0x3ddb27a0	0.10700917
79	0x3bcda000	0.006275177
80	0xbdc4774c	-0.095930666
81	0xbd0ab26e	-0.03386157
82	0xbd589302	-0.052874573
83	0xbd8732c6	-0.06601481
84	0x3d8bf18a	0.06833179
85	0xbd0f4324	-0.03497614
86	0xbd0c6b34	-0.034281924
87	0x3c64f130	0.013973519
88	0xbdfd6037	-0.12371867
89	0xbdd34bf5	-0.10317222
90	0x3d9f4544	0.07776883
91	0x3dc303a2	0.09522177
92	0xbda7ce44	-0.08193639
93	0xbd2ba5c6	-0.04190614
94	0xbc5b5830	-0.013387725
95	0x3d9d6bc2	0.07686569
96	0xbd32ad78	-0.043622464
97	0x3dd13bcc	0.102164835
98	0x3d9b3270	0.075779796
99	0x3dc8f3a6	0.09812097
100	0x3d61c590	0.05512005
101	0x3e0b1d73	0.13585453
102	0x3da7a98e	0.08186637
103	0x3d683424	0.05669035
104	0x3de08ffa	0.10964961
105	0xbd8b3d87	-0.06798845
106	0x3bc94260	0.0061419457
107	0x3db96b0c	0.09053621
108	0x3dcfebf2	0.10152425
109	0x3d9018c4	0.07035974
110	0xbd9dce72	-0.07705392
111	0x3d4b2cb0	0.049603164
112	0xbd8ff953	-0.07029977
113	0x3e05ad3d	0.13054366
114	0x3dd7014a	0.10498293
115	0x3b449d40	0.0030000955
116	0x3ddc99c4	0.10771516
117	0xbaa5e100	-0.0012655556
118	0x3e0dfef9	0.13866796
119	0x3d95da7e	0.07317065
120	0xbd7ac142	-0.06121946
121	0xbd50a7ce	-0.05094128
122	0x3dfde3e2	0.12396981
123	0x3df74d9e	0.12075351
124	0xbe02372f	-0.12716363
125	0xbd493610	-0.049123824
126	0x3cbbaf58	0.022910759
127	0xbca068cc	-0.019581221
128	0xbde3e098	-0.11126822
129	0xbc801d98	-0.015639111
130	0x3d1a0af0	0.037608087
131	0xbd818cf4	-0.06325713
132	0x3dcc21c6	0.09967379
133	0xbb8ff9c0	-0.004393786
134	0x3da7a4da	0.0818574
135	0xbcdda570	-0.027056426
136	0x3d41e0c4	0.047333494
137	0x3b7d1dc0	0.0038622469
138	0xbdca3a4a	-0.09874399
139	0xbd0439bc	-0.032281622
140	0xbd8456a1	-0.06461836
141	0xbd157fee	-0.036498956
142	0xbdb495b5	-0.08817617
143	0xbd21ab94	-0.03947027
144	0xbd0e59c6	-0.034753583
145	0x3d3a21d0	0.045442402
146	0xbd92ef83	-0.071745895
147	0xbdba43e8	-0.09094983
148	0x3dd8be22	0.1058314
149	0x3c360ff0	0.011112198
150	0xbd734904	-0.059395805
151	0xbdaf37fe	-0.085556015
152	0x3dbdf572	0.092753306
153	0x3de6f53a	0.11277242
154	0xbde32528	-0.11091071
155	0xbd45cab2	-0.04828901
156	0x3d5e1028	0.054214627
157	0x3be81440	0.007082492
158	0xbd8c7359	-0.06857938
159	0xbd013eda	-0.03155408
160	0x3dec3c6e	0.115349635
161	0xbd1ee06a	-0.038788237
162	0x3baa04a0	0.0051885396
163	0xbd216026	-0.039398335
164	0xbe088f18	-0.13335836
165	0xbd9d481f	-0.07679772
166	0xbdfe318a	-0.124117926
167	0xbd507c32	-0.050899692
168	0x3df4bd36	0.119501516
169	0xbdb78934	-0.08961716
170	0xbd72fe42	-0.05932451
171	0xbd49de96	-0.04928454
172	0xbdeee6f1	-0.11665142
173	0xbdc64906	-0.09681897
174	0x3d2bb850	0.04192382
175	0x39fce600	0.0004823655
176	0xbcb038fc	-0.021511547
177	0x3dd42a94	0.10359684
178	0xb9aafa00	-0.0003261119
179	0xbb4e4780	-0.0031475723
180	0xbdc14f47	-0.09438949
181	0xbd8679c7	-0.06566196
182	0x3c82c580	0.015963316
183	0xbe0179df	-0.12644146
184	0x3d8043c2	0.06262924
185	0xbde5d412	-0.1122209
186	0xbdc9d55b	-0.098551475
187	0xbde943fc	-0.1138992
188	0x3dfa6e1e	0.122280344
189	0xbd77bb74	-0.060481504
190	0x3df17562	0.11789967
191	0xbc996438	-0.018724546
192	0xbd890d1c	-0.066919535
193	0xbd4547c2	-0.048164137
194	0x3d2cdf44	0.04220511
195	0x3dc1667c	0.094433755
196	0xbd29ee8a	-0.041487254
197	0x3dc653f8	0.096839845
198	0x3dc1ea9e	0.09468578
199	0x3991ca00	0.00027807057

weight f4 [1, 50]
0	0x3ba52020	0.00503923
1	0x3e0752ff	0.13215254
2	0xbdab4c6c	-0.08364186
3	0xbdc7c1b8	-0.09753746
4	0x3decadda	0.11556597
5	0xbc27b400	-0.010235786
6	0x3d86d890	0.06584275
7	0xbdadbb1c	-0.08482954
8	0xbe0218fd	-0.12704845
9	0x3cff0fe0	0.0311355
10	0x3dc77ef2	0.0974101
11	0x3dbd9cd6	0.0925843
12	0xbdb2c446	-0.087288424
13	0x3df2f9d2	0.11864056
14	0xbca4e070	-0.020126551
15	0xbdf5fa91	-0.120106824
16	0xbdb71b3e	-0.08940743
17	0xbe0dd5b1	-0.13851048
18	0x3df5bc1a	0.11998768
19	0x3d90407a	0.07043548
20	0x3c9d6b48	0.019216195
21	0xbdc50f0f	-0.09622013
22	0x3dfde192	0.1239654
23	0x3cce69a8	0.025196865
24	0xbdab3957	-0.08360546
25	0x3d17bde8	0.037046343
26	0xbc85acf8	-0.01631783
27	0xbe0477c9	-0.1293632
28	0x3d527dbc	0.05138944
29	0x3dad97f2	0.08476247
30	0x3ddd9a90	0.10820496
31	0xbd2eb228	-0.04265037
32	0x3dbc85b8	0.09205192
33	0x3e101587	0.14070712
34	0xbdc545e8	-0.09632474
35	0x3d8e12d6	0.069371864
36	0x3cf56da8	0.029959515
37	0x3c8bdc10	0.017072707
38	0x3a982980	0.0011609048
39	0x3da18e4e	0.078884706
40	0x3c152030	0.009101912
41	0x3bd5ba20	0.006522432
42	0xbd28833a	-0.041140772
43	0x3badd9c0	0.005305499
44	0xbda52cc6	-0.080651805
45	0x3de02a5a	0.10945578
46	0xbc717e40	-0.014739573
47	0xbdab5654	-0.08366075
48	0xbd0b34a6	-0.033985756
49	0x3dd91e5e	0.10601495

weight f4 [10, 1]
0	0x3f0dc760	0.5538235
1	0xbedb635d	-0.42849246
2	0x3e796fb6	0.2435902
3	0x3e6d17c1	0.23153593
4	0xbf2a0f57	-0.66429657
5	0xbf34fed9	-0.70701367
6	0x3e00a3c7	0.12562476
7	0xbe0d326d	-0.13788767
8	0xbe039f05	-0.1285363
9	0x3ecf0846	0.40436

bias f4 [10]
0	0xbedace14	-0.4273535
1	0x3f0e11f1	0.55496126
2	0xbdefdc69	-0.11711962
3	0xbdd72c59	-0.105065055
4	0x3f4a6fae	0.7907666
5	0x3f555f2f	0.83348364
6	0x3a5dc43b	0.00084597216
7	0x3e875a60	0.26436138
8	0x3e829041	0.25500682
9	0xbe8e4795	-0.27788988
