process/modelo_lstm.pt (torch, 157874 bytes, 12 tensors)

lstm.weight_ih_l0 f4 [200, 10]
00000000: 5b5b f63d 636f 963d f39f 0a3e 192c 993d
00000010: 4aab 13bd 4cc4 ed3d c9e1 9cbd 04d7 03be
00000020: 43ff 343d 4e47 153d b04d c33d 8bfb 57bd
00000030: 8971 f43b c2a2 993d 3c45 d33d f82e 883d
00000040: 436e ecba 57d2 653b ed68 ebbd cc2b a93d
00000050: bff4 763e 49e5 303e 1bbe 6b3e 39f3 313e
00000060: 53f1 55be b734 1cbe d160 6b3b 2e57 283d
00000070: e5d3 1b3e 6504 103d fb88 d53d 35b1 38bc
00000080: f75a 703d 4f13 c33d e582 3b3e 32b0 fa3c
00000090: 949d 0a3b 87d4 113e 64f8 56bc 0dfe 0b3e
000000a0: 3d40 ef3d fc6e ac3d cbad f43d 6ef2 2f3c
000000b0: 1a3c 0dbe 2033 e13d 5b76 e93d c05e 09bc
000000c0: 43c9 cdbd 66ba f73b d612 d83d 3518 463e
000000d0: 264a 6a3e 9211 99bb 20ca 993d 027a a9bd
000000e0: 8b52 23bd cfe1 29be 4820 17be af17 b93d
000000f0: e332 2d3e e5d3 803d 05ce 813d acbd 853d
00000100: 7f66 a3bd 7066 81bd 6eb8 fa3d 367b 8d3c
00000110: 14fb 7f3d 27bb a03d 8666 7c3d 44a2 3fbd
00000120: f707 de3d 48f8 623c 5aa2 733e 8d4d a1bc
00000130: 3d71 2b3c 3ae3 1cbc 9ed1 243d a3ca 1ebd
00000140: e269 cb3b 5303 2d3e b538 223d 1010 15bd
00000150: 233c 2e3d 7491 b43d 1a98 3c3e f842 d53d
00000160: ac2f 94bc 11c1 1cbd 6f72 103e 5574 163e
00000170: 44c2 85bb 2ff9 c03c 74b5 aabd 8662 e93c
00000180: fa3f 133e 006d 0cbe 6ef5 99bd 012d 4abd
00000190: 344c 293e 3dfb a1bd 196d c53d 26af cabd
000001a0: 80c5 6fbb 510b 183e e441 9e3d d229 033e
000001b0: e88f bf3c 1776 25bd 9b42 b93d f9d8 de3d
000001c0: 8ec5 3c3d 807a 96bc 8e70 96bd dc1b c73d
000001d0: 0fd0 2a3e d718 d03d a547 863d f2c7 42bd
000001e0: 929b b43d 9a8e 353d c4ac ba3d 9527 9d3d
000001f0: a4c6 0f3e 3643 833d 6c66 863d c804 3cbd
00000200: e328 953d 27c8 d4bd e4de a23d c637 873c
00000210: 5245 1ebd c55a 023d 1520 35bc b6d8 e93d
00000220: 2351 de3b a0a9 05bd 63b4 893d 79f4 bcbd
00000230: 2b0b c43c 5ea5 163e 62c8 ab3d 6992 803d
00000240: 6024 ae3d c0d8 e1bc 207c 383c 2a22 c4bc
00000250: 89df 453d 3dc6 8abc 3eab 86bb 36e2 e03b
00000260: c4b1 7abd 890e 9a3b e752 4abc 1cfc 223d
00000270: b059 dabc a34b b33d 3cff 1dbd 0df3 ddbd
00000280: 378b 493e 1151 e53d 2dc0 373e c810 443e
00000290: 5b2d 443e 7c8e aabc 19f0 c8bd e578 f93c
000002a0: 457c aa3d 84cd 0b3e e5e9 3e3e ed51 fb3d
000002b0: bc3c f33d c2bc 1d3e 4678 753d e24c 323d
000002c0: f6d8 abbd 94c6 883d 833a fb3d 8667 123d
000002d0: 2d0d 873d 42cd f03c 7c23 3b3d 03f0 c33c
000002e0: dd11 bcbc 1d06 bd3b 44bc 1c3e 8413 563d
000002f0: 33ee 9d3d c3ba 91bd 71f7 243e 52d3 203e
00000300: 46c8 723e c1b2 8d3e 6277 ab3c 9d9c 253d
00000310: 07ec a43d 71d3 703d 857b 203e a5c0 583e
00000320: 9970 4bbd 9a48 7f3d 1106 cabd ca98 09bb
00000330: 16b9 333d 6ffa eebd 2c95 9f3b c45b 74bd
00000340: 8f1f 54ba 93d6 d73d 8ba9 873d a430 d73d
00000350: 5e7b 1d3e 3fc5 ed3c 0801 2b3e 2a39 98bd
00000360: a4cc 1eba 79dc 95bd b185 d1bc 07ef 213b
00000370: 8fa2 0a3d 6bd0 3f3e dc3f 0a3c 4420 3c3e
00000380: c028 bdba 9987 12bd 2ea9 103e 9585 27bd
00000390: b78f b43d 2ebf 713d 8f78 e63d e3dd bebb
000003a0: 3e64 983d f852 a73c 75b4 0b3e a90c 67bd
000003b0: 07fc 883d 2e57 bfbd 227d ac3d 9e29 b7bd
000003c0: 2f66 cf3d 981e 97bd 9981 a3bc ba95 9e3d
000003d0: 3418 80be 82ce 9d3d 69f4 14be 97bb 3ebb
000003e0: bee1 8a3d 4dbf 903d e56a 40bd 40a6 733d
000003f0: d787 873b 9850 ccbb 73ba 5e3e 7142 26bd
0.120291434 0.07345464 0.13537578 0.07479114 -0.036052026 0.11609706 -0.076602526 -0.1287499
0.04418875 0.036444955 0.09536302 -0.052730124 0.0074598235 0.07501747 0.1031594 0.066495836
-0.0018038232 0.0035068 -0.114946224 0.08260307 0.241168 0.17274965 0.23021738 0.17377938
-0.20892839 -0.15254484 0.0035915861 0.041098766 0.1521755 0.03516044 0.104265176 -0.011272718
0.0586805 0.09525167 0.18311651 0.030601595 0.0021151053 0.14241229 -0.013120744 0.13671131
0.11682174 0.08419606 0.11947211 0.010738952 -0.13792458 0.109960794 0.11399528 -0.008384407
-0.10048153 0.007560062 0.10550468 0.19345172 0.22879848 -0.004671284 0.075092554 -0.08275224
-0.03987364 -0.16590045 -0.14758408 0.090377204 0.16913943 0.06290416 0.06338123 0.06530318
-0.07978534 -0.063183665 0.122422084 0.017270666 0.062495306 0.078481965 0.06162121 -0.046785608
0.10841363 0.01385314 0.23792401 -0.0196903 0.01046401 -0.009575659 0.04023897 -0.03876747
0.0062076906 0.168958 0.03960486 -0.03639227 0.04253782 0.088168055 0.18417397 0.10413164
-0.018089138 -0.03827006 0.14106153 0.14692815 -0.004081996 0.02355632 -0.08335391 0.028489362
0.14379874 -0.13713455 -0.07517515 -0.049359325 0.16532975 -0.07909248 0.09639949 -0.09896688
-0.0036586225 0.14848067 0.077274114 0.12808922 0.02338405 -0.040395822 0.09045907 0.10881228
0.04608684 -0.01836896 -0.07345687 0.09722111 0.1668093 0.10160988 0.06556634 -0.047553964
0.08818735 0.04432545 0.09114984 0.07673565 0.14040619 0.06409304 0.06562504 -0.045902997
0.07283189 -0.103897385 0.07952669 0.016506087 -0.038640328 0.031824846 -0.011055012 0.114182875
0.0067845746 -0.03263247 0.06723859 -0.09226317 0.023931107 0.1471152 0.08387829 0.062779255
0.08503032 -0.027569175 0.011260062 -0.023942072 0.048308883 -0.01694023 -0.004109769 0.006862904
-0.061204687 0.0047014398 -0.012348867 0.03979121 -0.026654094 0.08754661 -0.03857349 -0.10837374
0.19682012 0.11197103 0.17944403 0.19147027 0.19157927 -0.020819895 -0.0981142 0.030453155
0.08324484 0.13652617 0.18643911 0.122714855 0.118768185 0.15404037 0.059929155 0.043530352
-0.083909914 0.06678501 0.122670196 0.03574326 0.0659431 0.02939475 0.045688137 0.023918157
-0.022957737 0.005768551 0.15306193 0.052264705 0.077114485 -0.071157 0.16110016 0.15705612
0.23709211 0.2767544 0.02093095 0.04043256 0.08052831 0.058795396 0.15672119 0.21167238
-0.04966793 0.062325098 -0.09864438 -0.002099561 0.043877684 -0.1166886 0.0048700776 -0.059657827
-0.0008091861 0.10538974 0.06624135 0.10507324 0.15379092 0.029024718 0.16699612 -0.07432778
-0.00060577155 -0.073174424 -0.025576444 0.0024709122 0.033846434 0.18731849 0.008438077 0.18371683
-0.00144317 -0.035773847 0.14127037 -0.040898878 0.08816474 0.059020214 0.112534635 -0.005824791
0.07440995 0.020425305 0.13643058 -0.056408558 0.066886954 -0.093428 0.08422305 -0.08943485
0.10126912 -0.07378882 -0.019959258 0.07743402 -0.25018466 0.07705404 -0.1454636 -0.0029103511
0.06781338 0.07067738 -0.046976943 0.05948472 0.0041360664 -0.0062351935 0.21750812 -0.040590707

lstm.weight_hh_l0 f4 [200, 50]
00000000: 7498 babd 9866 0bbd cadd 163e bf84 debd
00000010: 38ad 843c 1177 e2bc 964a 9f3c f98d 093e
00000020: 292c 5b3d 895f ebbd 60d9 23be 20a5 ba3d
00000030: bf68 f5bd db17 c93d 1f0e 163e 857c bf3d
00000040: b830 0d3e 0d40 903d ace7 f7bd e0ac c43d
00000050: 0172 be3c ce2f b23d 35d2 213d 6668 41bb
00000060: 4d58 d8bd a519 cf3d 1cd8 b53c 9294 1a3d
00000070: 8239 2bbe b545 a7bd 4d49 86bd f847 5dbd
00000080: 4dfd 06be bb95 07bd f8b0 d23c 0dc1 b7bd
00000090: 3751 01be eaa8 02be 3bac 8b3d 2963 d83a
000000a0: c221 9abd 7986 54bd 0872 eebd e330 8b3d
000000b0: d873 58bd 995c 3bbd 5a0f 95bc f6d1 0bbe
000000c0: 9c18 b93d e6ab c5bc 6e46 09be ee06 6bbd
000000d0: 4f73 893e 8e19 8b3d ec27 51bc da0f 67bd
000000e0: 71a0 c4bc 5076 cabd 5474 83bc 6469 e83c
000000f0: f66a abbd c4c0 1ebd abc7 8e3d 4e00 bcbc
00000100: 5bd9 a63d eb0a 7e3c 00f5 eb3d a4d3 a73d
00000110: 14b2 77bc 98b7 e73d c57c 033e e83a 733d
00000120: aa9f 12bc 86ff e43d 59a4 f93d eb50 ee3d
00000130: f73b 21be 169b 2abe 36e5 92bc 5b51 11bd
00000140: c55c 1abe effe 573d 282e 403d d81a 8abd
00000150: 52c2 003d 0eda 20be 2fa6 a7bd 7f1b 323c
00000160: e03e a33d 8ec2 04be 4998 1d3c 0da9 babd
00000170: bfda adbd dde1 ab3c 88db e43c 7194 56bc
00000180: 832c 333d 6544 15bd fbde fbbc 27db 18be
00000190: 5cdf a6bd dc06 893c ea4e 7c3d 9b2c 973d
000001a0: 9fd8 8b3d e5bb f23d 2840 9fbc a4e9 7d3d
000001b0: 2a7a 7fbd f6e2 593d 5293 e7bd d12b 263e
000001c0: edb1 21be aa46 8dbc abf1 cd3d d221 a1b9
000001d0: 1f16 38bd ffbf 2a3d 5129 fbbd 792c 2f3e
000001e0: 5edd c43a 2fcf 75bd 6fcf e33b d5b3 543d
000001f0: ef13 23bd 7710 20bc 7150 58bd 3c08 96be
00000200: ccdc 443e 7330 babd ac7a e6bd f3a3 81bd
00000210: cfc9 5d3a e0ae b33d ebf3 373e 0f01 86bd
00000220: 6554 cb3c cae1 04be b5b9 4cbd f847 7dbc
00000230: 6725 e0bb 40bf 153c 1050 633d 094c fcbc
00000240: 92c0 723b 599b 173d ebee 47bd e75c 123e
00000250: 7de7 eebd df18 94bd 1f9a 8c3d 7cb7 bb3d
00000260: 3007 97bc aa3a b0bd 2348 f13d 7d0f 153c
00000270: 149c ebbb 8bdf 033e 9f4e 4ebd 1e6e 0c3b
00000280: 4af0 0d3e 91d0 73ba 5cbb 8dbd d4ed 98bd
00000290: eb84 86bd c119 29bd b5e4 933b c738 4abe
000002a0: 71ff b63c 4831 863d eee1 343b 5670 963d
000002b0: 7f3d 8c3d a9f0 59bd d5e4 6d3d 6661 7e3e
000002c0: 54d6 3ebe 9b43 913d 9136 f73d aaa8 3bbe
000002d0: b7c3 06bd 0b2c a3bd d425 49be fa73 1d3e
000002e0: 794e 9bbc df55 8ebd 8b64 3d3d 0205 713d
000002f0: 91b9 d73d fe77 083e 10fb dd3d 0db8 be3c
00000300: 7c53 e1bd 77b8 983d 4f2d 2b3d 24f6 23be
00000310: 37a9 e1bd 6b89 41bd caab 1dbc 92a0 d7bd
00000320: 0d96 3e3d ab90 5f3c ba11 c93d c5de aabb
00000330: 095b b5bd cfa4 253d 317d e53d 09c2 fb3d
00000340: 45c7 08bc 5b30 96bd fef6 583d cce1 233e
00000350: 686f 103c 51cd ac3c de52 373e 0deb 2e3e
00000360: 561f 893c 15fa a03c 3ac3 4abe ea37 f3bd
00000370: f364 833e 6af9 8d3a d268 8a3b ba3b 723c
00000380: cbc4 a93c cabe 153e 9207 00be 6801 e5bd
00000390: f1e5 e83c d668 cebc 4b16 8dbc 4b91 d5bd
000003a0: a5d3 d6bc ed8d bb3d 2217 06bb 9083 933c
000003b0: 2801 39be 6997 973d c022 37bd 2d22 22bd
000003c0: 37e4 45be 3d07 16be f663 c2bd c83b c23d
000003d0: 0098 b4bd d1ae 0fbe 3fe5 63ba 804f 283e
000003e0: fe36 a0bd 69a5 7b3c b0b5 f33c b8ce 18be
000003f0: 58d7 0f3e 12f5 98bd 4a20 29b9 66f2 9c3d
-0.091111094 -0.034033388 0.14733043 -0.10865163 0.016195878 -0.027644666 0.019444745 0.13433065
0.05350891 -0.11492831 -0.1600089 0.09113526 -0.11982869 0.09819003 0.14653824 0.09349922
0.13788116 0.07043467 -0.12104735 0.09603286 0.02324772 0.08700524 0.03950711 -0.002951169
-0.10563717 0.10112313 0.022197776 0.037739344 -0.16721156 -0.081675924 -0.0655695 -0.054023713
-0.13182564 -0.03310178 0.02571915 -0.089723684 -0.12628637 -0.12759748 0.0681996 0.0016509044
-0.0752597 -0.051886056 -0.116428435 0.06796434 -0.052844852 -0.045742605 -0.018195797 -0.13654312
0.09037897 -0.02412982 -0.13405773 -0.057379656 0.26845786 0.067919835 -0.012765866 -0.0564116
-0.024002286 -0.098858476 -0.01604668 0.028370567 -0.083700106 -0.038758054 0.069716774 -0.022949364
0.08146926 0.015505533 0.115213394 0.08194664 -0.015118141 0.113143146 0.12840565 0.05938235
-0.0089492 0.1118155 0.1218955 0.11636528 -0.15745531 -0.16660723 -0.017931562 -0.035477977
-0.15074451 0.052733358 0.046919018 -0.06743401 0.03143532 -0.15708181 -0.08185994 0.010870813
0.07970977 -0.12964842 0.009618827 -0.09114275 -0.08488988 0.020981723 0.027936712 -0.013096915
0.04374362 -0.03644218 -0.030745974 -0.1492735 -0.08148071 0.016726904 0.061598696 0.07381555
0.068284266 0.11852244 -0.019439772 0.061990395 -0.062372364 0.053194962 -0.11307396 0.16227652
-0.1579053 -0.01724561 0.1005586 -0.0003073351 -0.04494297 0.041687008 -0.1226374 0.17106809
0.0015019586 -0.06001204 0.0069522182 0.051929314 -0.039813932 -0.0097695505 -0.05281109 -0.29303157
0.19224852 -0.09091272 -0.112538666 -0.06330099 0.0008460553 0.08773589 0.17964141 -0.06543171
0.024820516 -0.12976757 -0.04998179 -0.015459053 -0.006840396 0.009139836 0.055496275 -0.030797975
0.003704105 0.037013385 -0.048811834 0.14293252 -0.11665247 -0.07231306 0.06865334 0.09165856
-0.018436044 -0.08604939 0.11781337 0.009097931 -0.007190237 0.12878244 -0.050367948 0.002142794
0.13861194 -0.0009300793 -0.069205016 -0.07467237 -0.06568321 -0.041284326 0.004513348 -0.19748221
0.0223386 0.065523684 0.0027600485 0.07345645 0.06847667 -0.053208027 0.05807956 0.24841842
-0.18636447 0.07092973 0.120709546 -0.18326059 -0.032901492 -0.07967385 -0.19643337 0.15376273
-0.018958317 -0.06949972 0.046238463 0.058842666 0.10533441 0.13327023 0.10838902 0.023281122
-0.110022515 0.07457059 0.041791257 -0.16011864 -0.11018603 -0.047250193 -0.009623477 -0.10528673
0.04652982 0.013645331 0.09817834 -0.0052145445 -0.08855254 0.040440377 0.11205519 0.12292869
-0.008348291 -0.07333442 0.052969925 0.16004103 0.008815624 0.021093996 0.17902705 0.17081852
0.016738575 0.019650498 -0.19801036 -0.11875899 0.25662956 0.0010831777 0.0042239213 0.014784748
0.020723721 0.14623562 -0.12502888 -0.11181909 0.028429957 -0.025196474 -0.017222544 -0.10428103
-0.026223967 0.091579296 -0.0020460566 0.01800707 -0.18066847 0.07401926 -0.044710875 -0.039583374
-0.19325338 -0.14651199 -0.09491722 0.094840586 -0.08818054 -0.14031531 -0.0008693523 0.16436577
-0.07822989 0.015359261 0.029749721 -0.14922607 0.14046991 -0.074686185 -0.00016129125 0.07663421

lstm.bias_ih_l0 f4 [200]
00000000: c1f8 0dbd ca37 3abc a551 f13c 9a0a de3d
00000010: fb30 943c 15a7 cf3c df38 4f3c a22b e8bd
00000020: e35c ffbd bccb e43d 0380 a43d 96a6 323d
00000030: b67c 13be ae74 673d 0024 91bd 593b 353d
00000040: 40c5 d93d aeba 3a3e ee9e 0a3e 2732 7b3e
00000050: dbaf 78bc 4a6c 163d eee2 8a3d b51a b33c
00000060: 7f5a 2dbd 1588 913d 34cd 99bd 812f 233e
00000070: 6a64 d5bd 7b88 51bd be57 1b3e 26d6 a33c
00000080: 679a 073e 075c 08be 0ef7 543d a583 ea3d
00000090: 2337 343e 6705 363e 7a7f 7a3d 1c8d adbd
000000a0: d2ad a7bd a02a 143e 53eb c43d 1d57 013e
000000b0: 7a5c a3bd 96af 133e 26b8 c5bd 4468 1d3d
000000c0: ccb7 ff3d ca8a 013e 3b4d c8bd 438c 0abe
000000d0: f7a2 c5bd 13ea 8dbd d7ad 9e3d bc4f d73d
000000e0: 852f d2bc ee36 94bd f751 b03d a41b 17be
000000f0: 277d 3c3d 1e58 143c 05f6 c33d 998c 3ebc
00000100: 493d d63b a386 bebd 4c42 38bd f16a 17bd
00000110: 6d50 ccbd ae09 273d ed7f 2c3e 9f87 b0bd
00000120: 3ccf 85b7 2815 68bd 8cb3 343e e8c9 c93d
00000130: 8718 7b3d 610f 113e 4e43 0fbd 6066 ba3c
00000140: d447 a0bc 78dd 0f3e 95a4 843d e327 cc3d
00000150: 04c0 0a3e 8c6b 273c 7a33 1e3d 0c17 4b3e
00000160: 4f34 d5bd 8d1c 98bd 20f5 df3b ca10 163d
00000170: 6b8b afb9 3298 c73d 2c69 dbbd ded2 133e
00000180: ecda 24bd d7ee a73d e2eb a0bd 0a5e fbbc
00000190: 379e 32bd 00c2 a8bd a53d 7a3d 8ec1 a23d
000001a0: 72f9 6fbd e25a 0cbe 8b19 2d3d fe50 17be
000001b0: eb46 683d c58b 08be f835 52bd 4b0b 33b9
000001c0: ffc1 eabd 9201 833d 2343 27bc 7faf ae3d
000001d0: 9cf4 70bd 27d1 ea3d 8775 9fbd 1246 8abb
000001e0: 7c19 15be c0b7 f63b 75ed b2bd 1f84 ce3d
000001f0: cfa6 aabd fc53 9bbb aafc d23d bbdc 033d
00000200: 3f33 213e 97ab 11bd 9992 ccbd a667 a73d
00000210: 025d 193e d8c1 0bbe c746 05bd 6de9 dd3d
00000220: 5f33 c8bd 107b 21bd 8221 2dbd 5f1c cbbc
00000230: a5ce 193e d85d e03d 9237 ad3d 6e70 cbbc
00000240: ad74 9dbd 0e34 133d 12ad 9d3d cb57 c13d
00000250: d4e5 cebd 55c9 1e3e a7e3 bdbd 192b f63d
00000260: 9486 70bc d442 bdbd 94c2 eeba 5135 a03d
00000270: 3041 c1bc 85d0 7abd 1ad7 0abc 1a7d 58bd
00000280: ade9 8abc 5bae e63d 3856 97bb 79bc debd
00000290: 1ecc 2d3e bfef 19bd 2eea bc3d c381 88bd
000002a0: fa8a c33d 0303 2f3e 43a9 b5bc a070 b3bc
000002b0: 0b44 9ebd 80f6 b3bd f90e babd 1e5d 473d
000002c0: 44a8 7a3a e40e 133e f61f 543d 3880 053e
000002d0: a20b e83d 7bba e8b9 76a3 56bc 9929 123e
000002e0: f8cc 343e a20d 743d e41f bf3d 74dd 9fbc
000002f0: cf73 bfbd feff 063e 8bf3 d0bd 5da8 5b3b
00000300: f709 6a3d d0ac 503b 1e2b 203d 9a1b debb
00000310: 382c a9bb 47ec d2bd 8c0d 10be 06d3 c83c
-0.03466106 -0.01136584 0.029457876 0.10841866 0.018089762 0.025348226 0.0126478365 -0.11336447
-0.124688886 0.11171672 0.08032229 0.0436159 -0.14403042 0.05650776 -0.070869446 0.04424605
0.106333256 0.18235275 0.1353719 0.2453085 -0.015178646 0.036724366 0.06781565 0.02186332
-0.042322632 0.07106034 -0.075098425 0.1593609 -0.10419543 -0.05115555 0.1517019 0.019999575
0.13242494 -0.13316356 0.051993422 0.114508905 0.17599158 0.17775498 0.061156727 -0.0847418
-0.081874505 0.14469385 0.09615197 0.12630887 -0.07976623 0.1442245 -0.09654264 0.038429514
0.12486228 0.126506 -0.097803555 -0.13530068 -0.09650224 -0.06929412 0.07748001 0.10513255
-0.025657425 -0.072370395 0.086093836 -0.14756638 0.046017792 0.009054212 0.09568409 -0.011630201
0.0065380675 -0.09303024 -0.0449851 -0.03696722 -0.099762775 0.040780716 0.16845675 -0.08619618
-1.5951337e-05 -0.0566608 0.17646617 0.09852964 0.061302688 0.14166023 -0.034976296 0.022753894
-0.0195655 0.14049327 0.06476704 0.09968545 0.1354981 0.010218512 0.03862331 0.1983301
-0.10410368 -0.07427321 0.006834641 0.036637105 -0.00033482476 0.09745826 -0.10713419 0.14435908
-0.040247843 0.08199852 -0.07857491 -0.03068449 -0.043607917 -0.082401276 0.061093945 0.07947074
-0.0585875 -0.13706544 0.042260688 -0.1477699 0.056708258 -0.13334568 -0.051321 -0.00017074977
-0.11462783 0.06396784 -0.010208878 0.08529567 -0.058827028 0.11465674 -0.077860884 -0.004219779
-0.14560503 0.007529229 -0.087366976 0.10083794 -0.083325975 -0.0047402363 0.10302098 0.032192927
0.15742205 -0.03556403 -0.09988899 0.08174066 0.14976886 -0.13648164 -0.0325382 0.10835538
-0.09775423 -0.039424002 -0.042268284 -0.024793802 0.15020235 0.10955399 0.08457865 -0.024833884
-0.0768827 0.035938315 0.07699026 0.09440573 -0.1010243 0.1550649 -0.09271937 0.12019939
-0.014680523 -0.09241262 -0.0018215948 0.07822669 -0.023590654 -0.061234016 -0.008474136 -0.05285368
-0.016957128 0.112637244 -0.0046184324 -0.10875792 0.16972396 -0.037582155 0.09224354 -0.06665375
0.09547992 0.17090993 -0.022175437 -0.02190429 -0.07727822 -0.087872505 -0.09084887 0.048672788
0.00095618167 0.14361149 0.051788293 0.13037193 0.11330344 -0.00044389427 -0.013100496 0.14273681
0.17656314 0.059583314 0.093322545 -0.019514777 -0.093482606 0.13183591 -0.10202702 0.00335171
0.05713841 0.0031841286 0.03910362 -0.0067781927 -0.005162742 -0.102989726 -0.14067668 0.024514686

lstm.bias_hh_l0 f4 [200]
00000000: b617 01bd 4b00 af3c c489 ae3d 85d6 7f3d
00000010: 1b0a cd3d 9985 e53d 7d1a 8c3d 4218 c4bd
00000020: d47c 813b fa97 63bd c0cc 883d 18c4 3c3e
00000030: 75f0 f6bd 36c0 323d f06e 2dbc 452c 09be
00000040: b4eb 343d b514 88bd fef7 0ebe e202 793e
00000050: 0e12 3c3e 0ec6 87bd 934a 133e 3145 97bd
00000060: 369e 403c cf63 9b3d 7b7e 203e 50fa f2bc
00000070: 567f 6dbd e6e1 eabd b172 9b3d 4bf5 833e
00000080: 04a7 3d3d bfe3 82bc 7929 f53c 747c 44bc
00000090: a9f4 343e 59e2 83bd 18ec ec3d 4c5c d53d
000000a0: 42c2 d23c a551 2b3e 1565 6d3d e520 513d
000000b0: a02e edbd 06d7 18bd 9c84 083e 93d8 d53d
000000c0: 9366 053e 5159 443d 324f b1bd a1c4 36bd
000000d0: fadc febc a68b 5abc 2c00 8dbd 8276 b1bd
000000e0: 64b0 763d 8cc4 b8bd 99aa 8fbd 5be3 91bd
000000f0: bd4c ea3d 4bf9 193e 9fd9 0bbd 0171 dd3d
00000100: 0d69 3c3d 7999 fa3d 1ec7 743d ab33 ae3d
00000110: afac 563d 6216 683e 2f12 883d caea f53c
00000120: 1b0c d13d 7ce6 9abc 1e43 493d b887 1c3e
00000130: 89db a6bd fafc 753d 518a cb3d 1c47 f53d
00000140: ca14 aebd 7083 bb3d c811 513c e483 6fbc
00000150: 7050 543e 251e 9f3d 4e49 083e 4ae0 a43d
00000160: c987 003e 21c8 f1bc 2393 68bd 8ad2 573d
00000170: 169a 8e3c da4e 88bd eebb 393c 92eb 0f3e
00000180: 1cf3 85ba 4506 d43d 1410 0bbe 55cb 5b3c
00000190: c080 6cbd 35ac 613c cf45 1abe 8817 003d
000001a0: c619 833d be46 de3c afc5 51bd 0527 07be
000001b0: 5874 29bd dfee 8abd b537 f73a 6205 25bc
000001c0: 0c5f 0e3d 7be5 233e 763e 933d ba26 1c3d
000001d0: ce7e 36bd 17da ba3d bb2b 8abd 12e4 f33d
000001e0: ee6e 9a3d a48a a0bd 077e 843d a0c2 8abd
000001f0: 2951 06be 6164 a5bd 021e 89bc c8b0 133e
00000200: b43b ae3d b372 e43d 5321 b83d 902e 8e3d
00000210: 4835 063e e9ea 8f3d 78e3 9bbd 1db2 a2bd
00000220: 2248 2dbc 4b4b bf3b 73aa b7bd ddba 32bd
00000230: 84c5 f33c ba54 8fbd b6c9 ed3d aee8 a8bd
00000240: 11c5 283e f9ba 97bd 2cd1 24bd 17c6 6e3d
00000250: 4f29 043d 473e 3ebc 0507 283d 37f8 cd3d
00000260: d10a 873d 84ad 23bb b04b 58bb b883 1b3e
00000270: b2a7 98bd d5cf ca3d e4ad c6bd 3482 c5bc
00000280: 8152 18bd 1cb9 a5bc 7786 01be ad08 eb3d
00000290: ff11 053d ca9f 9b3d fe97 9a3d 81b3 9f3d
000002a0: 1aba 0e3e ce27 563c 2899 0a3d 46af a33d
000002b0: c34d 273e ca97 f5bd 4ab8 003e 3437 9abd
000002c0: 3180 b2bd 3ead 273e 707f dc3d e630 a9bd
000002d0: 9c36 fd3d e407 913d 5298 973d d732 d33c
000002e0: 3834 493e c909 abbd 913f a1bc cad3 473e
000002f0: 2109 a03d f63b ea3d c154 9dbd eb40 a1bc
00000300: 7109 09bd 30f0 f939 c487 6fbd 006b 38bd
00000310: df85 5c3d c6ef 1dbd 2f81 613d 1395 1d3e
-0.031516753 0.021362444 0.085223705 0.06246044 0.10011693 0.11207122 0.0684099 -0.09574939
0.0039516483 -0.055564858 0.06679678 0.18434179 -0.12057582 0.043640338 -0.010585532 -0.13395794
0.044170097 -0.066445746 -0.13961789 0.24317506 0.18366262 -0.06629573 0.14383917 -0.07386244
0.01175647 0.07587396 0.15673248 -0.029660374 -0.057982765 -0.11468868 0.07590235 0.2577308
0.046301857 -0.015977738 0.029927002 -0.011992563 0.17671455 -0.06439657 0.11568469 0.10417995
0.025727395 0.16730364 0.057957727 0.05105676 -0.11581159 -0.037314437 0.13331836 0.10441699
0.1302741 0.04793674 -0.086576834 -0.044621114 -0.03111123 -0.013338959 -0.068847984 -0.08665182
0.060226813 -0.09021863 -0.07014961 -0.07123443 0.11440418 0.15036504 -0.034143087 0.108125694
0.04599862 0.12236304 0.059760205 0.08505949 0.052410778 0.22664788 0.06644093 0.030019183
0.10207387 -0.018908732 0.049136274 0.15286148 -0.08147342 0.06005571 0.09938491 0.11976454
-0.08500059 0.09155929 0.012760587 -0.0146188475 0.2073381 0.077694215 0.13309214 0.08050592
0.12551798 -0.029514374 -0.056780946 0.05269102 0.017407458 -0.06655665 0.01133631 0.14054707
-0.0010219547 0.10352758 -0.13580352 0.013415177 -0.057739973 0.0137739675 -0.15065692 0.03127244
0.064014 0.027133342 -0.051213916 -0.13198479 -0.04137072 -0.06783842 0.0018861206 -0.010072084
0.034758613 0.16005509 0.07189648 0.03812287 -0.044554524 0.091236286 -0.06746622 0.11908735
0.075406894 -0.078389436 0.0646935 -0.06775403 -0.13116898 -0.080757864 -0.016737942 0.14422905
0.08507481 0.1115469 0.08990731 0.06942475 0.13106263 0.070272274 -0.076117456 -0.07944129
-0.01057628 0.005837833 -0.089680575 -0.043635238 0.029757269 -0.06998582 0.11610739 -0.08247505
0.16481425 -0.07408709 -0.040238544 0.058294382 0.032265957 -0.011611528 0.04102232 0.10057109
0.0659386 -0.002497525 -0.0033004098 0.15186965 -0.0745386 0.09902922 -0.09701136 -0.024109937
-0.037188057 -0.020229869 -0.1264895 0.11476264 0.032487866 0.07598837 0.075485215 0.077979095
0.1393818 0.013071014 0.033837467 0.07992415 0.16338257 -0.11991842 0.125703 -0.075300604
-0.08715857 0.1637468 0.10766494 -0.0826128 0.123639315 0.07081583 0.074021 0.025781078
0.19648826 -0.08351476 -0.019683631 0.19514385 0.07814241 0.11437218 -0.07682181 -0.019684276
-0.03345627 0.00047671935 -0.058479086 -0.04502392 0.053838607 -0.038558744 0.05505484 0.15388899

lstm.weight_ih_l1 f4 [200, 50]
00000000: 5099 2dbe 2270 e2bc 59bc fbbd 5f21 7dbd
00000010: 2659 b8bd 7aef 143d 3b11 26bd 33e4 ff3d
00000020: 2de4 30bc 44c6 f8bd 5e67 5e3d 8ef0 f1bd
00000030: 0bcd 29bd 1315 64bd 6e91 fb3d 3714 393d
00000040: 56aa d63c 1f55 60be 62f1 d83d d2c5 ad3d
00000050: a046 753c 9163 16be f62e 1dbe 0828 6f3d
00000060: f7ae 22be 699d 323d 6e81 c1bd c03a 88bd
00000070: c51a 093e 9d97 e73d 8f31 2bbe 096a 803d
00000080: e350 ccbd 7a9c 2c3d 9d04 c53d 0b89 553d
00000090: 5599 2cbe 05e3 a7bd b0fe 2abd b3b8 d93d
000000a0: 77b3 95bd 239d 9cbc 4e30 d7bd c10a 68bd
000000b0: 71f3 75bd 331b aabd da77 a93d 732f 103e
000000c0: baa8 d1bd ddf8 90bb a6ec 9d3d 8c4c 8bbc
000000d0: be57 203e a0d4 3cbe 9400 733d 0e2d 433e
000000e0: 0d7d 483c 89b9 6c3d d021 f0bd 7e29 1ebe
000000f0: 9e8f 80bd 6978 27bd ea63 c33d a0d4 9b3c
00000100: 8351 0b3e 1f40 803d a15a 74bb 7416 93bd
00000110: 32e0 28be 1afa 2e3d 5ae5 3e3e 10d8 a9bd
00000120: 98f4 65bd 0511 f3bd 4547 e73d dae6 2dbd
00000130: a72c 08be 542c 523d 0e84 75bd fb2f 89bd
00000140: 1b63 0d3e fcf4 013e adc4 e73b 5430 a63d
00000150: 2dcf acbd 839c a73d 8262 1bbe 49f1 0fbd
00000160: 899e 3bbe b8a9 8abd efb0 30bd 0e29 723d
00000170: e287 323d b925 a43c 09ba 923d bfa0 9b3d
00000180: a4b4 44be 4590 17bc 9b46 883d f39f cfbc
00000190: a2e9 0fbd db46 6fbd abd7 883c b6b8 c2bd
000001a0: 59b0 c1bc 8e01 7cbd ea50 d2bd 1640 ee3d
000001b0: 0736 99bd 1f23 05be 1be9 edbd ad22 8abe
000001c0: e216 2fbd 329d 553b c430 82bd 3af0 bc3c
000001d0: f62b ae3d de39 953d 6dd0 ca3c 9398 433e
000001e0: 8c43 f73c 7ea5 27be ae29 04be 70f6 ad3d
000001f0: 070b 1d3e f43b e33d 5676 ad3d d4ab 1d3e
00000200: 84e0 213e 8907 d3bd c463 cfbd 2bd1 393d
00000210: 5da4 163e 1135 793c 60d3 643d 5a65 083d
00000220: 1a10 bd3c 443b 253d 9881 bc3c d18a 01bd
00000230: b95e 853d 5d16 633d fc5e 273e aefc ba3d
00000240: 6d3e 693d f9d1 1abe ba95 c93d ac86 73bd
00000250: a30c 093c 3b7b 6e3d 119f 0bbd 1af6 e3bd
00000260: 0ddd 0f3e fd9e 263d 008f b23b 6351 8bbd
00000270: 5603 883d fdae 46bd cc06 80bd 70a2 98bd
00000280: ab81 cc3d 656c d9bc 9e0f 36bd 8c6e 8dbd
00000290: a908 ec3d 21ba b13d db83 873d 59d8 94bd
000002a0: 6ae7 00be 312e ba3d 336c 323d c241 09be
000002b0: c3e7 d8bd eda2 7dbc 0245 e6bc 1b7c 233d
000002c0: 474a cbbd 7847 c3bd a88b 823d 741b c7bc
000002d0: 65fd f53d 3698 1cbd 2040 16be adc6 f4bb
000002e0: 901d a63d ef16 7b3d 2a8a 2abe 1c60 4fbb
000002f0: 9ddd 4cbd 1232 473d 3d04 91bd 7a9d 2fbc
00000300: 26d6 73bd 7c3a afbd 8300 053e b5e3 83bc
00000310: 3fad 413c 6331 dabd 40a2 19bc 9359 e0bd
00000320: 33b2 2e3d 81bf 543d 618f fb3d 54b1 10be
00000330: 01b0 4a3c 5554 e0bd 9603 f33d 4a4e 89bc
00000340: d329 b43d ac76 57bd 48e5 29be d1d3 ce3d
00000350: fbb1 323d 2bb8 2b3b cde1 d03d 95dc 6f3d
00000360: 725c 66bc b8c2 11be 1ae4 053c 50b5 bfbc
00000370: 2b20 dfbd 771e 01bd e615 703d ad82 50bd
00000380: 8de3 1bbd b68c 6c3d c815 143d 3bf5 3a3d
00000390: e99e 9dbd 79c8 053e 580e 2fbd b472 23be
000003a0: 13b5 cabd 0ab1 073e d89a 82bc eea1 6bbc
000003b0: f3ea f0bd 7243 003e 8684 b2bd bb12 603c
000003c0: e8b4 23be 3972 57bd 3f9a 6dbc 6f87 10be
000003d0: 6df8 a8bd 4fea d93c bc01 88bd 8532 fabd
000003e0: 5e43 f9bc af02 31bd 69a6 0b3e 9b31 efbd
000003f0: f627 c4be 2c5e 1b3e e90d b33d 4b79 4cbd
-0.16953015 -0.02764136 -0.12291784 -0.061799403 -0.09001379 0.036361195 -0.040543776 0.124946974
-0.010796589 -0.12147191 0.054297797 -0.1181346 -0.04145531 -0.05568416 0.12283598 0.045185294
0.02620427 -0.21907471 0.10592915 0.08484997 0.014970452 -0.14686419 -0.15349945 0.058387786
-0.15887056 0.04360715 -0.09448515 -0.06651831 0.13389118 0.11308215 -0.16718124 0.062702246
-0.099763654 0.042141415 0.096200205 0.052132647 -0.16855367 -0.081975974 -0.041746795 0.10630932
-0.07309621 -0.019117897 -0.1050726 -0.05665088 -0.060046617 -0.08305969 0.08274813 0.140806
-0.1023726 -0.004424198 0.07711153 -0.017004274 0.15658471 -0.18440485 0.059326723 0.19060156
0.012236846 0.057794128 -0.11725199 -0.15445516 -0.06277393 -0.040886316 0.095405415 0.019022286
0.13605313 0.0626223 -0.0037285464 -0.07182017 -0.16491774 0.042718984 0.18642178 -0.08293164
-0.056141466 -0.118684806 0.112928905 -0.042456485 -0.13298284 0.051311806 -0.05994039 -0.06698605
0.13807337 0.1269111 0.007073006 0.081146866 -0.08437953 0.08184149 -0.15174296 -0.035142217
-0.18322195 -0.067706525 -0.043137487 0.059121184 0.04358662 0.020037519 0.0716439 0.07599019
-0.19209534 -0.009250705 0.06654092 -0.025344824 -0.03513492 -0.058417182 0.016704401 -0.09507887
-0.02364366 -0.06152492 -0.102693394 0.11633317 -0.07481008 -0.13001679 -0.11616727 -0.2697958
-0.042746432 0.0032594916 -0.063569576 0.023063768 0.08504479 0.07286428 0.024757588 0.19101171
0.030183576 -0.16371724 -0.12906525 0.0849427 0.15336238 0.110954195 0.084698364 0.15397578
0.15808302 -0.103041716 -0.10126451 0.045365494 0.14711137 0.015210406 0.055865645 0.03329978
0.023078967 0.040339723 0.023011014 -0.031626526 0.065122075 0.05544125 0.16344827 0.09130226
0.0569443 -0.1511916 0.09843011 -0.059454605 0.008364829 0.05822299 -0.034087244 -0.111309245
0.14049168 0.040678967 0.005449176 -0.06802633 0.06641261 -0.048506726 -0.062512964 -0.074528575
0.0998567 -0.026540944 -0.044448487 -0.06905851 0.11525089 0.086780794 0.06616946 -0.072678275
-0.12588277 0.090908416 0.043560218 -0.13403991 -0.1059108 -0.015480739 -0.028109077 0.039913278
-0.09926277 -0.09535116 0.063742936 -0.024305083 0.12011222 -0.038231097 -0.14672899 -0.007469973
0.08111107 0.061301168 -0.16654268 -0.003164298 -0.050016034 0.048631735 -0.070808865 -0.010718698
-0.0595304 -0.08556077 0.12988476 -0.01609979 0.01182109 -0.10653951 -0.009377062 -0.10954585
0.042650413 0.051940445 0.12283207 -0.14130145 0.012371064 -0.10953585 0.11865918 -0.016760964
0.0879704 -0.05260341 -0.1659137 0.100989945 0.043626767 0.0026202302 0.10199318 0.058559973
-0.014060127 -0.14234436 0.008172059 -0.023401886 -0.108948074 -0.031523194 0.058614634 -0.050905872
-0.038058806 0.05775138 0.036153585 0.045644026 -0.07696325 0.13064755 -0.04273829 -0.15961725
-0.098978184 0.13251129 -0.015942976 -0.014381869 -0.11763563 0.12525728 -0.08716683 0.013676341
-0.15986979 -0.052599166 -0.014502107 -0.14114164 -0.082505085 0.026600985 -0.06640956 -0.12216667
-0.030427631 -0.04321545 0.13637699 -0.11679383 -0.38311738 0.15172642 0.087428875 -0.04992036

lstm.weight_hh_l1 f4 [200, 50]
00000000: 4c88 4c3e 4eb1 67bd 3039 023e 93b2 89bd
00000010: 2c08 003e 7cbc 95bc 323f 2ebe cc1a 0bbe
00000020: 5217 a9bd 2876 1fbe 9f7d 2ebe 6a80 123e
00000030: 66f5 583d f80e 54bd 4fdb 1b3e 09f3 d23d
00000040: 5ed9 253c 4686 c33d 7f13 85bd 4e87 adba
00000050: 1480 c23d 5ba0 373e a5bd 17be b257 0ebe
00000060: 6e54 9d3d d4b5 edbd 7bf2 abbc cadf 8c3d
00000070: 097e 383d 3801 c73d 7d7d be3d 4efe fbbd
00000080: a608 39bd cceb 6d3e e440 3f3d 81a6 d33c
00000090: cf04 febd 3e1d 173e 47e6 f7bd 7ad9 be3c
000000a0: 1b90 3c3d d15b 6dbc bd9f 0b3e 807b 313e
000000b0: 07f8 c83d 8e6c ae3d 7a32 453b 8aae adbc
000000c0: dbcd ae3d b81a a93d ba4b 98bd 21b7 b33d
000000d0: 577e 023e 9887 18bd c438 1b3d ab04 98bd
000000e0: 38d6 943d 564c 8ebc ee44 253e a70f abbb
000000f0: 8a14 903d 7363 e13d cbb2 94bd 7234 afbd
00000100: b458 af3d ed26 d2bd 8232 f5bd 9973 e2bd
00000110: 0f79 9ebd 89db ba3d 0692 f73d 3e47 af3d
00000120: 127b 723d fcb4 13bd 8dba be3c d999 793d
00000130: 5237 3d3d 82b8 29bd f35c eabd 8c9e 7bbd
00000140: 8534 863d 8287 a03c 3364 583d c219 643d
00000150: 6a4f bebd a238 a2bd 7cf5 08be 96a9 013e
00000160: 3138 bcbc 544f 2e3e 9fde 6ebc e45c c03d
00000170: 5880 233e 3828 e83d 5d77 cbbc 6039 dcbd
00000180: 8d8b 02be e518 a3bc 91c1 0b3d e409 833c
00000190: 2d88 d7bd 4cd4 113e 25d6 d33d 45c0 16be
000001a0: 821a b7bd 742a d23d e663 5dbd cb18 ce3d
000001b0: 5436 9bbc 706b b63d deac bdbc ec94 c4bd
000001c0: 6cbd 8bbd acfb 04bd 2434 02be 762f 16bd
000001d0: ce2d 1cbd 9a09 37bc 1030 4dbd 62ab 1f3d
000001e0: eb51 db3d d8bc fcbd aeb6 043e 5b26 18bd
000001f0: 6c5c e9bd f957 313d 8f71 843d 57b2 14bd
00000200: 0b03 9a3d f7c6 d83d 3ba7 01bd 0cc4 2c3d
00000210: b881 853c e050 353d d69f 03be 2255 d23a
00000220: 6d7f dbbd 0355 97bd 2fa2 9e3d a55e d1bd
00000230: 4056 97bd 9ec5 073d ec7f 5fbd aabe 013e
00000240: 0bbe cbbb 2808 c93d 045c 12bd ed73 8cbd
00000250: 9855 dbbc f311 6d3d d670 b63d dbd3 803d
00000260: c49a 183d a2cf c9bc 5e58 e53d 30a7 33be
00000270: 8621 e53c fba3 d03d 33ae dc3b 9ef3 77bd
00000280: 4d06 86bc 13c4 743d 64b9 da3d fc4b 85bd
00000290: 7639 583c 2f34 f63d 06c2 9dbc 2384 5fbd
000002a0: 80dc 21be 1402 e03d f732 dcbd 17a8 92bd
000002b0: 1e92 acbc cc92 d23d 37fa 55bc 0d4b b13d
000002c0: fabf 893d 4410 96bd 20bd 7a3d dd20 eebc
000002d0: c7c1 1fbe fb23 683d cbd5 e0bd 152d a6bd
000002e0: 9974 a43d 1bef 90bc f3df 0c3d 4d0b 4bbd
000002f0: 53f3 f9bd c0aa dcbd ba29 1c3c a307 893d
00000300: af5d 35bd f04a 07be 082e 12be ef8f 97bb
00000310: 7c17 10be 5a39 5bba e054 16be a08a 1f3d
00000320: 2afd e53d c31d 003e 9aca 2e3d 6ea8 9dbd
00000330: fb09 6bbd 27c2 a83d ebb8 eabd 49b8 1e3d
00000340: 66f9 763d 7561 33be d407 89bd 5e86 0abe
00000350: 5c3d 04be 155b bcbd 1227 ff3d f517 9f3c
00000360: 84c5 c9bc d174 5d3c f758 a63d a32b fa3d
00000370: c17d d7bd 978a 2bbb cf00 3c3d 36ed b1bd
00000380: 38c6 c43d f91d d1bd 6657 e5bc f636 3c3d
00000390: 2490 6a3d a186 0f3d 86f2 8b3d 44ff a23d
000003a0: c01b 723d 1e78 683c 0582 c93b b53f 843b
000003b0: 0768 fa3c defa dfbd 6be3 c7bd d78a 2abd
000003c0: 3285 113c b367 a5bd d15b b7bd 98a0 fdbc
000003d0: 9c36 3a3d 3bb5 ccbd a542 1bbe 885c aebd
000003e0: 0d64 c8bc 1629 3e3d 52d0 3bbe 06ca 1c3d
000003f0: 2ec6 78be 0d4c e63d f20a 453d 15b1 293e
0.19973868 -0.056565575 0.12717128 -0.067235135 0.12503117 -0.018278353 -0.17016295 -0.13584441
-0.08256401 -0.15572417 -0.17040108 0.14306799 0.052968405 -0.051772088 0.15220378 0.103002615
0.010122625 0.09547095 -0.06497859 -0.0013239176 0.09497085 0.17932265 -0.14818437 -0.1390064
0.07682119 -0.116069466 -0.020989647 0.06878622 0.04504207 0.09717029 0.09301279 -0.12304364
-0.045174263 0.2323448 0.046692744 0.025836231 -0.12403261 0.14757249 -0.12104469 0.02329706
0.046035867 -0.014487223 0.13635154 0.17332268 0.098129325 0.08516799 0.00300899 -0.02120139
0.085353576 0.08257049 -0.07436319 0.087751634 0.12743507 -0.037238687 0.037895933 -0.07422765
0.072674215 -0.017370384 0.16139576 -0.0052203718 0.070351675 0.110052966 -0.072606646 -0.08554925
0.08561841 -0.10261331 -0.11972524 -0.11057205 -0.07737934 0.09123904 0.12088399 0.0855851
0.0591994 -0.036061272 0.023282314 0.060937736 0.046195336 -0.041435726 -0.1144351 -0.0614305
0.06552986 0.019595865 0.052829932 0.055688627 -0.09292491 -0.07920958 -0.13374895 0.12662348
-0.022976013 0.17022449 -0.014579444 0.093927175 0.15966928 0.11335796 -0.02483719 -0.10753131
-0.12748547 -0.019909332 0.034120146 0.015995927 -0.1052402 0.14241141 0.10343579 -0.14721783
-0.08940603 0.102620035 -0.05405035 0.10063323 -0.018946804 0.08907211 -0.023153719 -0.09598717
-0.06823239 -0.032466576 -0.12715203 -0.036666356 -0.03812962 -0.011171723 -0.050094664 0.038981803
0.10708984 -0.123407066 0.12960312 -0.037145954 -0.11394581 0.043296788 0.06466972 -0.03630289
0.07520112 0.105848245 -0.031653624 0.042179152 0.016297206 0.04426658 -0.12853941 0.00160471
-0.10717664 -0.073892616 0.07745778 -0.1022313 -0.07389498 0.033147447 -0.054565355 0.12670389
-0.0062177232 0.09816009 -0.035732284 -0.068580486 -0.026774213 0.057878446 0.089082405 0.06290408
0.03725697 -0.02463514 0.11198495 -0.17544246 0.027970087 0.10187527 0.0067346334 -0.060535066
-0.016360426 0.059757303 0.10679892 -0.065086335 0.0131972935 0.12021672 -0.019257557 -0.054569375
-0.1580677 0.10937896 -0.10751908 -0.07160967 -0.021065768 0.102819055 -0.013060144 0.08656893
0.0672607 -0.07327321 0.06121552 -0.029068405 -0.15601264 0.05667494 -0.10978278 -0.081140675
0.08030052 -0.01769214 0.034393262 -0.049571324 -0.122046135 -0.107747555 0.009531433 0.0669091
-0.044278797 -0.1321218 -0.14275372 -0.0046253125 -0.14071459 -0.0008362733 -0.14680815 0.038950562
0.11229928 0.12511353 0.042673685 -0.07698141 -0.057382565 0.082401566 -0.114610516 0.038749967
0.06029644 -0.17517646 -0.06690946 -0.1352782 -0.12914032 -0.0919706 0.12458624 0.019420603
-0.024630316 0.013516621 0.081224374 0.12215354 -0.105220325 -0.0026175135 0.04589921 -0.086878225
0.0960812 -0.10210795 -0.027995776 0.045950852 0.05726637 0.0350405 0.06833367 0.07958844
0.059108496 0.014188794 0.0061495327 0.004035915 0.030567182 -0.10936521 -0.097601734 -0.041636314
0.008881854 -0.0807642 -0.089530595 -0.030960366 0.045462236 -0.099955045 -0.15162142 -0.08513743
-0.02446177 0.0464259 -0.18341187 0.038278602 -0.2429435 0.11244974 0.04810614 0.16571458

lstm.bias_ih_l1 f4 [200]
00000000: d403 a13d 38a8 1ebd 6346 1bbd 909c 12bd
00000010: 233e 61bd 626f 753c caaa 1c3e 080b 02bd
00000020: 31a5 aabb 4f14 18bb 2722 21bd baa3 673d
00000030: 4a95 84bd 58dd a23d c722 053e 1048 95bd
00000040: 6fb8 643d 09cb b13d 1174 bf3d bcaf 8abd
00000050: 3c56 0f3d 4381 fd3d aabf d23d 1f02 8bbd
00000060: 5e29 b93d 8940 cabd b1ba eabd b43d 17bd
00000070: d4ee dc3d 994f f0bc ea82 fd3d cfbe 83bd
00000080: 2ea4 6ebc e1eb 52bd 03fc 1abd 3e82 e33d
00000090: 981f 043d b044 a23d da28 81bc 1f92 ba3c
000000a0: 4543 1cbe bd08 c53d 7e83 d1bd 8187 043e
000000b0: 424d 29bb 44e0 bb3c 179e 933d d24f 11bb
000000c0: d111 e13d 07b3 283e 6c1c 163e cab1 f33d
000000d0: 6099 403d 0fba 41bd 8b88 91bd a72c 91bc
000000e0: 3a10 b4bd fe97 1bbd f6ab d93c d8eb 323c
000000f0: df5d 8fbd ef7e 90bd 137b c2bd 7cbf d6bd
00000100: b109 9a3d 486a 3bbc 4aa1 6fbd b2e3 d4bd
00000110: 405c c73d af6f 203d 6ccc c83b 06ac 2f3d
00000120: 6da1 9e3c 35fa 06bd dd26 7c3d 180e 2bbc
00000130: 4513 c4bd e74e 81bb 43fa 5fbd 9bcd a53d
00000140: 5625 243e fb21 b6bd 48f7 88bd 5998 4a3e
00000150: e1ae 0b3e 9720 ccbd 5116 563d bc06 c9bd
00000160: 9078 253e 1297 49bd 5b3c d13c 21b2 0b3e
00000170: 9fe4 60bd 772d 253e 3bda c33d d6ce 063c
00000180: d115 7dbd 5dce 68bd 0f6f ecbd 1814 86bd
00000190: a7cc 273e f5ec 8ebd 115d 033e 7fd8 ea3d
000001a0: c064 223e 41ae d6bd 2b0c 8dbd 8af0 903d
000001b0: f8a0 b83d c323 74bd c708 28be 6730 5d3d
000001c0: 6e92 b1bb 3176 133c d079 e4bc 509b 98bd
000001d0: 615e 0e3e 5598 1e3e 6d56 06bd 625e 30bd
000001e0: c40c 1fbe deb6 763d 7f05 08be aebd c4bc
000001f0: 8b9d 043e 2db8 a6bd bf85 05be fd79 a93d
00000200: db50 ddbd 42a4 a0bd be50 943d 2b9b b0bd
00000210: 7334 88bd 6693 293d 505f 783d c05f 053e
00000220: e08b 1fbe eddb b2bd 06ba a8bd 938d 0a3e
00000230: 1612 2fbd c49c fc3c 7178 183e 033c bc3d
00000240: 9c55 d53c a414 e63c 6ee3 28be 8b0d 3f3c
00000250: 295e c53d e0e2 e53d cf20 d73d 23fa d6bd
00000260: 6d9c 03be 3a07 a1bd 6c70 efbc 61ee 06be
00000270: fcd8 aabc 4bf5 2cbd 06e6 383e 53de 1e3e
00000280: 8f74 bc3d 184a aebc 7359 5cba a0bc eabd
00000290: 12f8 ea3d 5c93 96bd 224b a43d 2233 0dbb
000002a0: 12e4 7bbc facf f0bd 78dd 02be 1586 013e
000002b0: 7cf4 293e ab8e 8b3c 0ff5 f33c 1a02 4f3d
000002c0: e7de 06be d989 4abd 8eb7 fb3d d76c 00be
000002d0: bae8 1a3c 3d78 033d 2224 213d bb80 9dbd
000002e0: f998 9c3d e454 343d 22fa 55bb 52ae 8b3d
000002f0: ad39 a93d 5dd5 06bc b65f 9e3c 3660 e3bd
00000300: f1af 613d 4f54 5f3d ac18 783d 2c3e 773d
00000310: fc12 f43d 5286 42bd 060e f3bd 5f31 96bd
0.07862058 -0.038734645 -0.037908923 -0.03579384 -0.0549909 0.014980169 0.15299526 -0.0317488
-0.0052076806 -0.0023205464 -0.03933921 0.056552626 -0.06473787 0.07952374 0.13001548 -0.072891355
0.055839952 0.08681304 0.0934831 -0.067718 0.03499435 0.1237817 0.10290463 -0.06787514
0.09041093 -0.0987559 -0.1146139 -0.03692408 0.1078774 -0.02933483 0.123784855 -0.06432878
-0.014565511 -0.051494483 -0.037837993 0.11108826 0.032256693 0.07923257 -0.01576655 0.022774754
-0.15260036 0.09620807 -0.10230158 0.12942316 -0.0025833403 0.022934087 0.072078876 -0.002217282
0.10989726 0.16474544 0.1465928 0.11899145 0.04702127 -0.04729658 -0.07106122 -0.017721487
-0.087921575 -0.037986748 0.026571255 0.010920487 -0.07000326 -0.07055461 -0.09496131 -0.104857415
0.0752138 -0.011438914 -0.058503427 -0.10394992 0.09734392 0.03916901 0.0061278846 0.042888664
0.019364083 -0.03295346 0.0615605 -0.010440372 -0.09573988 -0.0039461735 -0.054682028 0.08095857
0.16029868 -0.088932 -0.0668779 0.19784679 0.1364093 -0.099671535 0.052267376 -0.098157376
0.16159272 -0.049216338 0.025541475 0.1364217 -0.05490553 0.16130625 0.095631085 0.0082280245
-0.061788384 -0.05683743 -0.1154462 -0.06546801 0.16386662 -0.0697879 0.12828471 0.114670746
0.15858746 -0.10482455 -0.068870865 0.07077129 0.09015077 -0.059604418 -0.16409598 0.05400124
-0.005419067 0.009000347 -0.027890116 -0.074514985 0.1390319 0.15487798 -0.032797266 -0.04305876
-0.15532213 0.06023299 -0.13283347 -0.024016228 0.12950723 -0.081405975 -0.13039301 0.082752205
-0.108064376 -0.0784383 0.07241963 -0.08623346 -0.06650629 0.041400336 0.060637772 0.13024807
-0.15580702 -0.08733354 -0.08238606 0.13530569 -0.042741857 0.03083647 0.14889695 0.09191134
0.026041798 0.028086014 -0.16493008 0.011660944 0.096371 0.112249136 0.105043046 -0.104969285
-0.1285264 -0.078627065 -0.029228412 -0.13176872 -0.02085542 -0.042226117 0.18056497 0.15514497
0.09201919 -0.021275565 -0.0008405663 -0.114617586 0.11473097 -0.07352325 0.08022143 -0.002154537
-0.0153742 -0.117584184 -0.12779796 0.12648804 0.1659717 0.017035803 0.029779939 0.050539114
-0.13170968 -0.049447868 0.1229087 -0.12541519 0.0094549 0.03209709 0.0393411 -0.07690569
0.07646365 0.04402627 -0.0032650311 0.06820358 0.08262954 -0.008229581 0.019332748 -0.11102335
0.05509943 0.054523762 0.060570404 0.060362026 0.119176835 -0.04749138 -0.11867909 -0.073336355

lstm.bias_hh_l1 f4 [200]
00000000: 508e 9cbb 6b77 943d 6b4e 6d3d 72b0 5abd
00000010: c3cc 283d ca3b 11be 53f3 fbbc 1733 2c3c
00000020: abac 073e 9a96 2d3e 49fd 44bd 5263 ba3d
00000030: 260e 1d3e a0c9 47b9 848a 2b3d 9647 e7bd
00000040: b45c 0fbe 4567 293e 02e3 e43c e5b0 703d
00000050: 1b0f 05bd 9c08 07bd 3a3f 2d3e 13b9 b63d
00000060: 85e4 843c aa8c 9c3d 21a5 b4bd 46db 1abd
00000070: 1640 06bd b133 6fbd fc45 503c 884f 18be
00000080: bf9d af3c a74c 553e e6d4 d13d 0a78 a4bd
00000090: 8509 cf3d ba63 44bd 9c4b bbbb 75c1 0ebd
000000a0: 9ffe edbc fff5 fd3d 0e6a d4ba 0a99 d5bd
000000b0: 84ff 47bd c582 7cbd 06b2 c0bc f018 f03d
000000c0: 3b26 b13d d1da d83d d231 de3d 8679 a43d
000000d0: f2c1 f2bd e2bb a73c d1cd c3bd 1d2a de3d
000000e0: 223e 92bc 1ab0 b6bd 4b71 983c b8ea 243c
000000f0: af47 b43d 67bf aebd b242 5fbd 24af 15bd
00000100: 6a34 4b3e c57a e73d 9345 033e f880 ac3d
00000110: 7e17 e33a a1fe 71bb 7d6d 183c 5f5a 613e
00000120: f750 263e c9b3 21ba f6e6 d3bd 0ee2 c03c
00000130: 0d1b 68bd 00ac b23d 5c08 cf3c feed fa3c
00000140: d6df 273e 0d39 533d 1652 a03c 4fb3 be3d
00000150: 5259 e6bd e67e e23c 032e 4abd 4a87 a03d
00000160: 9d73 0e3d 0ac0 553d 5b57 66bb 0268 023e
00000170: 8f9b 113e d1ab 68bc 5990 abbb b5b0 163d
00000180: d058 aebd 2548 3ebd 3ad8 8c3c 08ad a9bd
00000190: 3f54 bdbd c1ba c7bd 1628 a7bd 6b96 a63d
000001a0: 7da4 a83d 3972 8abc 25be ecbd 9677 e9bd
000001b0: 30af 14bd d271 d1bd 9743 6b3d 93f4 fc3d
000001c0: 4dc6 5bbd d1d2 88bb b0d5 9d3d 8c45 be3d
000001d0: 7015 78bd 3c07 ac3b 59f7 e3bd ac92 2e3d
000001e0: 7726 9ebd 784e 513d 76a8 16be 0fbd 943d
000001f0: d7e0 c0bd 5740 98bd ad3a febd 0770 5e3c
00000200: 6070 bbbc 74e6 983d e605 1f3e d5c1 cbbc
00000210: 9541 b33c 3963 96bd 220e 003e dd21 9b3c
00000220: e61c 873d 6358 043e c403 c8bd 08c9 313d
00000230: cea5 613d a1f6 0bbe 9e03 cb3d 6273 043e
00000240: ac42 b1bd e1a0 78bc bce4 a83d ac38 273e
00000250: f55f d83d dc46 123e a857 98bb 370d 953d
00000260: 473e c9bc 2249 9abd 1f1c bbbd 0b0a d03d
00000270: 6f21 153d f398 6fbc ba1c 57bd f382 4dbd
00000280: 81fe 473d a340 abbd 9496 84bd d2e8 643c
00000290: ecd4 16bd 8c71 0b3d 542f 0abc 41a1 0b3e
000002a0: 6f14 32bc 23fc f53d 0a49 8d3d 01b9 2c3e
000002b0: e788 bd3d 82b8 a7bd 0501 92bd 32f9 c5bc
000002c0: 6230 05be c371 52bd 5976 8cbb c50c a53d
000002d0: b7f1 aa3d c67e c03d eefd f1bd 25b5 d13d
000002e0: 1105 39bd 801c 1d3d d6e1 ef3c f54f 6a3d
000002f0: 1f3a 58bd 7819 653d 7059 9b3d e0d7 eabd
00000300: de4f 2a3e d10c 6bbd 2645 33bd 6aa4 bd3d
00000310: c30e 023c 6280 dd3d a4e0 bbbd 637d ae3c
-0.004777707 0.0724934 0.057936113 -0.053390928 0.0412109 -0.14182964 -0.030755674 0.010510228
0.13249461 0.16951981 -0.048093114 0.09100975 0.15337428 -0.0001905323 0.041880146 -0.11292951
-0.14000207 0.165433 0.027940277 0.05876245 -0.03248511 -0.032967195 0.1691865 0.08922019
0.016222248 0.07644017 -0.08820558 -0.03780677 -0.03277596 -0.058398906 0.012711998 -0.14874089
0.021437524 0.20830022 0.10245685 -0.08030708 0.101092376 -0.04794667 -0.0057158004 -0.034852464
-0.029052077 0.12400436 -0.0016205923 -0.104295805 -0.048827663 -0.06164815 -0.023522388 0.117235065
0.0864987 0.10588611 0.10849346 0.08030991 -0.118533984 0.020475332 -0.09560741 0.10847876
-0.017851893 -0.089203075 0.01860871 0.010065727 0.08802735 -0.08532601 -0.054506965 -0.03654398
0.19844213 0.11302713 0.12819509 0.08423036 0.0017325727 -0.0036925452 0.009303448 0.2200713
0.16241823 -0.00061684527 -0.10346787 0.023545291 -0.056666423 0.08724213 0.02527254 0.030631062
0.1639398 0.05156808 0.019570392 0.09311544 -0.11247505 0.0276484 -0.049360286 0.07838304
0.034778226 0.052185096 -0.0035147283 0.12734988 0.14219497 -0.0142011205 -0.0052357134 0.036789615
-0.085130334 -0.04645552 0.017192949 -0.08284956 -0.09244584 -0.09752417 -0.08161943 0.08134159
0.08234499 -0.016900169 -0.11559705 -0.11399762 -0.036299884 -0.102267876 0.057437506 0.12351336
-0.05365591 -0.004175522 0.07706773 0.09290609 -0.06056732 0.005249886 -0.11131162 0.042620346
-0.0772218 0.051100224 -0.147127 0.072626226 -0.09417885 -0.07434147 -0.12413535 0.013576514
-0.022880733 0.074658304 0.15529594 -0.0248727 0.021881858 -0.07343144 0.12505391 0.018937046
0.06597309 0.12924342 -0.09766343 0.04340461 0.055089764 -0.136683 0.09912799 0.1293464
-0.08655295 -0.015175075 0.082467526 0.16330212 0.10565177 0.14284843 -0.0046491213 0.07277911
-0.024565829 -0.0753348 -0.09136223 0.101581655 0.036408838 -0.014623868 -0.05251763 -0.05017371
0.0488267 -0.08361938 -0.06474033 0.013971524 -0.036824152 0.034043834 -0.0084341355 0.13635732
-0.01086913 0.12010982 0.06898697 0.16867448 0.09254628 -0.08189489 -0.07129101 -0.024166677
-0.13006738 -0.051378023 -0.004286569 0.08059076 0.08346885 0.0939918 -0.11816011 0.10239629
-0.045170847 0.038357258 0.029282492 0.05720516 -0.052789804 0.055932492 0.07585418 -0.11466956
0.1663203 -0.05738527 -0.043767117 0.09259875 0.00793809 0.10815503 -0.09173706 0.021300023
