process/modelo_lstm.pt (torch, 561906 bytes, 12 tensors)

lstm.weight_ih_l0 f4 [400, 4]
00000000: 68e1 8bbd 4294 41bd 9995 b93d cd3f aebd
00000010: 2b3a 613c 332e 3d3d 9fa3 b7bd 2161 87bd
00000020: bdda 363d 285d c63c 56f4 18bb d525 8ebb
00000030: 70cd e6bc 61df 2a3c 2520 04bd 6e98 b1bd
00000040: f4b5 f3bb 38a8 43bd 2ce1 e03c d460 cd3d
00000050: 43ec f9bc b1ad 283d e100 293d f930 9d3d
00000060: 1677 813d 114e 84bd fc88 963d b182 243d
00000070: 8764 2f3d 609d 103c 3185 9ebd b03c 4d3d
00000080: 531a ff3d 43ba 553d 2a06 39bd f18c 28bd
00000090: cfa0 6b3d fbb6 55bb ffdb 8dbc 7bb8 e03d
000000a0: 37da da3c 9512 583d 48c6 61bd b758 eebd
000000b0: 4543 8dbd 7c1a 233d a5aa cabd 8a3c 97bd
000000c0: 75ee 9dbd dcca e63c 6399 3c3d 7eca b93d
000000d0: 1d14 e73c 7d61 6d3d 8942 f4bb 7008 e33d
000000e0: 5aed 773d df30 01bd 2075 2d3d 674a 153d
000000f0: 2896 75bc 3b06 98bd 803e e73b cb96 abbd
00000100: 8605 29bd f30a c3bb 2011 9c3c f4d9 003e
00000110: d402 a7bc 5e51 c03d 23b8 9f3c beff 2e3b
00000120: c599 0fbc 0c37 5abd 7dd8 99bd d467 84bd
00000130: eb0b 6ebd 644d bfbc 7488 b13b 0edd d8bd
00000140: b6ba 573d f48d 9c3c 396a b13d 6e04 643d
00000150: 7f09 4bbd 609f 893d 5682 2ebd bcf9 8f3d
00000160: 2c77 35bd b83e ec3d 2471 b33d 7848 323c
00000170: b6ba 9a3d 421d 8abd 5099 ce3d 3992 1e3c
00000180: 9930 e23b 1426 bf3d 8c22 ea3c 7368 dc3b
00000190: fbce c9bd 0463 86bc fc9d a8bc 7426 f4bc
000001a0: ee6f 253d 6b14 8e3b a16c bf3d 41f7 aebc
000001b0: f708 9e3c 6ff5 cebd 41c5 e23c d87d 2abd
000001c0: 511e b43d 461c fd3c dfe4 02bd e6e3 b03c
000001d0: a18f 87bc dcc3 45bd ca53 9e3d c359 cc3d
000001e0: 5b56 d0bb 6ac6 7ebd 17cf 283d e1fe a93d
000001f0: 63b9 b8bd a456 b7bd 4bcf afbd a9f9 853c
00000200: 5a32 86bd edfd 7f3d e3a3 cf3d a552 583d
00000210: 005f 993d b09f d33c 63c2 943d 38e3 31bd
00000220: 02e0 883d 7709 8ebd c36f 5439 e15f 493d
00000230: d50f 613d 9064 d03c c910 60bd dd9c 643d
00000240: e28e 083d 926b 5d3d 1b45 b93d d000 5d3c
00000250: 9f45 a53d 9df4 f9bc e2c1 743c 49e5 b13a
00000260: 221e 503d 13cc a63d 0fe1 9d3d f93c bb3d
00000270: ef48 783d 328c 483d 2f49 bf3d e93d 3bbd
00000280: 8f50 5ebd 0602 813d a0e6 a33d e0c9 a43c
00000290: d826 96bd 6fd4 d7bd 4837 9abd 3d0c 7f3d
000002a0: b640 18bb e952 7d3d 61ca 9abb 9516 003d
000002b0: 4e8b 453d 1ca0 1b3d fab8 43bc 293e c03d
000002c0: 6969 b6bd 12af 813d 9ad7 debd ed56 89bd
000002d0: 7243 133d 7c35 d63c 6244 093d e656 533d
000002e0: 0cd8 cb3d 04af 483d 6423 94bd ce53 3bbc
000002f0: 6235 9d3c 9e94 38bd d187 ae3d 004e 333c
00000300: 8286 713d b028 583c b6d9 3c3d 74c9 d83c
00000310: 9252 7c3d 81af 923d 0b71 963d 27f7 67bd
00000320: ad9d 06bd 3906 ed3d 1b6d 75bd e7bb 193d
00000330: b143 bcbc 3e75 be3c 359c f63c d40a f7bd
00000340: ba7a 90bd b73b 493d 19e3 e93d d823 18bd
00000350: 87a7 84bd 9501 4dbb 7a95 b6bd da23 c3bd
00000360: c874 c43d b1ea c9bd b268 c7bd 7b31 903a
00000370: ad6f 8b3d c05b 9abd c88d efbb ee21 703d
00000380: 4afb 323d c649 623d a376 b43d 409c 253c
00000390: 27f5 c73d 30ac ba3d 4f0d 9bbc a0df 8ebd
000003a0: b8de 653d ecfb 69bd 5496 f03d 3204 053d
000003b0: 6890 d13d 8a22 e63c 09a3 53bd 7cbf cb3d
000003c0: 9671 30bd 9259 693c 43b7 ae3d f41f af3d
000003d0: bd48 cbbd 0fe7 cbbd 0a42 033d fad4 203c
000003e0: 3a4b 963d 0df9 0c3d 7984 83bd 3539 193c
000003f0: fcd3 2e3c c2c2 8b3d 1935 85bd 96cb dc3d
-0.06830102 -0.04726053 0.090617366 -0.08508263 0.0137467785 0.046186637 -0.08966755 -0.06610323
0.0446422 0.024214342 -0.0023338995 -0.004338006 -0.028174132 0.010429234 -0.032257218 -0.08671652
-0.007437462 -0.047767848 0.02745112 0.10028234 -0.030508166 0.04118127 0.041260604 0.076753564
0.06321542 -0.064602025 0.073503464 0.0401637 0.04282048 0.008826584 -0.07740248 0.050106704
0.12456193 0.052179586 -0.045171894 -0.041150037 0.057526406 -0.0032610286 -0.017316816 0.10972687
0.026715381 0.052752096 -0.055120736 -0.11638015 -0.06897596 0.03982018 -0.09895829 -0.07384594
-0.07711498 0.028172903 0.04604472 0.090718254 0.028207833 0.0579543 -0.0074542207 0.11085594
0.06052909 -0.031540748 0.042348027 0.03644791 -0.014989413 -0.07423063 0.007057011 -0.08378371
-0.041265033 -0.005952233 0.019051135 0.12583143 -0.02038709 0.093905196 0.019496983 0.0026702727
-0.008764689 -0.053275153 -0.07511995 -0.06465116 -0.058116835 -0.023352332 0.005417878 -0.10589038
0.052668296 0.019110657 0.086628385 0.055668287 -0.049569603 0.067198515 -0.042604767 0.07030055
-0.044303104 0.115354 0.08761814 0.010881536 0.075551435 -0.06743862 0.10087836 0.009678417
0.006902766 0.09333435 0.028580926 0.0067263185 -0.098539315 -0.016404636 -0.020583145 -0.029803492
0.040389948 0.00433593 0.09346891 -0.021358134 0.019291384 -0.101054065 0.027681949 -0.04162392
0.08794845 0.03089727 -0.03195655 0.021593045 -0.01654798 -0.04828249 0.07730825 0.09978058
-0.0063579506 -0.06220094 0.04121312 0.083005674 -0.09019735 -0.08952072 -0.0858446 0.016354399
-0.065525725 0.062498022 0.10138681 0.05281319 0.07488823 0.02583298 0.07263639 -0.043429583
0.06683351 -0.06935399 0.0002025953 0.049163703 0.05494674 0.025438577 -0.054703508 0.05581366
0.03333939 0.054057665 0.09046384 0.013488963 0.0806992 -0.030512149 0.014938803 0.0013572361
0.050809987 0.08144393 0.07708942 0.09142489 0.06061643 0.048961826 0.093401305 -0.04571334
-0.054276045 0.06299214 0.080029726 0.020115793 -0.073316276 -0.10538565 -0.07530075 0.06226753
-0.002323193 0.061846647 -0.0047238325 0.031271536 0.048228554 0.03799449 -0.011945957 0.09386856
-0.08906824 0.0633222 -0.108809665 -0.06706033 0.035952993 0.02614855 0.03351248 0.051596545
0.09953317 0.048995033 -0.07233313 -0.011433555 0.019190494 -0.045063607 0.08521999 0.01094389
0.058966167 0.013193294 0.046106063 0.026463248 0.061602183 0.07162381 0.0734578 -0.056632187
-0.032865215 0.115734525 -0.059918504 0.037532713 -0.022981497 0.023249265 0.030103782 -0.12062612
-0.07054658 0.049129214 0.114202686 -0.03714356 -0.06477266 -0.003128146 -0.08915229 -0.095283225
0.09592587 -0.09859217 -0.09736766 0.0011001074 0.0680841 -0.07537031 -0.007310603 0.058626108
0.04369668 0.055246137 0.08811691 0.010108054 0.09763556 0.091148734 -0.018927244 -0.06976247
0.056120604 -0.057125017 0.11747423 0.032474704 0.102326214 0.028092641 -0.051669154 0.09948632
-0.043077074 0.014242547 0.08531048 0.085510164 -0.09925983 -0.0995618 0.0320454 0.009816403
0.07338567 0.0344172 -0.064217515 0.009352018 0.010670658 0.068242565 -0.06504268 0.107810184

lstm.weight_hh_l0 f4 [400, 100]
00000000: ad50 55bd ffd9 8e3d 26d4 8ebc 0ae3 5fbd
00000010: e02c 973c ffa4 833d 550d 1ebd 10e8 c2bd
00000020: 8891 a0bd ee13 033d af67 b23d 0d4e a6bd
00000030: 7ccd 0fbd 962e 223d 46ad 1a3d 23c4 9e3d
00000040: 0eb5 91bd 6610 353d 6b94 ae3d 95f4 8dbd
00000050: e665 5bbb f452 af3c 3308 b63d 285a 24bd
00000060: d3fe 8b3d 852c b5bd ae6e 893c 7cc3 14bd
00000070: 2574 9fbd a367 7dbd 1e70 ccbb dbb1 95bd
00000080: 1493 cdbc a52b c3bd cace e53c c0cf 89bc
00000090: 23c5 a4bd 9021 81bd 4d34 a8bd 0331 9ebd
000000a0: 0035 47bb a2f4 113d e1c5 c33d 8e21 5a3d
000000b0: c216 503d d003 523c be9e 85bb 39b0 af3d
000000c0: 407f 6ebd 0666 753d 683b 6fbd 0bc1 b0bd
000000d0: 19fe 733a 2f42 a43d e859 613c f1e7 8f3d
000000e0: 5aa6 84bd dc46 0abd 9a87 183d abd9 c03d
000000f0: aa1e 583d 720d 313d 0c75 bcbd 8024 b33c
00000100: e600 09bb 718a a03d 681b a0bd 06a1 a0bc
00000110: 0a60 1f3d 2126 963d 7884 b7ba e847 89bc
00000120: c0bf 9cbd 0222 aa3c f8b0 2ebc 52f5 cd3c
00000130: 0114 bbbd 19fb 1c3b 80ee 49bd cdcc cb3d
00000140: 2029 e03b aac9 323d e04d a33c 035c bf3d
00000150: 60bb 18bd 0d8c 26bd 532d a93d 0093 353b
00000160: cdf7 bf3d b16c 853d ba65 15bd ee7b 8cbd
00000170: d908 3c3b 5dc7 55bd 3f66 9dbd f177 ca3d
00000180: 865c 933c 1a02 99bd 26cb 9ebd bb9f ab3d
00000190: 8591 c5bd 9227 3a3d 26ba 0bbd 43e3 853d
000001a0: 53a8 b2bd 849c cb3c 4173 7ebd 50ee 3bbd
000001b0: 7fb5 603d 78c1 183c ff67 84bd 81a8 c43d
000001c0: 7c30 9cbd 863b a2bc 0edf 263d 823c 603d
000001d0: 6842 46bc eca4 b1bc cc49 933c 7038 16bd
000001e0: 5dc1 76bd d03a d4bb 6a2a 0bbd 21a6 b63d
000001f0: 94af 81bd 4044 4b3b 15f7 2d3d 3a09 633d
00000200: b9b0 c63d 9586 923c 4a2b 0c3c c0be ab3a
00000210: 75d7 473c 2424 4b3d 15e5 1d3d 1f3e e0ba
00000220: 747b 8a3c f0f2 1c3c 0db0 a1bb 533b d53c
00000230: 0ac2 86bd 9a1e 4b3d d09b 7b3d 642d cb3d
00000240: 305e 22bd 5dbb 5a3c 4d2f 3ebd e7a7 c0bd
00000250: 7abf a8bd fb85 3bbd 922b 803d 91f7 99bb
00000260: e223 babd 6022 7e3b 8c6c 9fbc da41 acbd
00000270: c73d 583c c131 31bd 79a8 04bc 4a33 8a3d
00000280: e3a0 613d 283b 99bc 675c bbbc d929 8a3d
00000290: 7040 56bd 9818 6ebd a9d7 c93d 42f2 8abc
000002a0: aa2d 873c 424f 093d e512 00bd 0dcb 52bd
000002b0: f996 42bd 3a35 a33d 059e 5c3d f5ec 943c
000002c0: 104c d33c 3c21 42bd baf0 6e3d afbc 4abd
000002d0: f3f4 aebd a1b6 38bd b525 09bd e8e3 673c
000002e0: 62bd 323d cb9b 793d 97da 413c 62f3 b3bd
000002f0: b28a 5d3d 3ab4 cabd e8f6 303c a1ea ba3d
00000300: d4c9 c83d 96ce 4abd 8eeb 183d b2fb aabd
00000310: 28d0 91bd 62f5 733d c191 543b 3bcb 2f3d
00000320: 3d2c a5bd ebeb b83b 9c36 6abc 7cfa 153c
00000330: 6048 34be 409f abbc c5be f73d cb09 9f3d
00000340: 25d0 f0bd 830f 933d 0427 b43c 26ae 2f3d
00000350: ecad babd d28a f0bb 0c7a 05bd 578f bebd
00000360: 0e36 6e3d e99d e73d 80d0 9d3d fbfc 2dbd
00000370: 38d1 e03a cf70 493d 7f9a 113e 54ec 35bd
00000380: cd61 a7bd a09a 51bc b535 aa3e 5b98 bfbd
00000390: 33a1 f2bd 4338 993d e7f2 b63d 9d48 73bc
000003a0: f8ff b63d 1f02 13be bb60 29bd b03e 293c
000003b0: 9703 acbd 60f1 5d3d a113 6a3d be3c c7ba
000003c0: 67a5 37bc c436 a239 af67 d3bd 6b10 c7bc
000003d0: 4b37 0fbd 71ff d23c 7f2b dd3c 1bdd 84bd
000003e0: e56a 31bd 54ea 9ebc 7ca3 9abe 8fb1 10bc
000003f0: 011f df3d 2e01 9ebd 5ab8 5abd a94d ba3d
-0.05207889 0.06975173 -0.017435145 -0.05465988 0.018454015 0.06427955 -0.038586933 -0.09516919
-0.07840258 0.03200143 0.08711182 -0.08120356 -0.035108075 0.03959521 0.037762903 0.07752254
-0.071146116 0.044205092 0.08524402 -0.06931416 -0.0033477484 0.02140186 0.088882826 -0.040125042
0.06835713 -0.08846382 0.016776409 -0.03631924 -0.07785825 -0.061866414 -0.0062389513 -0.07309314
-0.025094546 -0.09529809 0.028052706 -0.016822696 -0.08045413 -0.0630523 -0.082131006 -0.07724192
-0.003039658 0.03563369 0.09559227 0.053254656 0.050802954 0.012818292 -0.0040777614 0.08578534
-0.058226824 0.05991175 -0.058406264 -0.0863057 0.0009307578 0.08020436 0.0137543455 0.07026661
-0.064770415 -0.033758983 0.037238695 0.09416517 0.05276362 0.043225713 -0.092020124 0.02186799
-0.0020905077 0.078389056 -0.07817727 -0.019608032 0.03890995 0.07331491 -0.0014001271 -0.01675792
-0.07653761 0.02076817 -0.01066231 0.025141392 -0.09134675 0.0023953377 -0.049299717 0.09951172
0.00684084 0.043649353 0.019934595 0.09343722 -0.03728807 -0.040660907 0.08260598 0.0027706027
0.09373436 0.06514872 -0.036473967 -0.06859575 0.0028691797 -0.05219208 -0.076855175 0.09886158
0.017988455 -0.07471104 -0.07753591 0.083800755 -0.09646896 0.045447893 -0.03411307 0.06537487
-0.087235115 0.024854906 -0.062121633 -0.04588157 0.05486059 0.00932347 -0.06465148 0.09602452
-0.07626435 -0.019803774 0.040740065 0.054745205 -0.012100793 -0.021685086 0.017979525 -0.036674917
-0.060243 -0.0064767376 -0.033975996 0.08918405 -0.06332317 0.0031016022 0.042471964 0.05542872
0.09701676 0.01788644 0.008555243 0.0013103113 0.012197365 0.049595013 0.038548548 -0.0017108357
0.01690457 0.009579405 -0.004934317 0.026029265 -0.06579979 0.04958973 0.06142789 0.09920767
-0.039640605 0.013350335 -0.04643183 -0.09407025 -0.08239646 -0.04578207 0.062583104 -0.0046987017
-0.09088875 0.0038777813 -0.019460939 -0.08410998 0.013198323 -0.04326034 -0.008096808 0.06748064
0.055085074 -0.018704966 -0.02287121 0.06746263 -0.052307546 -0.058128923 0.09855587 -0.01696122
0.016501267 0.03352285 -0.03126802 -0.051463176 -0.04750726 0.079691365 0.053861637 0.018179396
0.025793105 -0.047394976 0.058335043 -0.04949635 -0.08542814 -0.045096043 -0.033483226 0.014153458
0.04363764 0.06093959 0.011831901 -0.08786656 0.05408735 -0.09897657 0.010801055 0.09126783
0.09804121 -0.049513422 0.037334017 -0.08348788 -0.07119781 0.059560187 0.003243551 0.042918425
-0.080650784 0.005643358 -0.014295246 0.009153958 -0.17605734 -0.02094996 0.12096933 0.0776554
-0.117584504 0.07180693 0.02199126 0.04289069 -0.09115204 -0.0073407674 -0.032587096 -0.09304684
0.05815702 0.11309416 0.07705784 -0.04247759 0.0017152196 0.04917985 0.14219092 -0.044414833
-0.08172951 -0.012793213 0.332441 -0.093552314 -0.118471526 0.07481434 0.08933049 -0.014848855
0.08935541 -0.14356278 -0.041352015 0.010329887 -0.08399122 0.05418527 0.057147626 -0.0015200598
-0.011208869 0.0003093985 -0.103225105 -0.02429982 -0.03496484 0.02575657 0.02699828 -0.06487485
-0.043314833 -0.019398846 -0.30202854 -0.008831396 0.108945854 -0.07715069 -0.053398468 0.09096844

lstm.bias_ih_l0 f4 [400]
00000000: 0611 aabc cc59 233d 05b4 9c3d b88f 4c3d
00000010: 13df 873d fd4c 093d 7828 ea3c 2ec0 c6bd
00000020: a8b0 573d 556b a23d dd65 433d 03b8 8f3d
00000030: 6475 92bd f911 653c 7c9d 69bd 804a 38ba
00000040: 573a 023e f181 acba b647 b3bd cec5 debc
00000050: 301d c3bd 1a28 7e3c 6826 8ebc 57e1 093d
00000060: ad5e bf3d 1582 9c3d 5b0d d73d 3c23 e4bc
00000070: 2936 8cbc 8e2f 91bd 22f2 023d e0d3 d6bd
00000080: f722 bc3d b811 5e3d eda7 c33d 039c 81be
00000090: 604e 8cbb bb66 003c c0dd 89bd 34fc aabc
000000a0: c6d3 9a3d 8746 93bd 245c 63bd 1eb7 33bd
000000b0: b07d c13d 81e2 ab3d ff14 10bb ba75 4abb
000000c0: ec18 87bc 4031 3dbd dfec ec3d 4072 76bd
000000d0: c58d 0cbe 9dc3 953d 11ce be3d c3ad 90bd
000000e0: b366 ac3d c819 41bd 6976 32bd e25e 8b3d
000000f0: 1984 e53a 17e6 40bd 00e5 153d 2b07 a83d
00000100: 8bfa 98bd 3690 a4bb 0db7 9f3d 98b0 c03b
00000110: 10f1 95bd 6d25 1fb9 593e 30bd ca02 d5bc
00000120: 14c2 e43c 19b6 a93d 2718 4cbd 9192 ba3d
00000130: b033 68bc a092 0b3d 6026 b3bd 4e7d 55bd
00000140: f78f 42bd c0c8 3bbb bfe6 a9bd 0f8e 963d
00000150: 1aef 2a3d e415 05bd 98e8 933d 9c46 01bd
00000160: fc99 94bc 1562 fd3d 92a3 593d d9ff a1bd
00000170: 58ee b13d 8832 50bd d2f0 93bd 6f2b 583d
00000180: aa77 3537 0a0a b33d e39d a93d 7347 193d
00000190: 709c 77bc e234 f0bb 6736 6dbd d4b2 a83a
000001a0: c14d c43d effe e63d 698f a13b c172 c93d
000001b0: 70d9 743d 0be8 953d ab12 63bd 80b0 8b3a
000001c0: cba4 063d 9b3d 8a3d 2019 1f3c acaf 8f3c
000001d0: abe3 ea3d f156 063e b2c5 a8bb 6ca3 b03d
000001e0: c88f d93d 6cd0 993d 8c93 013d e084 293d
000001f0: 0233 30bd 25f3 7dbd ccf3 1c3d 704e 87bd
00000200: 107b 89bd 0611 b4bd 2058 21bd 3b18 98bd
00000210: 02d7 38bc a28b a5bd 6d48 b93d 8c12 9dbd
00000220: 5606 23bd a8aa 003d 6f7c a2bc 0273 f83d
00000230: 5743 c8bd 51a0 ba3c 4038 243d 6b06 0a3e
00000240: 1ce8 8bbd b8d9 963d cc40 b53d a508 883d
00000250: 0406 b43d 4a1f 4e3d b42d 953c b2b8 da3c
00000260: 1a21 2c3d 0a91 5fbd c6e5 383d 9f56 c2bd
00000270: 4b1e 94bd 8b86 f3bc 394c 723d 9953 b83b
00000280: 3440 7f3d ada0 2bbd 55c9 0c3d a043 bf3c
00000290: d8f8 9b3d 4b35 6d3c 1769 ccbd 0b17 61bd
000002a0: b306 d23d 3dbb 03bd f5c6 01bd 6041 4bbd
000002b0: 81f4 893d 9682 d03d 1688 89bd f127 033e
000002c0: ebed 2dbd 6617 88bc d424 2dbb f65b 7dbc
000002d0: b4ea a7bc 0515 4abd 9efc 8d3d 9512 aa3d
000002e0: e8bb 203c f19a 633d f57a 79bd 3376 3fbd
000002f0: 01fc b0ba d8eb 213d 339b a63d 94a0 c03c
00000300: 5c7a 31bd d754 d03d 163b 14bd c5a1 5a3c
00000310: 76bf 473d 4ee0 653d 97c5 a3bd f4c4 f93d
00000320: f200 783d 42ad 4e3d c857 dbbc 8b63 98bd
00000330: a0ae 2c3b 3a2b d9bb d340 d93c b22f 323d
00000340: 0916 06bc 5821 b1bc 8a03 3bbc 7d4b b9bd
00000350: fc1f b1bc 1f0a b23d 68c6 1d3c 95f2 81bd
00000360: 00ec 0f39 9089 b9bd 148c ea3c a2b5 cf3c
00000370: afbd 873d cac3 7dbd 67cc 23bd 5ba2 653d
00000380: 40e3 bebd 3a1a 003d 028a 6a3d fd66 8abd
00000390: 3730 36bd 6ab3 69bd d6a0 383d 1bac 99bd
000003a0: e3c9 a1bd 0894 a1bc cf19 65bd 4038 53bb
000003b0: 1ad1 01bd a4cd 3d3d 8ac4 513d 0394 ba3d
000003c0: f218 a53c 5610 f63c 240d 653d aa95 acbd
000003d0: 2139 453d 02e8 0e3d 3ea5 253d 236d 663d
000003e0: 7a58 8cbd 084a 8fbc 8322 ba3d dbe0 a23d
000003f0: eaba 5e3d e7d3 c83d 708d 7e3c f7e7 e03c
-0.02076007 0.03988056 0.076515235 0.04994175 0.06634345 0.033520687 0.02858375 -0.09704624
0.052658707 0.07930628 0.047704566 0.07017519 -0.07151297 0.013981336 -0.057034954 -0.00070301443
0.12717567 -0.0013161284 -0.08753912 -0.02719393 -0.095270514 0.015512491 -0.017352298 0.033662166
0.0934423 0.07641999 0.10500594 -0.027848832 -0.01711567 -0.070891485 0.031969197 -0.10489631
0.091863565 0.054216117 0.09553514 -0.2531434 -0.004281804 0.007836993 -0.067317486 -0.020872213
0.07559924 -0.071911864 -0.055507794 -0.043875806 0.09447801 0.083928116 -0.002198517 -0.0030892924
-0.016491376 -0.046189547 0.11568617 -0.06016755 -0.13725956 0.07312701 0.09316648 -0.070643924
0.08418026 -0.047143728 -0.043569956 0.06805207 0.0017510682 -0.04709443 0.036595345 0.08204492
-0.07469662 -0.005022074 0.07798586 0.0058804266 -0.0732137 -0.00015177364 -0.04302821 -0.026002306
0.027924575 0.082866855 -0.04982772 0.091099866 -0.0141724795 0.03407538 -0.08747554 -0.052121453
-0.047500577 -0.0028653592 -0.082959644 0.07351314 0.04173193 -0.03249158 0.07222098 -0.03156148
-0.018139832 0.12372223 0.05313451 -0.07910127 0.086880386 -0.05082944 -0.07223667 0.052775797
1.0816302e-05 0.08742149 0.082820676 0.037421655 -0.015112981 -0.007330523 -0.05791321 0.0012870678
0.09585143 0.112790935 0.004930426 0.09836341 0.059777677 0.07319649 -0.055437725 0.001065746
0.032872003 0.067500316 0.00971058 0.017539822 0.114692055 0.13119103 -0.0051505202 0.0862492
0.10623127 0.075104564 0.031634852 0.041386485 -0.043017395 -0.06199946 0.03831844 -0.06606758
-0.067129254 -0.087923095 -0.039390683 -0.074264966 -0.011281731 -0.080832735 0.09047017 -0.07669553
-0.039800964 0.03141275 -0.019834725 0.12131311 -0.09778469 0.022781523 0.040092707 0.13479011
-0.06831381 0.07365745 0.0885025 0.06642274 0.0879021 0.05032281 0.01821027 0.026699398
0.042023756 -0.05458168 0.045141004 -0.09489178 -0.072323404 -0.029727241 0.059154723 0.0056252
0.06231709 -0.04190128 0.034371693 0.023347676 0.076158226 0.014478038 -0.09980982 -0.054953616
0.10255184 -0.032160986 -0.03168388 -0.049622893 0.067360885 0.10181157 -0.067154095 0.12808205
-0.042463224 -0.01661272 -0.0026419656 -0.01546382 -0.020497657 -0.049336452 0.069329485 0.083043255
0.009810425 0.055567686 -0.060908277 -0.046743583 -0.0013502837 0.03953156 0.08135071 0.02351407
-0.04332958 0.10172432 -0.03618916 0.013344233 0.048766576 0.056122117 -0.07996672 0.12195769
0.060547777 0.0504582 -0.026775256 -0.07440861 0.0026349202 -0.0066274675 0.026520168 0.043502517
-0.0081839645 -0.021622345 -0.011414418 -0.09047601 -0.021621697 0.08693337 0.009629823 -0.06345097
0.0001372546 -0.09059441 0.028631248 0.025355164 0.06627976 -0.061954297 -0.039989855 0.056063037
-0.09320688 0.03127501 0.05726052 -0.06757925 -0.044479575 -0.05705587 0.04507526 -0.0750353
-0.07899835 -0.019723907 -0.055932816 -0.0032229573 -0.031693555 0.046338692 0.051212825 0.09110262
0.020153496 0.030037086 0.055920735 -0.08426984 0.048150185 0.03488923 0.04044079 0.056256425
-0.06852813 -0.017491356 0.09088614 0.07953044 0.054377474 0.09806042 0.015536651 0.02745436

lstm.bias_hh_l0 f4 [400]
00000000: 2eaa d2bc 6e61 2fbd 5eca d53d 1999 44bd
00000010: 7e81 733d 522e 273d 5a48 7b3b eb25 f6bb
00000020: 6258 653d ae79 d63d 6169 a73c 1a5c a8bd
00000030: c544 c7bc a7c9 8b3d fab5 bfbd 328e 223d
00000040: d71c f33d ad4d d83d f426 8b3c fbb0 97bd
00000050: a081 88bc e12c 023d 7bc3 aa3b d0ac 79bd
00000060: 1bf5 ac3d c9fd c03d 4f3f 0e3a 1860 88bd
00000070: 00d5 34bc 0c9e d0bc 526a 04bd 7e98 073d
00000080: 15da 18bd 2adb e43d e238 c83c 1184 92be
00000090: 6fd5 8c3d 1f51 99bb 8daf 51bd 36ac 013e
000000a0: 4087 20bd 2b5e 5e3a 744e 6d3d f692 97bd
000000b0: 9259 36bc 40ac 573b 64dd 73bd eaac 573d
000000c0: f979 a13d f12e 8d3d 790b e43d f1fc 373d
000000d0: abee 27be 1dda 75bd ee44 243d 443c d53c
000000e0: 8d77 31bd 76cd b43d d4d7 303d 5dfe 9bbd
000000f0: 47e5 dd3b c92a b23d 0b59 023e 3ef7 e63d
00000100: 87d7 0ebd e7e9 78bd cafc 083d e770 f73d
00000110: cde9 853d 77a6 c33c e1c0 b53d 03f7 a7bd
00000120: 3df6 ab3d 5183 993d 4f8b 8ebc 3f67 6cbb
00000130: c4a2 2e3d fcb5 093d 8c0d 7339 33ac 6f3d
00000140: 9799 933d bf1d c1bd 90c7 f03b 6839 63bd
00000150: 73cf 8f3d 6152 b53b ad63 273c 27a5 67bd
00000160: 6da0 0d3d db1f 943d 7009 173c be02 ac3c
00000170: c188 113d 4719 babd 17d4 b8bd ef15 95bd
00000180: f2e2 d73d 171d 54bb 5c80 cf3d d7ec 723d
00000190: bad2 acbd d17e 8d3d 653c b2bd 3eb9 d73c
000001a0: bd26 b83c 9ccb 943d ae26 19bc a693 00bd
000001b0: c30e 0dbd 0fe1 c8bc 7b48 0ebd 850b cc3d
000001c0: a026 253c a06d e13b ea1d dc3c 81ec ca3d
000001d0: 9d70 b63c 81db fe3d 9a8c c7bc 1acd cb3d
000001e0: 8f45 493d d3e7 3d3b e7de a93c b6bc 0f3d
000001f0: e4f7 77bc 7145 c9ba e734 cfb8 ddd9 8dbd
00000200: 6598 9a3c 9528 653d cb41 11bc 86e8 253d
00000210: 84e0 053e 85ee b2bd e4cb 2dbd 1c63 883d
00000220: 24cd 8ebd 43c6 983d 14f2 db3c 2ea8 493c
00000230: 0cac c6bc 0f03 dfbc 381f 683d 619e 893d
00000240: 89df c23d 902b 8b3d b5ff 103d d8b9 a03c
00000250: 48e1 8b3d 2c20 cf3b 13b6 9d3d f953 a5bd
00000260: 50c3 a1bd 0c33 b93c e12a 933d e1eb b13d
00000270: 40b8 c93d 3547 93bd 6bd4 843d 1362 073d
00000280: f50c 8bbd ca7b 23bd 90b0 6bbc e127 4d3d
00000290: 6a28 22bd a62f ed3c d1b9 a03d 12e1 023d
000002a0: c1e8 28bd 2180 653c 51de 763d bc8e 14bd
000002b0: 7940 bdbc 1390 87bd c2f7 bbbb c49b 263d
000002c0: f3f7 17bd 1435 93bb eb6e c0bd a4c1 25bc
000002d0: 7a0c 143d 7789 9abd 8cc9 c5bc fdca b13d
000002e0: 5984 bb3d 2e9d c73d 7eae f5bc 2391 61bd
000002f0: 730e 013e f17e 8fbd 26b0 a1bd 8038 50bd
00000300: 3c47 17bd 3c92 973b 1e53 8ebd 13a6 01bc
00000310: e047 d13c faa2 313b fafb a1bd a548 a1bb
00000320: d02b 6abd 0494 e33c 8a79 7ebd 88a9 353d
00000330: 5a19 6ebd c972 343b 5fcf 5ebc b37d 6fbd
00000340: d5db 2a3c 7326 813d afa3 bdbd ea1f 95bd
00000350: 5dff b6bd a018 babd ce62 86bd 1e24 5f3d
00000360: 2cf9 af3c 6ca0 893c f02f c6bd 5228 c73d
00000370: f28c 7f3d a0f0 543b 992f 943d 7e9b c23d
00000380: 6981 9c3d d837 3b3c 2d9b 87bd 6937 813d
00000390: 8561 bb3d 72dc 713c 79da c53d 3193 813d
000003a0: a01e 29bd 00d8 ce3b 6629 123d 0adb 2a3d
000003b0: 32c5 173d b9f6 acbb f4e9 823c 816c c8bd
000003c0: 1223 773d 085a 58bd c796 f33c 06e7 473d
000003d0: f859 67bd 00a4 d9bc cd28 b03d 8f0e 0abd
000003e0: cf2f 993d 4cf7 88bd 5e01 a8bd 0bfd e93c
000003f0: 0015 7dbd 0063 e03b bb61 ae3d 50fd f63b
-0.025715914 -0.042817526 0.10438989 -0.047997568 0.059449665 0.04081566 0.0038342685 -0.0075118444
0.05599249 0.10472427 0.02043599 -0.08220692 -0.024324784 0.068255715 -0.09360881 0.03968639
0.11870735 0.105616905 0.016986348 -0.07406803 -0.016663373 0.03178108 0.0052112914 -0.060955822
0.08445188 0.09423406 0.0005426304 -0.066589534 -0.011037111 -0.025465988 -0.032327957 0.033104412
-0.037317354 0.11174615 0.024441186 -0.28616384 0.06876647 -0.00467886 -0.05119281 0.1266335
-0.039191484 0.000848266 0.057936147 -0.074010774 -0.011129754 0.0032909065 -0.059537306 0.052655138
0.078845926 0.06893719 0.11135001 0.044918958 -0.16399638 -0.060022462 0.0401048 0.026029713
-0.043326903 0.08828251 0.04317458 -0.07616875 0.0067717168 0.08699567 0.1272928 0.112776265
-0.03487351 -0.06076994 0.033444203 0.12082081 0.065387346 0.023883088 0.08874679 -0.082014106
0.083965756 0.0749575 -0.017400412 -0.0036072282 0.042635694 0.03362082 0.00023179332 0.05851383
0.07207029 -0.09429502 0.0073480085 -0.05547467 0.0702199 0.005533502 0.010216636 -0.056553986
0.034576822 0.072326384 0.009218559 0.020997401 0.03553081 -0.090868525 -0.09024828 -0.07279574
0.10541333 -0.0032365972 0.101319045 0.0593079 -0.084386304 0.06908954 -0.087029256 0.026333448
0.02247941 0.07265398 -0.009347601 -0.03139081 -0.034437906 -0.024521379 -0.03473709 0.09963135
0.01008001 0.0068795234 0.026869733 0.09908391 0.022270495 0.12444211 -0.024359036 0.099512294
0.049138602 0.002897729 0.020736171 0.03509208 -0.015134785 -0.0015355778 -9.880383e-05 -0.0692632
0.018871496 0.055946905 -0.008865784 0.040504955 0.13073927 -0.087369 -0.042430773 0.066595286
-0.06972721 0.074596904 0.02684883 0.012308164 -0.02425196 -0.027223138 0.056670398 0.067196615
0.09515292 0.06795418 0.03540011 0.019619867 0.06830078 0.006320974 0.077007435 -0.08072657
-0.07898581 0.022607349 0.07185913 0.086875685 0.09849596 -0.07191316 0.06485828 0.033052515
-0.06789581 -0.039912976 -0.0143853575 0.05008686 -0.039589323 0.028953385 0.07847942 0.031952925
-0.041237596 0.014007599 0.06027061 -0.036268935 -0.023102032 -0.06619277 -0.005736322 0.040675893
-0.037101697 -0.0044924114 -0.09396156 -0.010116968 0.03614471 -0.075457506 -0.024143957 0.08681295
0.09156103 0.097467765 -0.02999043 -0.055070054 0.12603168 -0.07006634 -0.07894926 -0.050835133
-0.03693317 0.004625587 -0.06949447 -0.00791313 0.025546968 0.0027105198 -0.07909389 -0.00492199
-0.05717069 0.02778054 -0.062127627 0.04435113 -0.058129646 0.0027534238 -0.013599246 -0.058469485
0.010428389 0.06306162 -0.09259736 -0.07281478 -0.089354254 -0.09086728 -0.06561814 0.054477803
0.02148112 0.016800128 -0.09677112 0.09724487 0.062390275 0.0032492056 0.07235641 0.09502314
0.076418705 0.011426888 -0.06621394 0.06309397 0.0914946 0.014762031 0.09660811 0.06326903
-0.041288972 0.0063123703 0.035684012 0.0417128 0.037053294 -0.005278435 0.015980698 -0.097863205
0.06033618 -0.052820235 0.029734982 0.048804305 -0.056482285 -0.02656746 0.08601532 -0.03370529
0.07479822 -0.06687793 -0.08203386 0.028563043 -0.061787605 0.006847739 0.08514734 0.0075375214

lstm.weight_ih_l1 f4 [400, 100]
00000000: 903c 01bd 9d7a 583c 9378 7cbc e1e9 0d3d
00000010: 1605 053e eb23 6bbd fcc0 0c3e e65f 903d
00000020: 3cbc 15bd 81b4 8b3d 8daa 60bc 36ca 4e3d
00000030: c363 62bd 030b 133d 020c bd3b 805a 90ba
00000040: ce08 8f3d fbef c7bd 64a6 eabd 76c1 fcbc
00000050: b1a8 70bd c000 5fbd 5832 203e 5d78 933d
00000060: e353 d93d d274 dfbc 23fc 9bbc 781b 95bc
00000070: 9ef4 be3d 406c a73d db9b 983d dde3 9d3d
00000080: 7f0e 003e 1f25 d73b bceb d4bd 70da 4cbd
00000090: 8e26 d93c ec43 d93d a4e2 f33c 4cf8 abbd
000000a0: 240f 0a3d c8d6 6ebd 9dac 60bd 4c94 d0bc
000000b0: 9ae5 9dbd 0ce2 b6bc 6419 d93d 2fdd 03bc
000000c0: 0bad 0b3c a09e 1a3d 8c3e db3d 9ddd b6bd
000000d0: 87ab 86bd e309 3dbd 82e7 4f3d 2184 86bc
000000e0: 9ac7 583d fcb3 36bd cab4 853c da05 4a3b
000000f0: 8245 82bc 0073 243b ba9e fc3b fd1d 72bd
00000100: 9435 743c 7464 72bd c8f2 023d aae3 8d3d
00000110: 6f46 8ebd 101a 82bd f9c6 58bd 6ce1 b8bc
00000120: 56e6 b73c d692 01be 1da1 513d b18e a6bd
00000130: d361 d4bc dcee 6e3e 037a 853d e0c8 e0bd
00000140: f4a3 ce3c 4b77 19be f0a7 c63d 26bb acbd
00000150: 698c 9abd 52ee 103d 8677 3cbd 7b48 a53d
00000160: 4bff a73d b3e1 16bd e037 bdbd e25d 1e3d
00000170: 0e43 b7bd 0498 223d 83ed bb3d b098 e5bd
00000180: 00e6 9fbb cd4d 613d 5d33 b1bd 5b5c 9dbb
00000190: 3993 cc3d a9e3 b0bd 0c80 26bc 1d38 0a3b
000001a0: b614 493e f4ec 0b3d f541 703d ef1a 92bd
000001b0: 8c78 f1bb 817e 193d 9e99 d8bd 031d be3d
000001c0: ef02 63bd ee60 99bd 82ff 663d d3a4 c6bd
000001d0: 40ff 223d 96d8 2abe ed76 a43d 7c7f c8bd
000001e0: 9742 cf3d e47f 79bd 3502 9bbd 38e2 80bc
000001f0: 3271 2b3e cccc 67bd 5ffd 88bd 0833 9e3c
00000200: 2d27 aabd aeb5 85bd 391d 23be ad82 b03b
00000210: 1234 12be 8c4e 673e ffa6 203d 5767 9d3a
00000220: 0bc4 19bd ff78 babd 4f3c 14be 54de c53d
00000230: ba05 5d3d 390e b2bd 6d2c 3f3e 37b5 04be
00000240: 25c3 213d e50a 423e def9 80bd d3e6 e03c
00000250: b891 37bd 3e9d 103d a885 7b3d 5052 29bd
00000260: 1944 32be b321 33bd 1be9 843d a000 0ebd
00000270: 890e a33d 7bf1 ad3d d5c8 e13c 2e68 ff3d
00000280: 7b60 ddbc 2d3e b6bd 5487 1f3d 7fe4 b13d
00000290: 2c54 723d 6ffc 53bd fd99 743c da4f dcbb
000002a0: 5f50 cabb bf33 5dbd 1433 cf3c a106 c93d
000002b0: 131b 98bc eee3 c73d 063b 163e 77ed 0b3d
000002c0: de8f a8bd fcaf 053e 698e 14bd 64a8 87bd
000002d0: f549 9ebd 03d9 bf3d 87ab fabc 87b3 28bc
000002e0: 852c c93d 8e5f 303c eef0 283d 3bfc 0a3c
000002f0: 6457 0fbd cee5 94bd 8876 8f3c c7be cabd
00000300: b028 f83d d6f6 c63d 564b 33bd 63c1 21bd
00000310: 838e 09bd b873 fcbb 5da4 673d de1b 983c
00000320: accd fbbc 77a8 d0bc 5d2a 233b 6124 133d
00000330: 91e3 a03e 2720 0c3e 0b88 113d 04d7 e1bc
00000340: fd64 c13d 4a56 bf3d 15fe a2bd 30b6 5abd
00000350: 1498 883d 9e22 eb3c 8156 0fbe 81dc b93d
00000360: e748 3f3d 5a26 5c3d da51 c13d 41f0 333d
00000370: 52cf 05be 00bb 5d3c eaa4 d23d f998 90bd
00000380: f512 1bbe 4899 383d d182 503d 037d 7ebd
00000390: 7c2e d2be 91f3 71bd 7b3a 5bbc 4fed a9bc
000003a0: 3986 54be b65d 063f 610a 673d 9ed8 1b3d
000003b0: f864 ac3d f023 8bbd e576 ec3d f992 e83d
000003c0: ea63 3f3d 31e0 a43d b236 ea3e 55d2 bbbd
000003d0: a773 57bc 757f da3e 2b81 0b3a d390 70bd
000003e0: eb59 943d d6e6 2e3d fc4e af3c ff29 49bd
000003f0: dff4 a1be 2dcb 11ba fa36 703d b2fc c43b
-0.031551898 0.013212827 -0.0154096065 0.034646872 0.12990221 -0.0574073 0.13745493 0.07049541
-0.036556467 0.06821538 -0.0137125375 0.050485812 -0.05527092 0.035899173 0.0057692537 -0.0011013299
0.06984101 -0.097625695 -0.11457518 -0.030853968 -0.058754627 -0.054444075 0.15644205 0.07200692
0.10611703 -0.027277384 -0.019041127 -0.018201575 0.09324001 0.08174944 0.07451602 0.07709477
0.1250553 0.0065657045 -0.10396525 -0.050013006 0.026507642 0.10608658 0.029771157 -0.08396968
0.033705845 -0.0583103 -0.054852117 -0.025461338 -0.07709809 -0.022324584 0.10600546 -0.00804834
0.008525143 0.037748933 0.10705289 -0.08928988 -0.06575685 -0.046152007 0.050757892 -0.016420426
0.05292473 -0.04460524 0.016321559 0.0030826242 -0.015902285 0.002509296 0.0077093514 -0.05911063
0.014905352 -0.05917783 0.031969815 0.06928189 -0.06947028 -0.06352627 -0.05292413 -0.022568427
0.0224487 -0.1265367 0.05117904 -0.08132685 -0.025925552 0.23333305 0.065174125 -0.10975814
0.025224663 -0.14986913 0.097 -0.08434133 -0.07546312 0.03538353 -0.046012424 0.08070465
0.0820299 -0.036836337 -0.09239173 0.038663752 -0.089483365 0.039695755 0.09176161 -0.112107635
-0.004879713 0.055005837 -0.08652375 -0.0048022694 0.09989018 -0.08637173 -0.010162365 0.0021090575
0.19636807 0.034161523 0.05865665 -0.071340434 -0.0073691066 0.03747416 -0.10576175 0.09282877
-0.05542272 -0.07489191 0.056396015 -0.096994065 0.039794207 -0.16684183 0.08030496 -0.09789941
0.10120123 -0.06091298 -0.0756878 -0.01573287 0.167424 -0.056591794 -0.06688952 0.019311443
-0.083082534 -0.06528793 -0.15929116 0.0053866715 -0.14277676 0.22588557 0.03922176 0.0012008947
-0.037540477 -0.091051094 -0.14476131 0.09661546 0.05396054 -0.08694119 0.18669291 -0.12959753
0.039492745 0.18949468 -0.062976584 0.027453816 -0.044816703 0.035306208 0.06140676 -0.041338265
-0.1740879 -0.04373331 0.06489774 -0.034668565 0.07961757 0.08493324 0.027561584 0.124710426
-0.027023545 -0.08898578 0.03894742 0.0868616 0.059162304 -0.05175441 0.014929292 -0.0067233862
-0.0061741318 -0.054004427 0.02529291 0.098157175 -0.018567597 0.09760271 0.14670953 0.03416201
-0.082305655 0.13055414 -0.036268625 -0.06623915 -0.0772895 0.093675636 -0.030599369 -0.010296709
0.098229446 0.0107649695 0.041245393 0.008482988 -0.03499545 -0.07270394 0.017512575 -0.09899669
0.121171355 0.09715049 -0.043773018 -0.03949107 -0.033583175 -0.0077042244 0.056553233 0.018567976
-0.03073772 -0.025470955 0.0024897077 0.035923366 0.3142362 0.1368414 0.03553013 -0.027568348
0.0944309 0.0934263 -0.079586186 -0.053396404 0.066696316 0.02870303 -0.13997842 0.09075261
0.046700384 0.053747512 0.0943944 0.043930296 -0.13067368 0.013533354 0.10285361 -0.07060427
-0.1514395 0.045068055 0.050906006 -0.06213094 -0.4105109 -0.059070174 -0.013380642 -0.02074304
-0.20754327 0.5248674 0.056406382 0.03804838 0.08417696 -0.06793964 0.11546115 0.11356158
0.046726145 0.080505736 0.45744854 -0.09170977 -0.013150132 0.42675367 0.0005321677 -0.058731865
0.07243713 0.04270061 0.021399967 -0.049112316 -0.31632134 -0.00055615866 0.05864618 0.006011569

lstm.weight_hh_l1 f4 [400, 100]
00000000: 093d a23c 7308 25be e82b b8bd 877f dd3d
00000010: 4dfa b2bc 97ee 45bd 83b9 9abd 853d 1cbe
00000020: 86fc 2d3e fbdb 49bb 7c79 9a3d 14ea 353e
00000030: 28af 013e ce9a 373e 8058 d13c 24d2 a9bd
00000040: 7e4e e0bd 3d36 123e 6aad 923d bb1e 233e
00000050: cd49 523e 58d1 02be 214d 543e 80ac dd3d
00000060: d502 103d 067e ff3d 9f3a 3f3e 8b60 903e
00000070: 1840 633d e868 59be b409 6ebe 294b 4e3c
00000080: bec1 4ebd 5229 203e 2ae2 4d3e f518 833d
00000090: e275 d03d 3826 023e c843 193e dac5 6c3d
000000a0: 157e 77bd f6e9 003c a60e 153e 0682 1b3e
000000b0: 89a6 753d 7e1b 24be 68ba cfbd 04f8 b8bd
000000c0: 52dc c03d 0ad7 c7bc dc7a 2a3e 3519 c8bd
000000d0: 5e1d b83d a906 133e 9367 9dbd e925 d63d
000000e0: e2ee 90bd 007f 34bc 6344 fd3a 64a9 123e
000000f0: 3c25 5bbd 999a aabd 49e2 c93d 7bce 32be
00000100: a15c 07be 2691 4dbe 9421 8c3d d752 113e
00000110: d9fa 0d3e 8b6f acbc 3de7 34be aa92 123d
00000120: 7f43 b9bc 4e88 e23d ae0b ff3d 216e 8a3d
00000130: 3f42 43be cf34 303c 701e 863b 97dd dd3d
00000140: 731d fa3c 6bb2 01be f7c0 85bd cac6 633d
00000150: cd9f 813e 2f2c 4b3d a331 dc3d fc06 fdbd
00000160: ea75 fabc b51c 433d 1d28 c4bd 3f44 eb3d
00000170: f13e de3d b883 c0bc 7e1b 023e 51a7 6d3d
00000180: 3f5c 42be e2e9 353e 55e5 72bd 9914 e13d
00000190: b737 f3bc 18a1 22be 7d1a 59be 4b06 133e
000001a0: 8ede 71bd 02bc e4bc 78b3 92be c2c8 67be
000001b0: e269 5f3e 68a1 3b3e d04c 0e3e 1a61 a93c
000001c0: f1ca 9f3d 82c0 203e 1e8c 823d 7b1b a6be
000001d0: 1cc1 22bd 33c0 b03e 8a4c 003e 4bfd 5a3d
000001e0: 24fb 443e 7a92 73be 54c8 0c3e 7343 473e
000001f0: 2037 0cbe e570 793d 3889 573e e304 7d3e
00000200: cede ed3d 5ce0 91be b54d 88bd d86f 5f3e
00000210: e9a1 8ebe 88c0 803e 55ed 803e 8e41 af3d
00000220: 0191 493e ac69 343e a6ce a33e 3381 913d
00000230: 9753 38bc b675 333d 3fc0 423e b61f 803e
00000240: 6fe7 003e 7b32 71be 817a 90bd 793f 30bd
00000250: 0a7f 983d 16e8 473e 0a0c 4d3e 453a f0bd
00000260: 0685 8b3d 3c07 2a3e 054f 3abe ee16 653e
00000270: e3bb 113e 750c 19be 234f 42bd 22bc 213e
00000280: 9cdc cb3d 2337 0dbe 5e21 bc3d 9da5 07be
00000290: 7f2d f7bd bce4 5fbe 178d 23bd f9e1 143e
000002a0: 89e4 203e 7128 f8bc 6d9f 3dbd 72d8 52be
000002b0: d4f7 bc3c ce2a 603e dd71 893e 94ef 483e
000002c0: 3334 80be 72df 163e 3bff b73d 647f 0a3e
000002d0: c99d 0bbd c02b 1dbe f9ad 12bd b1cb c0bc
000002e0: 46c6 2c3e e618 0d3d 9603 19bd 44bf 93be
000002f0: 0826 59be dc80 333d 4cf0 f9bd 8c6a 373e
00000300: 6501 593e 3a0e e43d 6279 593e 9eab e13d
00000310: a9ad 4ebd 41c5 253e 4f47 01be b54f ae3e
00000320: 5f7b 1a3d c809 593e 7a92 063f adb0 4ebd
00000330: e5af aabb 3b19 eb3e 878c a53d 49a2 163d
00000340: bd82 d53c fa99 f9be c638 213d c66b 423d
00000350: 9eeb 09bb c637 92bd 69af 22bd e6f4 823d
00000360: bafb 9fbc d650 01bc c462 f0be a888 1fbf
00000370: 9337 49be 6d1e 94bc b87f 18be 49b9 1abd
00000380: 75fd ebbd 5fef acbd e1e1 0fbd fcdb c3bd
00000390: fe2a 353d bf4c 0fbc bc86 afbb 7655 d6be
000003a0: 08b8 90bd c2c0 a6be 4dea e0bd 3050 b33c
000003b0: a7eb e53c ea43 debd 56fc 88bc a8d1 e23d
000003c0: c4c7 8d3c c366 b9be a697 1abb 42fd 36bd
000003d0: a2cd c7bc 9238 193e b6d2 ce3e 9f7a f53e
000003e0: fde3 f8bd 9e7f 46bd abba d43c 23b3 213e
000003f0: 849e 33bc 666c 343b 120d 4f3e cc7d 683c
0.019804494 -0.16116504 -0.089927495 0.108153395 -0.021847868 -0.04832324 -0.07554915 -0.15257843
0.16990861 -0.0030801285 0.075427026 0.17765075 0.12664473 0.17930147 0.025554895 -0.08292034
-0.10952471 0.14278503 0.07161982 0.15929691 0.20535965 -0.12775171 0.20732547 0.108239174
0.03515895 0.12475209 0.18674706 0.28198656 0.055481046 -0.21231425 -0.23245889 0.012591162
-0.050477736 0.15640762 0.20105806 0.064012446 0.10178734 0.12709892 0.14967263 0.057805873
-0.060422976 0.007868281 0.14556369 0.15186319 0.059973273 -0.16026112 -0.10142976 -0.0903168
0.09417023 -0.02439453 0.1664843 -0.09770433 0.08989976 0.1435801 -0.07685771 0.104564495
-0.07076813 -0.011016607 0.0019322749 0.1432243 -0.053502306 -0.083302684 0.098576136 -0.17461579
-0.13218929 -0.20074901 0.06842342 0.14191757 0.13865222 -0.021049282 -0.17666335 0.0357844
-0.022615192 0.11061154 0.124533996 0.06759287 -0.1906824 0.010754778 0.004092984 0.108332805
0.03053162 -0.12665717 -0.06530946 0.055609502 0.2531723 0.049602684 0.10751655 -0.12354848
-0.030573804 0.0476348 -0.095779635 0.11487626 0.10851849 -0.023500308 0.127058 0.058020893
-0.18980502 0.17765 -0.05930074 0.10990257 -0.029689653 -0.15881765 -0.2120151 0.1435787
-0.059050135 -0.02792168 -0.2865255 -0.22635177 0.21817735 0.1832329 0.13896489 0.020676184
0.0780238 0.15698436 0.063743815 -0.3244284 -0.039734945 0.34521636 0.12529197 0.053464215
0.19236428 -0.23786345 0.13748294 0.19459324 -0.13692904 0.06089868 0.21048439 0.24708895
0.11614762 -0.28491485 -0.066554464 0.21820009 -0.27857903 0.2514689 0.2518107 0.085574254
0.19684221 0.17618436 0.31993598 0.07104721 -0.011250398 0.04381343 0.19018649 0.25024194
0.12588285 -0.23554413 -0.07054616 -0.043029282 0.07446106 0.19522128 0.20024124 -0.11729864
0.068124816 0.16604322 -0.18194206 0.22372028 0.1423183 -0.14946158 -0.047438752 0.15794423
0.09954187 -0.13790564 0.09186052 -0.1324677 -0.120692246 -0.21864599 -0.039929476 0.14539327
0.15712179 -0.030292721 -0.04629462 -0.2059038 0.023067392 0.21891329 0.26844683 0.19622642
-0.25039825 0.14733675 0.08984228 0.13525158 -0.034086023 -0.1534872 -0.035810445 -0.023534628
0.1687251 0.034447573 -0.037356935 -0.28856862 -0.21205914 0.04382406 -0.12204036 0.17911738
0.21191938 0.11135526 0.2123771 0.110190615 -0.050458584 0.16188528 -0.12624858 0.34045187
0.037715312 0.21195138 0.52567255 -0.05046146 -0.0052089565 0.45917687 0.08083444 0.03677586
0.026063317 -0.48750287 0.039360784 0.047466062 -0.002104498 -0.07139544 -0.039718065 0.06394367
-0.019529212 -0.007892808 -0.46950352 -0.62317896 -0.19650106 -0.018080914 -0.14892471 -0.037774358
-0.115229525 -0.08444094 -0.035127524 -0.09563443 0.044230454 -0.008746325 -0.0053566378 -0.41862077
-0.07066351 -0.32568938 -0.10982189 0.021888822 0.02806647 -0.10852797 -0.016721886 0.11075145
0.01730717 -0.36211213 -0.0023588925 -0.04467512 -0.024390046 0.14962986 0.40395135 0.47945115
-0.1215286 -0.04846155 0.025967916 0.15790991 -0.010963086 0.002753043 0.2021983 0.014190149

lstm.bias_ih_l1 f4 [400]
00000000: b3f1 2b3d c9e9 0ebe e463 8e3d 88ec 75bd
00000010: f312 8a3b a75d cabc 66b2 f3bd d656 4b3d
00000020: c32e fabc 01c4 0a3d cec3 823c bbff f5bd
00000030: 0af3 003d 9062 3c3d 42a1 4abc 1223 f83a
00000040: 56c6 e13b e5c4 cf3d 5014 283d b695 0ebe
00000050: 3f76 8a3c 6cfc 653d ca22 ca3c a7b1 563d
00000060: d38a 1abd 7871 c8bd 7033 6abc d071 06be
00000070: b610 ce3c 9196 82bd 6aee b4bd 25f8 29bd
00000080: 73b4 93bc 4474 f9bc bc6f 203d 3cf7 18bd
00000090: 2445 b53c 746f d4bd 909d c2bc 3adf febc
000000a0: 92bd 11bd d490 dfbd db34 96bd d784 bebd
000000b0: 2613 eabd 9592 25bd 6cdd b53a e1f1 bbbd
000000c0: b17b 84bc b907 873d 3411 b0bc 2e4f 65bd
000000d0: e68c 7abc 1bd1 8ebd 5d97 8ebd 12d3 893d
000000e0: c826 a63d 1a30 9a3d e047 2a3c d8d1 3d3d
000000f0: 6cd7 9d3d a92f 483d 8ba4 01bc 24a2 7cbd
00000100: c15f fdbd b137 f33d 9245 68bd 3e8e dfbd
00000110: 942b 2e38 3128 bebc c945 bb3d 300c 9038
00000120: f620 4ebd e814 dd3c 624d 923d 566e ea3c
00000130: 44de ba3d 730a 92bb 32f6 443d 99b9 93bd
00000140: 32a4 443d e58e e5bd 0dd2 c8ba 49d0 afbc
00000150: 8714 073d 3a56 3bbd 1121 083d d470 393d
00000160: 98b4 30bb e1ba 4f3c 1fee e4bc f54b 973c
00000170: 346d c43d 7f11 093c 61b6 68bd f384 b63d
00000180: 6701 c13b e9eb 873d 44e9 e3bd 4e56 3e3b
00000190: 04d0 df3d dbcf 39bb a12b 523c 3064 cd3d
000001a0: 6e10 853c 84e0 47bd d3a1 70bd 9fb8 8b3d
000001b0: a1e6 ac3d b7ea 05bd 4f6e 883d ed63 62bc
000001c0: fb2a a43d c487 773d 8581 09bc 8e07 15bc
000001d0: 3a72 473d 0d96 6fbd 75c6 913d 5251 04bb
000001e0: c4b9 b33d 7e00 4f3d 95c8 01bd 1b43 833d
000001f0: 23a3 30bd 9a41 ce3d 7a71 773d 8fe1 afbd
00000200: 8a37 0d3e 0652 083d 5155 6fbb 101b 67bb
00000210: f75e 833c 383d 83bd 619d babc 7bfe 5fbd
00000220: 9dad ce3d 0f80 13bd 810c b23d 26f0 4d3d
00000230: 18e0 0abd 3112 923c ff9d 883d 8ee4 5a3c
00000240: bdcd 9fbd 53ea e9bd a894 99bc e062 6abd
00000250: c803 df3b 357c be3d a76c 6d3b ce81 143d
00000260: 6ab6 c23d 8b09 e13d 2a77 1a3d a109 853c
00000270: bf6f e73d e864 cc3b 769d 62bd f672 c83d
00000280: 14f8 0a3e c792 293d 1a32 0c3e 33d1 cf3b
00000290: 8c61 073e 1768 b43d 932d e33d ad5f 90bd
000002a0: be9e 4cbc f36b 3ebd 2d0c 013d c0b9 eb3c
000002b0: be5a 013e ae29 bc3d 2eb5 4dbd a6fa 44bd
000002c0: 204c d7bc 5309 b53d d23a e5bc d349 143e
000002d0: 822b 1dbc 279e 803d b21f 033c 1a1b 6cbd
000002e0: c9de 6cbd 544f db3d 44c6 0f3c cbdd df3c
000002f0: 1755 db3d 995b a93d ee1b df3d 3743 433b
00000300: 5a98 823d ab9b d23d 611d 923d a723 fd3d
00000310: d640 b63c 1e55 44bb 6fbd c83d dd99 e93d
00000320: b9b0 4c3d 6c2f a23c 6bd5 24bd 3777 e2bb
00000330: c192 96bd 9077 743d 60e3 91bd f0ff 5e3c
00000340: 0090 4d3c cd6d 983d 5d49 46bd 9018 43bd
00000350: 7bf1 0f3e bced f0bc 6757 98bc 8088 4f3d
00000360: 929f 093d a48e b53d 6afc 6b3d e594 813d
00000370: 4bc6 e9bd 58f2 33be ce11 f6bc a520 3ebb
00000380: 2c26 25bc 1a9f 7bbd aec5 1cbc 8a68 c33d
00000390: 8aea 853c 13ca 85bd 6e81 12bd 2278 053e
000003a0: 1dd5 11be e3a8 55bc 222d 34bc 3905 cdbd
000003b0: 3c86 743d d0ed 30bd 0a9c 65bd fefb 68bd
000003c0: abe8 80bc 0051 91bd df47 f63d 8184 833d
000003d0: a5f0 a7bc 5db0 9fbc c1e4 97bc a593 df3d
000003e0: 2f1d ce3d 0dec 45bc 2143 d93c 6140 c23b
000003f0: 2a01 f03c 28c3 913d 6ef3 8cbc 9894 e53d
0.04197855 -0.1395637 0.069526464 -0.060040027 0.0042136847 -0.02470286 -0.11899261 0.04964336
-0.030539876 0.03387833 0.015962508 -0.12011667 0.03148178 0.045992434 -0.012367548 0.001893135
0.0068900986 0.101449765 0.041034997 -0.13924298 0.016902087 0.05614893 0.024674792 0.052415516
-0.03773005 -0.097872674 -0.01429449 -0.13129354 0.025154453 -0.063763745 -0.088345364 -0.041496415
-0.01803038 -0.030450948 0.03916906 -0.037345156 0.022127695 -0.103728205 -0.023756772 -0.031112302
-0.03558118 -0.10916296 -0.073343 -0.09302681 -0.114294335 -0.040422995 0.0013875193 -0.09176994
-0.016172262 0.0659327 -0.021492578 -0.055983715 -0.015292382 -0.069734775 -0.06962464 0.067297116
0.08112866 0.07528706 0.010393113 0.0463427 0.07707104 0.048873577 -0.007912765 -0.061678067
-0.12371779 0.11875857 -0.056706972 -0.109158024 4.1525418e-05 -0.023212524 0.0914417 6.868725e-05
-0.050324403 0.026987508 0.07143666 0.028617065 0.09124425 -0.004456812 0.048086353 -0.07213134
0.04800815 -0.112088956 -0.0015321389 -0.021461623 0.03297856 -0.04573653 0.03323466 0.045273617
-0.002696311 0.012678833 -0.027945576 0.018468836 0.09591141 0.008365988 -0.056814555 0.08912077
0.0058900598 0.06636793 -0.11128476 0.002904314 0.10928348 -0.0028352651 0.012827785 0.10028875
0.016243186 -0.0487981 -0.058748078 0.06822323 0.084424265 -0.032694545 0.06661665 -0.0138177695
0.080160104 0.06043221 -0.008392696 -0.009096039 0.04869292 -0.05849271 0.07117931 -0.0020190072
0.08775666 0.05053758 -0.03168543 0.06409284 -0.04312433 0.10071106 0.060410954 -0.08587944
0.13790718 0.03328135 -0.0036519358 -0.0035263933 0.016036494 -0.06408161 -0.022780122 -0.05468605
0.10091708 -0.036010798 0.08693791 0.05027785 -0.03390512 0.01783094 0.0667076 0.013360156
-0.07802913 -0.11421647 -0.018747643 -0.0572232 0.0068058707 0.09301034 0.0036228092 0.036256604
0.09507449 0.10988148 0.0377113 0.016239943 0.11300611 0.006237615 -0.055325948 0.09787552
0.13571197 0.041399743 0.13690987 0.006342077 0.13220805 0.08808916 0.11092677 -0.07049499
-0.012489019 -0.046489667 0.031505752 0.028775096 0.12632272 0.09187637 -0.050221615 -0.0480906
-0.026281416 0.08839669 -0.02798215 0.14481287 -0.009592893 0.06280165 0.008003162 -0.057643034
-0.057829652 0.1070849 0.008775298 0.027327439 0.10709589 0.08269424 0.10893999 0.0029794702
0.06376715 0.102835976 0.0713451 0.12360316 0.022247713 -0.002995796 0.098017566 0.114063
0.049973223 0.019798003 -0.040242594 -0.006911184 -0.0735221 0.059684336 -0.071234465 0.013610825
0.012546539 0.07442818 -0.04840981 -0.047630847 0.14056961 -0.029410236 -0.018596364 0.050667286
0.033599444 0.08865097 0.057613768 0.063272275 -0.114147745 -0.17572916 -0.030037787 -0.0029011157
-0.010079902 -0.061431028 -0.009568615 0.095414236 0.016347189 -0.06532683 -0.035767965 0.13034108
-0.14241453 -0.013040754 -0.010997089 -0.10010762 0.05969833 -0.043195546 -0.056057014 -0.056880943
-0.015735945 -0.07095528 0.12025427 0.064217575 -0.02050049 -0.019493276 -0.018541696 0.10916833
0.1006416 -0.012080205 0.026521267 0.0059280847 0.02929743 0.07117301 -0.01720592 0.11209983
