process/modelo_lstm_v2.pth (torch, 135834 bytes, 9 tensors)

lstm.weight_ih_l0 f4 [200, 11]
0	0x3e0e1503	0.13875203
1	0xbc736918	-0.014856599
2	0x3c7bfe2d	0.015380424
3	0xbd7080e7	-0.05871668
4	0x3dcf4cc0	0.10122061
5	0x3d01600f	0.03158575
6	0x3e1b69cc	0.15177077
7	0x3e43ac84	0.19108778
8	0xbd6e6bc7	-0.058208253
9	0xbd46eb56	-0.048564278
10	0xbe09e7a2	-0.13467267
11	0x3cc9a1bb	0.024613252
12	0xbe4724bc	-0.19447607
13	0xbdc865bf	-0.097850315
14	0xbe604a67	-0.21903382
15	0x3b40db2f	0.0029427519
16	0x3e0542d6	0.13013777
17	0xbe03bafc	-0.12864298
18	0xbe199b6f	-0.150007
19	0xbcf4e717	-0.029895348
20	0xbe073171	-0.13202454
21	0x3e027393	0.127394
22	0x3d9dd9ac	0.07707533
23	0x3e204109	0.15649809
24	0x3d5dd400	0.054157257
25	0xbd9df1b4	-0.07712117
26	0x3d01bd4d	0.031674672
27	0x3daea203	0.08526995
28	0xbd6bf377	-0.057605233
29	0xbde13c17	-0.10997789
30	0xbda4bede	-0.080442175
31	0xbdb7d884	-0.08976844
32	0xbe0a5ddf	-0.13512371
33	0x3dc5c1eb	0.096561275
34	0x3db98cfa	0.09060092
35	0x3d8f9766	0.07011299
36	0x3cf9211a	0.030411292
37	0x3e1a7ac2	0.15085891
38	0xbdb054d1	-0.086099274
39	0xbdc79178	-0.09744543
40	0x3da9829a	0.082768634
41	0x3cb1cd6c	0.021704398
42	0x3b075b39	0.0020653738
43	0xbdd5536e	-0.104163036
44	0x3e706ee1	0.23479797
45	0x3e40333d	0.18769546
46	0xbd1e2d5f	-0.038617488
47	0x3d74ca59	0.059763286
48	0x3e490a33	0.19632797
49	0x3dd5c489	0.10437877
50	0x3e13c5b1	0.14430882
51	0x3e3c5b24	0.18394142
52	0x3e2e4209	0.17017378
53	0x3d183078	0.0371556
54	0xbd0452b2	-0.032305427
55	0x3e1d2580	0.15346336
56	0x3e4f4423	0.20240836
57	0x3e5ee251	0.2176602
58	0xbd5518c7	-0.052025583
59	0xbdaa37db	-0.08311435
60	0xbb9909b1	-0.0046703448
61	0xbd01ea30	-0.03171748
62	0xbd93d206	-0.07217793
63	0x3dc8186a	0.097702816
64	0x3e0aedaf	0.13567232
65	0xbc4d9de0	-0.012549847
66	0x3e3893ff	0.18025206
67	0x3b14e939	0.002272202
68	0x3dc545c7	0.096324496
69	0x3e259711	0.16170909
70	0x3d8f019a	0.06982727
71	0xbdd5dd89	-0.10442645
72	0xbd55c37f	-0.052188393
73	0x3d868ca5	0.065697946
74	0x3e03beb9	0.12865724
75	0x3b74873c	0.0037312051
76	0x3d86569e	0.0655949
77	0x3d6470f2	0.055771776
78	0x3e02fcae	0.12791702
79	0x3dfabb80	0.12242794
80	0x3cd5a19f	0.026078044
81	0x3dacde2c	0.084408134
82	0x3dcfff9e	0.10156177
83	0xbc604a2f	-0.013689562
84	0xbd275f9e	-0.040862672
85	0xbcd0846d	-0.02545377
86	0xbc61a0c0	-0.013771236
87	0xbdd1f092	-0.10250963
88	0xbc1864e6	-0.0093014
89	0x3d97324e	0.07382642
90	0x3d1cd0fb	0.038285237
91	0xbd87baa7	-0.06627398
92	0xbdeb48a9	-0.11488468
93	0xbe05faac	-0.13083905
94	0x3dda379e	0.106551394
95	0xbe21c744	-0.1579867
96	0xbcf8c176	-0.030365687
97	0xbdbcef44	-0.09225324
98	0xbdd5b652	-0.104351655
99	0x3e462a28	0.19352019
100	0xbd8ec35d	-0.06970856
101	0x3da09e26	0.078426644
102	0x3dfe8676	0.1242799
103	0x3e3a376f	0.18185209
104	0x3d8dea22	0.06929423
105	0xbd054326	-0.03253474
106	0xbd20db73	-0.039271783
107	0x3e16ef9d	0.14739843
108	0xbc70faad	-0.014708203
109	0xbd8bb893	-0.06822314
110	0x3e7d0469	0.24708714
111	0xbbd3f33e	-0.0064682057
112	0x3e1f953f	0.15584277
113	0x3d869d84	0.065730125
114	0xbc67dda2	-0.0141519625
115	0xbc04cff6	-0.008106222
116	0x3d01d0b4	0.031693175
117	0x3e1fe9ae	0.15616485
118	0x3d7a76e7	0.06114855
119	0xbace025a	-0.0015717254
120	0x3d8668d8	0.06562966
121	0x3dac4a29	0.084125824
122	0x3e119f6c	0.14220971
123	0x3bbe8289	0.005813901
124	0x3e434c41	0.19072057
125	0xbdd75808	-0.105148375
126	0xbafe4267	-0.0019398452
127	0xbda74660	-0.0816772
128	0x3c309eae	0.01078002
129	0xbb969ddf	-0.0045964564
130	0x3d1f633b	0.038912993
131	0xbdc549e4	-0.09633234
132	0x3d173172	0.03691239
133	0xbd508f80	-0.050918102
134	0x3d5d4459	0.05402026
135	0x3dc502aa	0.09619649
136	0xbda190ae	-0.078889236
137	0x3d5dcc6b	0.054150026
138	0xbda3bdbc	-0.07995173
139	0xbd02e4ae	-0.031956367
140	0x3e21d7a8	0.15804923
141	0x3e08ab5f	0.13346623
142	0x3dccdde6	0.10003261
143	0x3e27dbee	0.1639249
144	0xbd8c3887	-0.06846719
145	0x3de32ffe	0.11093138
146	0x3b9b0c30	0.0047316775
147	0x3db514ce	0.08841859
148	0xbd2b7104	-0.041855827
149	0x3df7f593	0.121073864
150	0xbc1a6fd7	-0.009426079
151	0xbdb5bb0f	-0.08873569
152	0xbd94f0fb	-0.07272526
153	0x3e0c46c3	0.13698868
154	0xbde0207e	-0.109436974
155	0x3d573818	0.05254373
156	0x3bf130f5	0.0073605725
157	0xbe218c20	-0.1577611
158	0xbe30bb3d	-0.17258926
159	0x3d12ea15	0.03586777
160	0xbdb4e3c2	-0.08832504
161	0xbd92c1db	-0.07165881
162	0x3d1466cb	0.036230844
163	0xbd631601	-0.055440906
164	0x3dfddc8e	0.12395583
165	0xbc44f394	-0.012020964
166	0x3e1fc218	0.15601385
167	0x3dac4a62	0.08412625
168	0x3e1f492f	0.15555261
169	0x3ce350ca	0.027748484
170	0x3b6be7a5	0.0035996225
171	0x3dc6edbf	0.09713315
172	0xbda30ff0	-0.07962024
173	0x3dc86b2f	0.09786069
174	0x3e0471f2	0.12934092
175	0x3df437a2	0.119246736
176	0x3c950ee7	0.018195583
177	0x3e16b03c	0.14715666
178	0x3e11b488	0.14229023
179	0x3d0d7ca5	0.0345427
180	0xbb2da9c3	-0.002649889
181	0xbd6e8fc1	-0.058242563
182	0xbd02a48a	-0.031895198
183	0xbdc04892	-0.09388842
184	0x3e0a2219	0.1348957
185	0xbc5e8e11	-0.013583676
186	0xbd2c8f30	-0.04212874
187	0x3d2c7ce0	0.042111278
188	0x3ca0e40a	0.019639987
189	0x3dc9f165	0.098604955
190	0x3e31029f	0.17286156
191	0x3dba3aff	0.09093284
192	0x3d948c73	0.07253351
193	0x3db3f913	0.087877415
194	0x3d3af369	0.04564229
195	0x3ddf3d67	0.109003834
196	0x3cdf595a	0.027264286
197	0xbdb85608	-0.09000784
198	0xbc504c4f	-0.012713506
199	0x3e1db2eb	0.15400283
200	0x3e2b7f76	0.16747841
201	0x3c22dfce	0.0099410545
202	0x3e0d0d1a	0.13774529
203	0x3e14c035	0.14526446
204	0xbc9eb404	-0.019372948
205	0xbdd643d2	-0.104621544
206	0x3de45bac	0.111502975
207	0xbdae7c12	-0.08519758
208	0x3b11cac0	0.0022246093
209	0x3c979fc0	0.018508792
210	0x3e0a5f5b	0.13512938
211	0xbd1e40ae	-0.038635902
212	0x3e4acc17	0.19804417
213	0x3d0648fe	0.032784455
214	0xbdc225f9	-0.09479899
215	0x3d9866e8	0.07441503
216	0xbd82dacd	-0.06389389
217	0x3e004b6e	0.12528774
218	0xbb302ade	-0.002688102
219	0x3dca4068	0.09875566
220	0xbc22527b	-0.00990736
221	0x3e3a7bd5	0.182113
222	0x3e465e9e	0.19372031
223	0xbd6927b6	-0.056922637
224	0x3d849610	0.06473935
225	0xbc917b37	-0.017758949
226	0x3ca910c3	0.020637875
227	0x3dd9307f	0.10604953
228	0xbd399828	-0.045311123
229	0xbdd5fb97	-0.104483776
230	0xbd7bd104	-0.06147863
231	0xbd49a495	-0.049229223
232	0x3e0530b8	0.13006866
233	0xbd3e51fd	-0.04646491
234	0x3db4b99b	0.08824464
235	0xbdb025c5	-0.08600954
236	0xbd02b5f4	-0.031911805
237	0xbd86852c	-0.06568369
238	0xbcb980f7	-0.022644503
239	0x3e3cbb01	0.18430711
240	0x3ccbe454	0.024889149
241	0xbdb40c48	-0.08791405
242	0x3e07606b	0.13220374
243	0x3d2e52f9	0.042559598
244	0x3def15f7	0.11674111
245	0x3c06b600	0.008222103
246	0x3d27278a	0.04080919
247	0xbc9a8e5f	-0.018866716
248	0x3e13479c	0.14382786
249	0xbda973e1	-0.08274055
250	0x3da118af	0.07866036
251	0x3d95c57a	0.07313056
252	0xbde75835	-0.11296121
253	0x3e1c364b	0.15255086
254	0x3dd4d912	0.103929654
255	0x3daf4315	0.08557717

lstm.weight_hh_l0 f4 [200, 50]
0	0x3e09ea52	0.13468292
1	0x3cf61102	0.030037407
2	0x3e07f46e	0.13276836
3	0x3c158269	0.0091253305
4	0xbe07f5f2	-0.13277414
5	0xbda64d42	-0.081202045
6	0x3dc68ae6	0.096944615
7	0x3d927148	0.07150513
8	0x3ded6604	0.115917236
9	0x38def6ca	0.00010631753
10	0x3e3f791f	0.18698548
11	0x3b821661	0.003969953
12	0xbe4b6b50	-0.19865155
13	0x3c9d307e	0.019188162
14	0xbd283593	-0.041066717
15	0x3de1fd5b	0.11034652
16	0x3d85035b	0.06494781
17	0x3d715c73	0.058926057
18	0xbd62bc10	-0.05535513
19	0xbd80b699	-0.06284828
20	0x3deba6f2	0.11506452
21	0x3d832d25	0.06405095
22	0xbded9d01	-0.11602212
23	0xbe80fc00	-0.2519226
24	0x3da9fa91	0.08299745
25	0xbcb67a3a	-0.022275079
26	0x3d22eec1	0.039778475
27	0xbdd71691	-0.10502351
28	0x3d0dcae2	0.034617312
29	0x3bf27d5e	0.007400199
30	0xbde5d737	-0.112226896
31	0xbde8a150	-0.11358893
32	0x3e1da15f	0.1539359
33	0x3d7e9601	0.062154774
34	0xbe0fe7f1	-0.14053322
35	0xbe824374	-0.25442088
36	0x3d8e97cd	0.069625475
37	0xbd836c76	-0.06417172
38	0xbd697e42	-0.057005174
39	0x3e357ebf	0.17724131
40	0x3da86712	0.08222784
41	0x3dc116f7	0.09428208
42	0xbd090dd5	-0.033460457
43	0xbdc788c5	-0.097428836
44	0x3d5240f0	0.05133146
45	0x3d7412a0	0.059588075
46	0x3e5afa71	0.21384598
47	0x3d865c27	0.065605454
48	0xbd163df4	-0.036680177
49	0xbdc16a97	-0.094441585
50	0xbd2e5705	-0.042563457
51	0xbd951dcf	-0.07281076
52	0xbdce94c7	-0.10086971
53	0x3e28c962	0.16483071
54	0xbb4d0ab9	-0.0031286909
55	0xbd13c9b5	-0.036081035
56	0x3dcec1af	0.10095536
57	0x3c8b432f	0.01699981
58	0xbe154709	-0.14577879
59	0xbe32be3c	-0.17455381
60	0xbd62bb0b	-0.05535416
61	0x3dee68cc	0.11641082
62	0xbdd28af3	-0.10280409
63	0x3dfd90ec	0.12381157
64	0xbd797216	-0.060899816
65	0x3de8157b	0.11332222
66	0x3e220bc2	0.15824798
67	0x3d961231	0.073276885
68	0x3b4892d4	0.0030605095
69	0x3d93e066	0.07220535
70	0xbdfc1cc5	-0.12310175
71	0xbe022829	-0.12710632
72	0x3d0de842	0.034645326
73	0xbdde3303	-0.108495735
74	0x3d20a55d	0.039220203
75	0xbdabea30	-0.08394277
76	0x3b14de25	0.0022715416
77	0xbd827a7d	-0.06371019
78	0xbe0a41b5	-0.13501628
79	0x3dd9efb7	0.10641425
80	0xbdb5ba62	-0.0887344
81	0x3de287f2	0.11061086
82	0x3c396a3b	0.011316831
83	0xb9fa75b5	-0.00047771414
84	0xbd649f04	-0.05581571
85	0xbd19be92	-0.037535258
86	0x3e2c7207	0.16840373
87	0xbd1c485c	-0.038154945
88	0xbe43a2de	-0.19105098
89	0x3de1e101	0.11029244
90	0x3d7188e6	0.058968447
91	0x3d492d92	0.049115725
92	0x3de878eb	0.11351188
93	0x3de62211	0.112369664
94	0xbd0f098b	-0.03492121
95	0xbdaf9dcf	-0.085750215
96	0x3dd21e3b	0.10259672
97	0xbdc7f943	-0.0976434
98	0x3cc52481	0.024065258
99	0x3d3df858	0.046379417
100	0xbcd1ab5d	-0.025594408
101	0xbda7b6c6	-0.08189158
102	0xbc87cbfa	-0.016576756
103	0x3db384b6	0.08765547
104	0x3dd2e300	0.10297203
105	0x3d88372a	0.06651147
106	0x3d91fd68	0.071284115
107	0x3d012822	0.031532414
108	0x3db58196	0.08862607
109	0xbd2bda29	-0.0419561
110	0x3c37ed7f	0.011226057
111	0x3e101a79	0.14072599
112	0xbe0579c4	-0.13034731
113	0x3de396dc	0.111127585
114	0xbd885368	-0.066565335
115	0x3c1dcd45	0.00963146
116	0xbb0c86e8	-0.0021442715
117	0xbd50aff1	-0.05094904
118	0x3d887384	0.06662658
119	0xbd8a0350	-0.06738913
120	0xbc877276	-0.016534071
121	0xbdbdbb75	-0.0926427
122	0xbdb44253	-0.08801713
123	0x3e04377b	0.12911789
124	0xbabc7748	-0.001437881
125	0xbd8a7224	-0.06760052
126	0xbd6d547f	-0.05794191
127	0xbb70844f	-0.0036699956
128	0x3df2301c	0.118255824
129	0x3e0b18c3	0.13583665
130	0x3cd0b5e4	0.025477357
131	0x3da22d1a	0.07918759
132	0xbda0e150	-0.07855475
133	0x3d6a9d05	0.05727865
134	0x3c002193	0.007820505
135	0xbd5b83eb	-0.053592604
136	0x3dea9a49	0.11455209
137	0xbde3f3df	-0.11130499
138	0x3d2376f8	0.03990838
139	0xbd7447b1	-0.059638683
140	0x3dd65d17	0.10466974
141	0x3e0a0fe9	0.13482632
142	0xbd33af7b	-0.043868523
143	0x3d70bcf9	0.05877397
144	0x3ddab24f	0.10678541
145	0x3ddf5e5b	0.10906669
146	0x3cac5c0c	0.021039985
147	0x3da9505c	0.082672805
148	0x3e05dde7	0.1307293
149	0xbc5fa7b7	-0.013650826
150	0x3d8aaeeb	0.06771644
151	0xbe38cb2e	-0.18046257
152	0x3dd1bfa6	0.10241632
153	0xbc8fc891	-0.017551692
154	0xbdf6057e	-0.12012766
155	0xbd56489d	-0.052315343
156	0xbd6aa57d	-0.05728673
157	0xbdfd8197	-0.12378233
158	0xbd8f95da	-0.07011004
159	0xbc592f08	-0.013255842
160	0xbdeaf41c	-0.114723414
161	0xbd274773	-0.040839624
162	0x3d0959e6	0.033533
163	0xbdcdb493	-0.100442074
164	0xbc37770f	-0.011197819
165	0x3de97eb0	0.11401117
166	0xbe1867ee	-0.14883396
167	0xbd07959b	-0.03310166
168	0x3e3d8da5	0.18511064
169	0x3dbb319b	0.09140321
170	0xbc679e11	-0.014136807
171	0xbdd85c6e	-0.105645046
172	0xbc9bbf31	-0.019012066
173	0xbe0a9d9a	-0.13536683
174	0xbc09cc83	-0.008410576
175	0x3d367c91	0.04455239
176	0x3d339e69	0.043852244
177	0x3df0b10d	0.1175252
178	0x3e195df2	0.14977244
179	0xbd963544	-0.07334378
180	0xbd2d3389	-0.042285476
181	0x3d7adc19	0.061245058
182	0xbdafb40e	-0.085792646
183	0x3df9fa2e	0.12205921
184	0xbcfa95a3	-0.03058893
185	0x3cdbcf86	0.026832353
186	0x3dace43c	0.0844197
187	0xbd2b5a86	-0.041834377
188	0xbdc6f67a	-0.097149804
189	0x3c9fd7a9	0.019512014
190	0xbaa4ed86	-0.0012582995
191	0x3e0acb55	0.13554128
192	0x3db238ab	0.08702215
193	0x3dd5d365	0.10440711
194	0x3d8af9d3	0.067859314
195	0xbbe5e7e5	-0.0070161694
196	0x3d89afb9	0.067229696
197	0x3e0d27ec	0.1378476
198	0x3e0d10f1	0.13775994
199	0x3da88924	0.082292825
200	0xbd113c81	-0.03545809
201	0xbbc764b8	-0.0060850047
202	0x3dbb5dc8	0.09148747
203	0x3d2bf88c	0.04198508
204	0xbe39020b	-0.18067186
205	0x3d6084db	0.0548142
206	0x3e1615ab	0.14656703
207	0xbe048d57	-0.12944542
208	0xbbc04cf6	-0.0058685495
209	0xbc055fdd	-0.008140531
210	0x3dbcf6eb	0.09226783
211	0xbe17ecb4	-0.14836389
212	0xbd4a9416	-0.049457632
213	0xbdef9c00	-0.116996765
214	0xbe059716	-0.13045916
215	0xbd8c955c	-0.068644255
216	0x3d603581	0.054738525
217	0xbd68caf4	-0.056834176
218	0x3db2a62f	0.08723103
219	0xbce4ee7f	-0.027945755
220	0x3e09891e	0.13431212
221	0x3c156ae4	0.009119723
222	0xbe116b68	-0.14201128
223	0xbe014c06	-0.12626657
224	0x3e140034	0.14453202
225	0x3e058dbc	0.13042349
226	0xbe18548d	-0.14876004
227	0x3e024e0d	0.12725087
228	0xbd3de9b4	-0.046365455
229	0x3db80f27	0.08987265
230	0x3d1e48fc	0.038643822
231	0x3d20ae5e	0.03922879
232	0xbdafa98c	-0.085772604
233	0xbd0e0ca0	-0.03468001
234	0x3d5fba8c	0.054621264
235	0x3d53322f	0.05156153
236	0xbd9268fa	-0.07148929
237	0xbd767576	-0.060170613
238	0x3d293a60	0.041315436
239	0x3c0535e4	0.008130524
240	0x3dc5d928	0.0966056
241	0x3d8796e7	0.06620579
242	0xbd0b5bbd	-0.034023035
243	0xbe270d7c	-0.16313738
244	0xbe364437	-0.1779946
245	0xbd1f2228	-0.038850933
246	0x3e333e2a	0.17504182
247	0x3dc16033	0.09442177
248	0x3dc7e85e	0.097611174
249	0xbd944959	-0.072405525
250	0x3c43fc8a	0.0119620655
251	0xbd45166f	-0.048117097
252	0x3df4aec1	0.11947394
253	0x3d2b48d9	0.04181752
254	0x3cb9cd9c	0.02268105
255	0xbd34bc74	-0.044125035

lstm.bias_ih_l0 f4 [200]
0	0xbdc5ffbb	-0.09667917
1	0xbe27eb54	-0.16398364
2	0xbd81f349	-0.06345231
3	0x3d713d30	0.058896244
4	0x3ca2643e	0.01982319
5	0x3e043dd8	0.12914217
6	0x3df7cafc	0.12099263
7	0xbdab7475	-0.08371822
8	0x3d66fd04	0.05639364
9	0xbca2973e	-0.019847509
10	0xbd4930a4	-0.049118653
11	0xbc3a50e8	-0.011371829
12	0xbd0a4b86	-0.03376343
13	0x3e10024c	0.14063376
14	0x3e048d64	0.12944561
15	0xbd0d1bff	-0.034450527
16	0xbbc45727	-0.0059918347
17	0xbc6c37ba	-0.014417583
18	0xbcde6f6b	-0.027152738
19	0xbd942058	-0.072327316
20	0xbc4b7cf9	-0.0124199325
21	0x3e198c38	0.14994895
22	0x3d101247	0.03517368
23	0xbde10d44	-0.10988858
24	0x3e0f3839	0.13986291
25	0x3decaa7a	0.11555953
26	0xbd828e63	-0.06374814
27	0x3db159db	0.08659717
28	0xbd820db5	-0.06350271
29	0x3d77c9b7	0.060495105
30	0xbc8e1eb9	-0.017348634
31	0xbe045eda	-0.12926808
32	0xbc2d645d	-0.0105830105
33	0x3c0499ab	0.008093278
34	0x3c23b152	0.009991007
35	0x3e14935b	0.14509337
36	0x3d60aae7	0.054850485
37	0xbb7e7ee7	-0.0038832964
38	0x3d0f04e5	0.034916777
39	0x3d8bb617	0.0682184
40	0x3d654310	0.05597216
41	0xbd1d02b2	-0.03833265
42	0xbcdfd792	-0.027324472
43	0xbcb41079	-0.021980511
44	0x3da032dc	0.07822201
45	0xbe001733	-0.1250885
46	0x3b81902c	0.003953954
47	0x3def7b10	0.11693394
48	0x3ded4a78	0.115864694
49	0xbd97871b	-0.07398816
50	0xbd4c4c4e	-0.049877457
51	0xbcb07cbd	-0.021543855
52	0x3d0426c2	0.032263525
53	0x3c572309	0.013130912
54	0xbdd548e1	-0.10414291
55	0xbd53e1fe	-0.051729195
56	0x3d950804	0.072769195
57	0x3cb1757d	0.021662468
58	0xbdaa0f2e	-0.083036765
59	0xbdbc1a00	-0.091846466
60	0xbb843a4f	-0.0040352712
61	0x3daf17e7	0.08549481
62	0xbdac3092	-0.084077016
63	0x3e0ec880	0.13943672
64	0xbe1c7b32	-0.1528137
65	0xbdbe5aa6	-0.092946336
66	0x3b885d9d	0.00416155
67	0x3d5c282f	0.05374926
68	0x3d9766e2	0.0739267
69	0xbc2c2d83	-0.010508898
70	0xbd5c851d	-0.053837884
71	0x3e196855	0.14981206
72	0x3dfb5718	0.12272471
73	0xbdf6cf16	-0.12051217
74	0x3c922167	0.017838193
75	0xbdc1ab7e	-0.09456538
76	0xbd5f99f9	-0.0545902
77	0x3aa15df6	0.0012311328
78	0xbda5dce7	-0.080987744
79	0xbc0dedc0	-0.008662641
80	0xbe16d9c6	-0.14731511
81	0x3ca47704	0.020076282
82	0x3cb56c42	0.022146348
83	0xbddc8a95	-0.1076862
84	0x3c5d3801	0.013502122
85	0x3d27cb7b	0.04096554
86	0xbc7087e4	-0.014680836
87	0x3c91b913	0.017788446
88	0xbdf665c3	-0.12031128
89	0xbcabd4a8	-0.020975426
90	0xbe06336c	-0.13105553
91	0xbd0423f0	-0.032260835
92	0x3db47ff8	0.088134706
93	0x3d9ca390	0.076483846
94	0xbd28d1b3	-0.04121561
95	0x3d9b6284	0.0758715
96	0x3e183a38	0.14865959
97	0xbd25ea49	-0.040506635
98	0x3e1349ab	0.14383571
99	0xbdfe2702	-0.12409784
100	0x3d9e02b8	0.07715362
101	0xbe09e75e	-0.13467166
102	0x3d0234c4	0.031788602
103	0x3d6d774d	0.057975102
104	0xbd12d993	-0.035852026
105	0xbdefd7a5	-0.11711053
106	0x3db2f72c	0.087385505
107	0x3e136b24	0.1439634
108	0xb9b5697a	-0.00034601596
109	0x3cab8bb7	0.020940645
110	0xbb9cd03c	-0.0047855657
111	0x3defb2db	0.11704036
112	0xbdac66ed	-0.08418069
113	0xbe07ed6d	-0.13274164
114	0x3da5ee56	0.081020996
115	0xbd5e546d	-0.054279733
116	0xbde32223	-0.110904954
117	0xbc0c41b3	-0.008560586
118	0xbd8afcc0	-0.067864895
119	0xbdffecf8	-0.1249637
120	0x3b9644a4	0.0045858193
121	0xbd4bdb93	-0.04976995
122	0xbd58253f	-0.052769896
123	0xbd7ec62b	-0.062200706
124	0x3e150241	0.14551641
125	0xbb9490f2	-0.0045338804
126	0x3cd56790	0.026050359
127	0x3db8b435	0.09018747
128	0xbd368577	-0.044560876
129	0xbd010579	-0.03149936
130	0xbbb90299	-0.0056460616
131	0xbdb65fc3	-0.08904984
132	0xbdd7175e	-0.10502504
133	0xbd75acfc	-0.059979424
134	0xbd0b131c	-0.03395377
135	0x3bc1e4a3	0.005917148
136	0xbdbafdb7	-0.091304235
137	0x3d2f833c	0.042849764
138	0x3cf7255c	0.030169182
139	0xbde4876e	-0.11158644
140	0xbc33b4c7	-0.010968394
141	0xbdda3d0e	-0.106561765
142	0xbd80a99f	-0.06282353
143	0xbd0993f9	-0.033588383
144	0xbda27677	-0.079327516
145	0x3d1b6d89	0.037946258
146	0x3e20198a	0.15634742
147	0x3deefe71	0.116696246
148	0x3dd42d98	0.10360259
149	0x3d704bf4	0.058666185
150	0x3e1f434c	0.15553015
151	0x3de02fec	0.1094664
152	0x3db45c6a	0.08806689
153	0x3de14129	0.109987564
154	0x3e157688	0.14595997
155	0x3d8c6a3b	0.06856199
156	0xbd98623e	-0.07440613
157	0xbd95f300	-0.07321739
158	0xbdbe0ccf	-0.09279787
159	0x3dab0cea	0.083520725
160	0xbdc51fba	-0.09625192
161	0x3d8f09e6	0.0698431
162	0x3e1370ba	0.1439847
163	0x3dcddd72	0.10052003
164	0x3d83fde9	0.06444914
165	0x3d3e1d5f	0.04641473
166	0xbc138003	-0.009002688
167	0x3d6cf163	0.05784739
168	0xbd45123a	-0.048113085
169	0x3d4d81a7	0.050172474
170	0xbd79ec32	-0.06101627
171	0xbd863081	-0.0655222
172	0x3d621748	0.055197984
173	0xbd67aae5	-0.056559462
174	0x3e0ce8dd	0.13760705
175	0xbdcfbba8	-0.101432145
176	0x3b97619c	0.0046197902
177	0x3e2530bf	0.16131876
178	0x3ddfcae1	0.10927368
179	0xbda83ee6	-0.08215122
180	0xbddb2fa7	-0.10702448
181	0x3ac6ce53	0.001516769
182	0x3db921e0	0.09039664
183	0xbc1073c0	-0.008816659
184	0xbdbc07b8	-0.0918116
185	0x3e1f27ae	0.1554248
186	0xbdfef97e	-0.124499306
187	0xbca276a6	-0.019831967
188	0x3cdec7a6	0.02719481
189	0xbd023ab8	-0.03179428
190	0xbb50986e	-0.0031829136
191	0xbd3200cd	-0.043457795
192	0x3df59741	0.1199174
193	0x3e06f4f8	0.13179386
194	0xbd489111	-0.04896647
195	0x3dd5dfef	0.104431026
196	0xbd6008ab	-0.054695766
197	0xbbb80966	-0.0056163548
198	0xbcac6b91	-0.021047385
199	0x3dd30072	0.10302819

lstm.bias_hh_l0 f4 [200]
0	0xbd3a969e	-0.045553796
1	0x3d7860a1	0.060639028
2	0xbdd111ed	-0.10208497
3	0x3d1baa74	0.038004354
4	0x3e148761	0.14504768
5	0xbd1d0da1	-0.038343076
6	0xbd5161e4	-0.051118746
7	0x3dab1ce3	0.08355119
8	0x3dbc14a2	0.09183623
9	0x3d90ec98	0.07076377
10	0x3d79ebb4	0.0610158
11	0x3dbae203	0.091251396
12	0xbd86826c	-0.06567845
13	0xbb0ea385	-0.0021764946
14	0xbdbc9909	-0.09208877
15	0x3c7d46f2	0.015458809
16	0x3d830784	0.06397918
17	0x3da5e1e8	0.08099729
18	0xbd57103e	-0.052505724
19	0x3dcde2fc	0.100530595
20	0xbdaf8980	-0.08571148
21	0x3dee5bb8	0.11638588
22	0xbb83a202	-0.0040171156
23	0xbdfccc8e	-0.12343703
24	0xbdf6c91c	-0.12050077
25	0x3decbda2	0.11559607
26	0x3dfd6b5d	0.123739935
27	0x3cacc1df	0.021088539
28	0x3c3831bb	0.011242325
29	0x3da55b57	0.08074062
30	0xbd971621	-0.07377268
31	0xbd8ff0f6	-0.070283815
32	0xbab935b8	-0.0014130389
33	0x3db19566	0.086710736
34	0x3e06e088	0.1317159
35	0xbbba4ba4	-0.0056852866
36	0xbd1e1ab3	-0.03859968
37	0x3cf609cb	0.030033967
38	0x3c57eb8b	0.013178716
39	0x3dac0410	0.08399212
40	0x3d98fc3c	0.07469985
41	0xbd12c292	-0.035830088
42	0x3c4f8ee2	0.012668343
43	0x3d3c74ac	0.046009704
44	0x3cc1a873	0.023639893
45	0x3e0f10e7	0.13971291
46	0xbdc79d7d	-0.097468354
47	0xbda50e4a	-0.08059366
48	0xbd56727c	-0.052355275
49	0xbd757791	-0.05992848
50	0x3dbf1d2f	0.09331738
51	0xbde3b167	-0.11117821
52	0xbd8ae40c	-0.06781778
53	0x3dc824b5	0.09772626
54	0xbd4e5c70	-0.050381124
55	0xbd352668	-0.04422608
56	0x3d1e8347	0.038699415
57	0xbca0fef7	-0.019652827
58	0xbd822cdd	-0.06356213
59	0x3d9ab234	0.07553521
60	0xbdbe583d	-0.09294174
61	0x3cc390a6	0.023872685
62	0x3b116fa5	0.002219179
63	0xbc275ebc	-0.0102154575
64	0x3dfcea12	0.12349333
65	0x3bd39ba6	0.0064577637
66	0xbd1783dc	-0.036990985
67	0xbd59d95d	-0.05318581
68	0xbe0850ad	-0.13312025
69	0xbcbc7156	-0.023003262
70	0xbd4d3f31	-0.050109092
71	0x3e01f329	0.12690414
72	0xbd6359a2	-0.055505402
73	0x3e063876	0.13107476
74	0x3c124339	0.00892716
75	0xbe1e03e9	-0.15431179
76	0xbd66013d	-0.056153525
77	0xbb4ea170	-0.003152933
78	0x3d33560a	0.043783225
79	0xbd0dd8f9	-0.03463075
80	0xbd2d537c	-0.042315945
81	0xbe07c167	-0.13257371
82	0xbdd45c44	-0.10369161
83	0xbdb6ff75	-0.08935443
84	0xbcf0c4d5	-0.029390732
85	0x3d96a530	0.07355726
86	0xbdc9fc17	-0.098625354
87	0x3df8fe32	0.12157859
88	0x3dc3a197	0.09552305
89	0xbd7ec731	-0.062201682
90	0xbd870c77	-0.06594174
91	0x3d987e08	0.074459136
92	0xbc8d23a0	-0.017228901
93	0xbd78ac08	-0.060710937
94	0xbd612673	-0.05496831
95	0x3d8a33ac	0.06748137
96	0xbd280932	-0.041024394
97	0xbc92eb39	-0.017934429
98	0xbc8a3838	-0.01687251
99	0x3dc667dc	0.09687778
100	0xbd0a1858	-0.033714622
101	0xbc85b0b1	-0.016319605
102	0x3ce8c93d	0.02841627
103	0xbacf9239	-0.0015836424
104	0x3ccd2187	0.025040401
105	0xbd57b0c2	-0.052658804
106	0x3ca3573a	0.019939054
107	0x3d08805b	0.033325534
108	0x3de39831	0.111130126
109	0x3ddd7d03	0.1081486
110	0xbd230bd3	-0.0398062
111	0xbe0859cb	-0.13315503
112	0xbd9427b5	-0.07234136
113	0xbdb224aa	-0.08698399
114	0xbe27686f	-0.16348432
115	0xbd9671fc	-0.073459595
116	0x3de58c60	0.11208415
117	0x3e005102	0.12530902
118	0xbc426611	-0.011865155
119	0x3c4e5e98	0.012595795
120	0x3d6ed639	0.058309767
121	0xbdc1d220	-0.09463906
122	0xbdccf91f	-0.100084536
123	0x3df2926e	0.118443355
124	0xbdce2273	-0.100651644
125	0x3dc4cc8a	0.09609325
126	0xbddc8464	-0.10767439
127	0x3dbdfc1b	0.09276601
128	0x3bc4232e	0.005985639
129	0xbd7c5061	-0.061600093
130	0xbda1a511	-0.07892812
131	0x3de69d91	0.11260522
132	0xbd8bc45a	-0.068245605
133	0xbdb8c322	-0.09021594
134	0x3d0eb7cc	0.03484325
135	0x3bc85be1	0.0061144684
136	0x3d83f09b	0.06442376
137	0xbda52f2a	-0.080656365
138	0x3dfa166d	0.12211309
139	0x3c82a470	0.01594755
140	0xbdd033ea	-0.10166152
141	0xbcd8c1e3	-0.02645964
142	0x3d47573f	0.04866719
143	0xbd8a94c2	-0.067666546
144	0xbd779d27	-0.060452607
145	0x3df391c6	0.118930385
146	0x3e281b04	0.16416556
147	0xbdce672f	-0.100782745
148	0x3df7c30c	0.12097749
149	0xbd9be05f	-0.07611155
150	0x3d8f4f7b	0.069975816
151	0x3db6a67c	0.08918473
152	0xbd7a37dd	-0.06108843
153	0xbc2b7ec8	-0.010467239
154	0xbd133cf3	-0.035946798
155	0x3c431db6	0.011908939
156	0xbe051c54	-0.12999088
157	0xbb2060f7	-0.0024471858
158	0xbd175d76	-0.036954366
159	0x3d6700ec	0.056397364
160	0xbcab0d90	-0.02088049
161	0xbc7aaa4a	-0.015299389
162	0xbdd7fb65	-0.105459966
163	0x3e00a687	0.12563525
164	0x3d8b1f61	0.067930944
165	0x3d2cebdf	0.04221713
166	0x3daaacf7	0.08333772
167	0x3df0520c	0.11734399
168	0xbd2227c6	-0.039588712
169	0xbab83401	-0.0014053584
170	0xbb856574	-0.004070932
171	0xbd2873f3	-0.041126203
172	0x3d25a6d0	0.040442288
173	0x3dcfe0e4	0.10150316
174	0xbd877478	-0.066140115
175	0xbe0b21a2	-0.13587049
176	0x3e07c166	0.1325737
177	0x3d44ab41	0.048014883
178	0x3e0aa4cd	0.13539429
179	0xbc817b54	-0.015805878
180	0xbd25a6ab	-0.04044215
181	0xbdf65a70	-0.12028968
182	0x3e241d7f	0.16026877
183	0x3e2b54fc	0.16731638
184	0xbabbd70c	-0.0014331057
185	0x3d4541dc	0.04815851
186	0xbd620c73	-0.055187654
187	0x3ba403a6	0.0050053177
188	0x3b17bd8f	0.0023153757
189	0x3e0aaccb	0.13542478
190	0xbc867974	-0.016415335
191	0xbe0cf0d2	-0.1376374
192	0x3dfd646d	0.1237267
193	0x3c99bb64	0.018766113
194	0xbd865474	-0.06559077
195	0xbde51139	-0.111849256
196	0x3e002252	0.12513092
197	0x3d983a20	0.074329615
198	0xbd337786	-0.04381516
199	0xbdefd442	-0.11710407

lstm.weight_ih_l1 f4 [200, 50]
0	0xbda4a26b	-0.08038791
1	0xbdc11249	-0.09427316
2	0x3d822fa6	0.063567445
3	0x3d4ea17c	0.050446972
4	0x3e62e5e3	0.22158007
5	0x3db2560f	0.087078206
6	0xbdad1568	-0.084513485
7	0x3e5f5c5d	0.21812578
8	0xbddf844b	-0.10913905
9	0x3ba405fd	0.0050055967
10	0xbcd8b61e	-0.026454028
11	0xbcd45124	-0.025917597
12	0x3dc8d14d	0.09805546
13	0xbdecba44	-0.11558965
14	0xbd8a750f	-0.067606084
15	0x3d29f475	0.041492898
16	0x3d23e2ed	0.040011335
17	0x3ca98ef7	0.020698054
18	0xbd063b92	-0.032771654
19	0xbe51150f	-0.2041819
20	0xbe360c68	-0.1777817
21	0x3cc0b42a	0.023523409
22	0x3d8e0663	0.06934812
23	0x3d303871	0.043022577
24	0x3e694855	0.22781499
25	0x3d12012e	0.035645656
26	0x3cc56591	0.024096282
27	0x3d2465cf	0.040136155
28	0xbe305d4d	-0.17223091
29	0x3dab7322	0.08371569
30	0xbe849367	-0.2589371
31	0xbb1d4aef	-0.0024000963
32	0xbe85981a	-0.26092607
33	0xbe03996d	-0.12851496
34	0x3a9bc133	0.0011883139
35	0x3dfd8199	0.123782344
36	0xbdbe9eab	-0.09307607
37	0xbe16af26	-0.14715251
38	0xbe349fd6	-0.17639098
39	0xbde17862	-0.11009289
40	0xbd41a313	-0.04727466
41	0x3ddd4e49	0.10805947
42	0x3e3cf92b	0.18454425
43	0x3e235c84	0.1595326
44	0xbd82ca12	-0.06386198
45	0xbdd8451f	-0.10560059
46	0x3db72b58	0.08943814
47	0xbdf954ad	-0.12174354
48	0x3d933540	0.07187891
49	0x3e4d56b1	0.20052601
50	0xbd161cbb	-0.036648493
51	0xbdbecd8c	-0.09316549
52	0x3cb394ab	0.021921476
53	0x3d572aa8	0.052530915
54	0x3d8e14f6	0.06937592
55	0xbc100b87	-0.008791811
56	0xbb2ad7e5	-0.0026068625
57	0xbe2efc64	-0.17088467
58	0x3dfe92e8	0.12430364
59	0x3e0226dd	0.12710138
60	0xbd822327	-0.06354361
61	0x3c5c5bb6	0.0134496
62	0xbd77ef45	-0.06053092
63	0xbd80c197	-0.06286924
64	0x3e113bfe	0.14183041
65	0x3dfda87b	0.12385651
66	0x3ca1962c	0.019724928
67	0x3d5031c7	0.05082872
68	0xbdc345bc	-0.09534785
69	0x3d6e94a5	0.058247227
70	0xbd9ecb64	-0.077536374
71	0xbcae1fb0	-0.021255344
72	0x3d0cb81c	0.034355268
73	0xbe022552	-0.12709549
74	0xbd3651fe	-0.044511788
75	0xbd5f0355	-0.054446537
76	0xba1143c9	-0.0005541412
77	0x3d9c1504	0.07621196
78	0xbd0167e0	-0.031593204
79	0xbe0bc8ee	-0.13650867
80	0xbcc1ac1e	-0.023641642
81	0xbdfb3c7d	-0.122673966
82	0xbd3c8937	-0.046029296
83	0x3e087a20	0.13327837
84	0xbe0967c8	-0.13418496
85	0xbcb95438	-0.022623166
86	0xbc52c102	-0.012863399
87	0x3e04291c	0.12906307
88	0xbd7218ff	-0.05910587
89	0x3e12dec9	0.14342798
90	0xbdbc92c8	-0.09207684
91	0xbd551dcd	-0.052030373
92	0x3ce110a1	0.02747375
93	0xbd613006	-0.05497744
94	0xbce4daa9	-0.027936297
95	0x3da49645	0.08036474
96	0x3c3c683e	0.011499463
97	0x3c822725	0.015887806
98	0xbdca67a7	-0.09883051
99	0xbdb24e66	-0.087063596
100	0xbc0e442a	-0.008683244
101	0xbd8df56f	-0.06931578
102	0xbd421b88	-0.047389537
103	0xbe1bcdac	-0.15215176
104	0xbdfb48a2	-0.12269713
105	0xbc6f6da6	-0.014613545
106	0xbda8b4a5	-0.0823758
107	0x3cfe5ade	0.031049188
108	0x3d988707	0.074476294
109	0xbdc3f670	-0.095684886
110	0xbc188b37	-0.009310535
111	0x3db80d27	0.089868836
112	0x3c8be374	0.017076232
113	0x3d3b72d2	0.045763798
114	0xbd9b5fb3	-0.075866126
115	0xbcf5216a	-0.02992316
116	0xbd1612df	-0.03663909
117	0xbdd66e05	-0.10470203
118	0xba145f22	-0.0005659928
119	0xbc965846	-0.018352639
120	0x3dc9bbd1	0.09850276
121	0xbdf33273	-0.11874857
122	0xbbab7cab	-0.0052333674
123	0xbd534cea	-0.051587023
124	0x3d46d33f	0.048541304
125	0x3ccb15a6	0.024790596
126	0xbd082810	-0.03324133
127	0xbd5799ac	-0.052636787
128	0xbc67610b	-0.014122258
129	0xbd6e3045	-0.058151502
130	0xbe184349	-0.14869417
131	0x3dfd922c	0.12381396
132	0xbdaa44aa	-0.08313878
133	0xbdd23a37	-0.1026501
134	0x3cf9de3c	0.030501477
135	0x3d5fb01a	0.054611303
136	0xbdb00438	-0.08594555
137	0xbd1b7353	-0.03795178
138	0xbbc5b636	-0.006033684
139	0x3dc26f03	0.0949383
140	0x3d837bdb	0.06420108
141	0x3cb179e8	0.021664575
142	0xbdb5d0dc	-0.088777274
143	0x3c961066	0.018318366
144	0x3de8d9b3	0.11369648
145	0x3d7752f3	0.06038184
146	0x3d032c5a	0.03202472
147	0xbd38f85a	-0.04515872
148	0x3bacad3c	0.0052696746
149	0x3de4c7e1	0.111709364
150	0x3db79e0c	0.08965692
151	0x3bce09e4	0.0062878
152	0x3c9bde12	0.01902679
153	0xbe037eed	-0.12841387
154	0x3ca30145	0.019898066
155	0xbdae983e	-0.08525132
156	0x3dd5345f	0.104103796
157	0xbd186c07	-0.037212398
158	0x3dcaaa3f	0.09895753
159	0xbd98e7f5	-0.07466117
160	0x3e3f5592	0.18684986
161	0x3da7593c	0.08171317
162	0xbdc996e0	-0.0984323
163	0xbe2934b7	-0.16524015
164	0x3e281970	0.16415954
165	0x3d7158f3	0.05892272
166	0xbe287763	-0.16451792
167	0x3daf72bc	0.08566806
168	0x3e113d26	0.14183483
169	0xbd878ade	-0.06618284
170	0x3cdad57a	0.026713122
171	0x3df69023	0.12039211
172	0xbe3235cb	-0.17403333
173	0xbdbe1c87	-0.09282785
174	0xbd8d5194	-0.069003254
175	0x3d619c3c	0.055080637
176	0x3d8b99e8	0.06816465
177	0x3dc64559	0.09681196
178	0x3e283fe8	0.16430628
179	0xbcc7c4ca	-0.024385829
180	0x3d872099	0.065980144
181	0xbd937fe1	-0.07202125
182	0x3e0a5515	0.13509019
183	0x3da4afba	0.0804133
184	0x3d4043e3	0.04693974
185	0xbe3b4c65	-0.18290861
186	0x3c18ad7c	0.009318706
187	0xbd308289	-0.043093238
188	0x3cb43676	0.021998625
189	0x3e2cfa67	0.16892396
190	0xbd286bb8	-0.041118354
191	0xbdb15ba6	-0.08660059
192	0x3cdeedf6	0.027213078
193	0x3bcc5957	0.006236236
194	0xbc3e58c3	-0.011617842
195	0xbd488da6	-0.04896321
196	0x3e15bae5	0.14622076
197	0xbde15231	-0.11002005
198	0xb97b3626	-0.00023957397
199	0x3d88d15b	0.066805564
200	0xbdf0ccda	-0.11757822
201	0x3df25f9f	0.118346445
202	0x3dafdfbb	0.08587595
203	0xbe0000b4	-0.12500268
204	0xbd65a197	-0.056062307
205	0xbe0a0e7b	-0.13482086
206	0x3d96eeb1	0.073697455
207	0xbdc7df52	-0.09759392
208	0xbbf9664d	-0.007611072
209	0x3e1248ba	0.14285555
210	0x3c90fcd0	0.017698675
211	0x3d1bad1a	0.03800688
212	0x3df53240	0.11972475
213	0xbc1292c3	-0.0089461235
214	0xbc1cfba5	-0.009581481
215	0x3db631f2	0.08896245
216	0xbd9fc286	-0.07800774
217	0xbda0d5b3	-0.0785326
218	0xbb45e419	-0.0030195771
219	0x3d2e1db9	0.042508814
220	0xbd75d3fc	-0.060016617
221	0x3dee1e3a	0.11626859
222	0x3d067c48	0.032833368
223	0xbcafcfb7	-0.02146135
224	0x3d1d0883	0.038338196
225	0xbd3a6008	-0.04550174
226	0x3c0bdec4	0.008536998
227	0xbc4f8a77	-0.01266729
228	0xbd816016	-0.06317155
229	0xbdf0654b	-0.1173807
230	0xbd63e27e	-0.05563592
231	0xbdbe49ae	-0.09291397
232	0x3e0433d1	0.12910391
233	0x3dd7d1b4	0.105380446
234	0xbd8dc560	-0.06922412
235	0xbd90b060	-0.07064891
236	0x3e0afe4d	0.1357357
237	0x3da682b4	0.081303984
238	0x3b71b1d8	0.0036879685
239	0x3c38e6ff	0.0112855425
240	0xbe09654d	-0.1341755
241	0xbdc3c90f	-0.09559833
242	0xbe060a0a	-0.13089767
243	0x3dc28cfc	0.09499547
244	0x3d23c6cc	0.03998451
245	0xbddca590	-0.10773766
246	0xbd93d8f3	-0.07219114
247	0xbc3d359c	-0.011548426
248	0xbd8ca7e6	-0.068679616
249	0x3dab1eb8	0.083554685
250	0x3d0819c5	0.0332277
251	0x3dce3c5d	0.10070107
252	0x3dd7c5c4	0.10535768
253	0xbd5e4de0	-0.054273486
254	0x3e1e8b48	0.15482819
255	0x3d05f718	0.03270635

lstm.weight_hh_l1 f4 [200, 50]
0	0x3e60bf44	0.21947962
1	0xbbdd61a7	-0.006756026
2	0x3ca47806	0.020076763
3	0xbdef3d18	-0.116815746
4	0x3c8fbaf1	0.017545195
5	0x3dcbe54e	0.09955846
6	0xbdd5f0dc	-0.10446331
7	0x3d01c734	0.031684116
8	0x3b29acb5	0.0025890295
9	0x3e08fb59	0.13377132
10	0xbe12beb1	-0.14330555
11	0xbdd72789	-0.105055876
12	0xbabcfb74	-0.0014418201
13	0x3c60662a	0.013696233
14	0xbd762170	-0.060090482
15	0x3ccc0704	0.024905689
16	0xbd87cc1a	-0.06630726
17	0x3d25bc12	0.04046256
18	0x3df2d6b9	0.11857361
19	0xbe011a75	-0.12607749
20	0xbd42d7f9	-0.04756925
21	0xbd2742f3	-0.040835332
22	0xbda19ce3	-0.07891252
23	0xb915b11b	-0.00014275724
24	0xbe3fed2b	-0.18742816
25	0xbd9d03f4	-0.076667696
26	0x3df26faf	0.11837708
27	0x3cb24e2b	0.021765789
28	0x3c796492	0.015221732
29	0xbc0d1c6e	-0.008612735
30	0x3dc77b93	0.09740367
31	0x3cd55386	0.026040804
32	0x3aeefde6	0.0018233627
33	0xbd126646	-0.035742067
34	0x3e1fd861	0.15609886
35	0xbd5a97ac	-0.0533673
36	0x3d915b1e	0.07097457
37	0x3d9b088d	0.0756999
38	0xbd590f69	-0.052993212
39	0x3d7fb672	0.062429853
40	0x3edb3468	0.4281342
41	0xbd39b2ca	-0.045336522
42	0xbcf821c2	-0.030289534
43	0x3d5c55c1	0.05379272
44	0x3dcd8eea	0.10037024
45	0xbe17a9b1	-0.14810826
46	0xbd4d02eb	-0.05005161
47	0xbe1940b4	-0.14966089
48	0x3cae5894	0.021282472
49	0x3d81cc31	0.063377745
50	0xbd8a4442	-0.067513004
51	0x3dfe9523	0.12430789
52	0x3d90ec8e	0.07076369
53	0xbcc33efe	-0.023833748
54	0x3d5adc1c	0.05343257
55	0x3e23eb9e	0.1600785
56	0x3c4ec80a	0.012620935
57	0x3db89aa2	0.09013869
58	0xbd06b050	-0.03288299
59	0x3d8d0aca	0.068868235
60	0xbe0b95d5	-0.13631375
61	0xbb534cab	-0.0032241743
62	0x3e056b41	0.13029195
63	0x3cc309c3	0.023808366
64	0x3e03e9d2	0.12882164
65	0xbdbd8648	-0.09254128
66	0x3db26fe4	0.08712748
67	0xbe2f7ab0	-0.17136645
68	0xbc2cbd3b	-0.010543163
69	0x3de95429	0.113930054
70	0x3d343b7c	0.04400204
71	0xbdb93d92	-0.09044947
72	0xbcc45dcf	-0.023970513
73	0xbe0a6a52	-0.1351712
74	0x3e048d49	0.12944521
75	0x3d4ed643	0.050497305
76	0x38b5c43a	8.6673026e-05
77	0x3dda7855	0.10667483
78	0x3e0ef9e8	0.13962519
79	0x3e10c0d4	0.14136058
80	0xbe06dc34	-0.13169938
81	0x3c91b942	0.017788533
82	0xbdd430c3	-0.10360863
83	0x3cf6bc57	0.030119104
84	0xbd890a60	-0.06691432
85	0xbd32c16d	-0.043641496
86	0x3d04d493	0.03242929
87	0x3e06a3ef	0.13148473
88	0xbdccdbaa	-0.10002835
89	0x3dce583e	0.100754246
90	0xbdf585aa	-0.11988385
91	0xbd561919	-0.05227003
92	0xbdb17bcc	-0.086661905
93	0x3daef0de	0.085420355
94	0xbe082bf4	-0.13298017
95	0x3db4496a	0.08803065
96	0xbdf79c5e	-0.120903715
97	0x3bfaabca	0.0076498734
98	0xbdcff05b	-0.10153266
99	0x3cbbfc1b	0.022947362
100	0x3c93a063	0.018020814
101	0xbd302ed2	-0.0430134
102	0x3d708ed5	0.058729965
103	0xbdd370fd	-0.10324285
104	0x3e1fc4b1	0.15602376
105	0xbd9ae979	-0.075640626
106	0xbd6a2f90	-0.057174265
107	0x3e0d678d	0.13809033
108	0x3dcd80d4	0.10034338
109	0x3cd1fcb4	0.025633194
110	0xbd013f80	-0.0315547
111	0xbdae3ae3	-0.085073255
112	0xbdaf4feb	-0.08560165
113	0xbdb58c18	-0.088646114
114	0x3e045a6e	0.12925121
115	0xbe11f830	-0.14254832
116	0x3ce5d4ce	0.028055575
117	0x3b69f372	0.0035698083
118	0x3c8c12f6	0.017098885
119	0xbd0cbcc8	-0.034359723
120	0xbd41667e	-0.047216885
121	0xbd9bc720	-0.076063395
122	0xbd7cd3ca	-0.061725415
123	0xbe1b3c89	-0.15159811
124	0x3da2ddeb	0.07952484
125	0xbe042e6a	-0.1290833
126	0x3d2d8641	0.042364363
127	0x3db04d36	0.08608477
128	0x3e1c271c	0.15249294
129	0xbdf240ce	-0.11828767
130	0x3d3fd5de	0.04683482
131	0xbcdf24fb	-0.027239313
132	0x3da4a678	0.08039564
133	0x3e1b0458	0.15138376
134	0x3d4ffe76	0.050779782
135	0xbdd4450f	-0.103647344
136	0xbc8e97da	-0.017406393
137	0xbd9dd1be	-0.07706021
138	0xbdd98123	-0.10620334
139	0x3d186be2	0.03721226
140	0xbe355c67	-0.1771103
141	0x3d76a13f	0.06021237
142	0xbd2545bd	-0.04034971
143	0xbe1f3b80	-0.15550041
144	0xbe11b10f	-0.14227699
145	0x3d94847b	0.07251831
146	0x3db61131	0.08889998
147	0x3d897aab	0.0671285
148	0xbdcf2ce3	-0.10115983
149	0xbd8be84d	-0.06831417
150	0x3dc5fa60	0.09666896
151	0x3c1718d6	0.00922223
152	0x3e022567	0.1270958
153	0xbd7a2a03	-0.06107522
154	0xbdf1c176	-0.11804478
155	0x3d93adef	0.072109096
156	0x3e12f3e6	0.14350852
157	0x3c69cebe	0.014270483
158	0xbd8a7cec	-0.06762108
159	0xbcd16bb6	-0.025564056
160	0xbdf68baa	-0.120383576
161	0x3d6fb8ad	0.05852573
162	0x3d09d0df	0.03364646
163	0x3da804e4	0.08204058
164	0xbda41e6c	-0.08013615
165	0xbdb25acb	-0.08708724
166	0x3d04a4b1	0.032383624
167	0xbdb2302a	-0.08700593
168	0x3d7b6e26	0.061384343
169	0x3e04c45d	0.12965532
170	0xbda3bca9	-0.079949684
171	0xbd8dcfe3	-0.06924417
172	0xbdd5c89c	-0.10438654
173	0xbdfd6978	-0.12373632
174	0xbcd61099	-0.026130961
175	0x3d573868	0.052544028
176	0xbd04c2a3	-0.032412183
177	0x3d65f7fa	0.056144692
178	0xbc94c321	-0.018159451
179	0x3ca7d76b	0.020488461
180	0x3b76df4e	0.003766972
181	0xbdc72fea	-0.09725936
182	0xbb606a2e	-0.0034242976
183	0xbdc83838	-0.09776348
184	0x3df5f46c	0.120095104
185	0x3bcd55ab	0.006266316
186	0x3c92856f	0.017885892
187	0x3db75cc9	0.08953244
188	0x3da4cdb8	0.0804705
189	0xbd8bb3a8	-0.06821376
190	0xbcb7e2fb	-0.0224471
191	0xbc8c3233	-0.01711378
192	0x3d8398a5	0.06425599
193	0x3b97f137	0.0046369093
194	0x3d08a6aa	0.03336207
195	0xbdc4cbe7	-0.09609204
196	0x3be5e3e9	0.0070156944
197	0xbde32ba5	-0.11092309
198	0xbc83ef75	-0.016105393
199	0xbd6024ca	-0.054722585
200	0xbe09a230	-0.13440776
201	0x3d565f7c	0.052337155
202	0x3b34c413	0.002758269
203	0xbc99db03	-0.01878119
204	0xbd5b2dcb	-0.05351047
205	0x3e20f15b	0.1571707
206	0xbc69c104	-0.01426721
207	0x3c03d703	0.008046868
208	0x3d45c7ff	0.048286434
209	0xbd920644	-0.07130101
210	0x3d7f9cb9	0.06240532
211	0xbcc7947f	-0.0243628
212	0xbde45104	-0.11148265
213	0xbcc78f71	-0.02436039
214	0x3dbdb2e6	0.09262638
215	0xbce171f0	-0.02752015
216	0x3da5608c	0.080750555
217	0x3cf4ebe7	0.029897643
218	0xbbcd57de	-0.006266578
219	0xbd7a670f	-0.06113344
220	0xbda81681	-0.08207417
221	0x3d9caa45	0.07649664
222	0x3da86a6a	0.08223422
223	0x3e078fbf	0.13238429
224	0x3cabe77f	0.02098441
225	0xbe11b629	-0.14229645
226	0x3a294c2d	0.00064581895
227	0x3dfbd0be	0.12295674
228	0xbdd75981	-0.105151184
229	0xbdc69727	-0.09696799
230	0x3d358a49	0.044321332
231	0xbcf7c9b5	-0.030247549
232	0xbd64c48e	-0.05585151
233	0x3e009cee	0.12559864
234	0xbdd7c05f	-0.10534739
235	0x3d37b151	0.044846836
236	0x3da453c3	0.08023789
237	0x3e0f86bd	0.14016242
238	0xbda7a145	-0.081850566
239	0xbd32792e	-0.043572597
240	0x3e3efad0	0.18650365
241	0xbd9cb96a	-0.076525524
242	0xbe01e32b	-0.12684314
243	0xbd12d8ac	-0.035851166
244	0xbd881275	-0.066441454
245	0xbda41b39	-0.08013005
246	0x3cf92598	0.030413434
247	0x3bcac226	0.006187695
248	0xbd6565fe	-0.05600547
249	0xbda6ce6d	-0.08144841
250	0xbd91b973	-0.0711545
251	0x3c8b0149	0.016968386
252	0x3d076772	0.033057638
253	0x3dc9949c	0.09842798
254	0x3d850e33	0.06496849
255	0x3d887f8b	0.06664952

lstm.bias_ih_l1 f4 [200]
0	0xbd89ce8a	-0.06728847
1	0xbd9881a7	-0.07446604
2	0x3d9cd622	0.0765803
3	0x3dcd71fa	0.10031505
4	0xbd7fac94	-0.062420443
5	0xbd95deb3	-0.07317867
6	0xbdf5b186	-0.119967505
7	0xbcdb11de	-0.026741918
8	0xbd0efed8	-0.034911007
9	0x3d3aa3c9	0.045566354
10	0x3da9b754	0.0828692
11	0x3dbe3300	0.09287071
12	0x3de3cc8d	0.11122999
13	0xbdb23200	-0.08700943
14	0xbdaf2179	-0.08551306
15	0x3cbe7bee	0.023252454
16	0x3de234fb	0.110452615
17	0x3e0d5a09	0.13803877
18	0x3e20fb81	0.15720941
19	0xbdaf4480	-0.08557987
20	0x3cefdb91	0.029279502
21	0xbcba5f1e	-0.022750434
22	0xbce123ef	-0.027482955
23	0x3d832b78	0.064047754
24	0x3ce99eca	0.0285181
25	0x3b325101	0.0027208927
26	0xbdf01a39	-0.117237516
27	0x3dc2e6fd	0.09516714
28	0xbdf0a1dd	-0.11749623
29	0xbde19e2c	-0.11016497
30	0x3d1df258	0.038561195
31	0xbdde4150	-0.10852301
32	0xbd576ecc	-0.0525959
33	0x3cbcdbcc	0.023054026
34	0x3d0f97f3	0.03505702
35	0xbcd2615d	-0.025681192
36	0x3d470956	0.048592888
37	0xbd128179	-0.035768006
38	0x3d10d4ea	0.0353593
39	0xbdef45c9	-0.11683232
40	0x3d8d8ac4	0.06911233
41	0x3dca68f4	0.098832995
42	0xbdb1f0d6	-0.08688514
43	0xbdae551c	-0.08512327
44	0xbd0b5c74	-0.034023717
45	0xbb4df871	-0.00314286
46	0x3deedace	0.116628274
47	0xbe12a6a2	-0.14321378
48	0x3d9eef99	0.077605434
49	0xbdccbbb4	-0.09996739
50	0xbde0e2d5	-0.10980765
51	0xbe039dee	-0.12853214
52	0xbcce0013	-0.02514652
53	0xbd5b7265	-0.053575892
54	0x3cdcb633	0.026942348
55	0xbd80afc0	-0.06283522
56	0xbdd38b58	-0.10329312
57	0x3e092876	0.13394341
58	0x3d6a4292	0.057192393
59	0xbdb945ba	-0.090465024
60	0xbc952815	-0.01820759
61	0xbd99ab6b	-0.075033985
62	0xbadad045	-0.0016694149
63	0xbcd21edd	-0.025649482
64	0x3e088df5	0.13335402
65	0xbdf5ea83	-0.1200762
66	0xbd38c573	-0.045110177
67	0x3dbd7393	0.0925056
68	0xbdc91e46	-0.09820227
69	0xbdb6ee62	-0.08932187
70	0x3c881b00	0.016614437
71	0x3dac2233	0.084049605
72	0x3d9f95d2	0.07792248
73	0x3dca9550	0.0989176
74	0x3db84490	0.08997452
75	0xbd811b05	-0.06303982
76	0x3db85ea2	0.09002425
77	0x3b3a1b88	0.0028397758
78	0xbe02f14c	-0.1278736
79	0x3d859e36	0.06524317
80	0x3dccc577	0.09998601
81	0x3e020ef7	0.12701021
82	0x3b06985e	0.0020537595
83	0xba9b8fee	-0.0011868456
84	0x3d74c9ac	0.05976264
85	0x3cdefd29	0.027220326
86	0xbd2a1f7a	-0.041533925
87	0x3d94bd75	0.072626986
88	0x3df6a147	0.1204248
89	0xbd62d9d4	-0.05538352
90	0xbdf85415	-0.121254124
91	0xbe018267	-0.12647401
92	0x3bc187b7	0.005906071
93	0x3dd9272f	0.10603177
94	0x3dc3ab2b	0.09554132
95	0xbd1298b6	-0.035790168
96	0xbc9b1960	-0.018932998
97	0x3dec069d	0.11524699
98	0x3de490ca	0.11160429
99	0xbc8098f8	-0.015697941
100	0x3cdab10e	0.026695754
101	0xbd408202	-0.046998985
102	0xbd81546d	-0.06314931
103	0x3dfbe0cf	0.12298738
104	0xbe021dc9	-0.12706675
105	0x3ddc9e3a	0.10772367
106	0x3df59470	0.11991203
107	0xbe026740	-0.12734699
108	0x3d1b1eb7	0.03787109
109	0x3d852c38	0.06502575
110	0xbc285a17	-0.010275385
111	0x3ca46373	0.020066952
112	0xbd554d77	-0.05207583
113	0x3dd1ab3a	0.10237737
114	0xbca4a0ca	-0.020096201
115	0x3d0a9620	0.033834577
116	0x3dc2b6ae	0.095075
117	0x3d8f348f	0.06992447
118	0x3d4da8ad	0.05020969
119	0x3dc73321	0.09726549
120	0x3d9d8411	0.07691205
121	0x3daf7d1d	0.08568785
122	0xbdfe2a7a	-0.124104455
123	0xbdbb22dc	-0.09137508
124	0xbe151fcd	-0.14562912
125	0x3daac5b2	0.08338489
126	0xbd451c75	-0.048122842
127	0x3db24a27	0.0870555
128	0xbdfef03d	-0.124481656
129	0x3ded6fb6	0.11593573
130	0xbd7ca85c	-0.061683998
131	0x3dc51f5b	0.09625121
132	0x3d5604e1	0.052250747
133	0xbd6524eb	-0.05594341
134	0x3d3e46d7	0.046454277
135	0x3d3c0101	0.045899395
136	0x3b3296e7	0.002725059
137	0x3ca6d7f5	0.020366648
138	0xbda26bd6	-0.07930724
139	0x3c9b22cf	0.018937496
140	0xbd88409c	-0.06652948
141	0xbbfa350d	-0.0076357187
142	0xbd9d2cc5	-0.07674555
143	0x3e1e7f9c	0.15478367
144	0x3d8109ba	0.06300683
145	0xbe00c5ee	-0.12575504
146	0x3c9be80b	0.019031545
147	0x3d2ca7ec	0.04215233
148	0x3dc7d713	0.09757819
149	0x3dca6a24	0.09883526
150	0xbd166f9c	-0.036727533
151	0x3d7b71c8	0.061387807
152	0x3d0a6f00	0.033797264
153	0xbbb55cd6	-0.0055347485
154	0x3e1506df	0.14553402
155	0xbdae091b	-0.084978305
156	0x3da8fa85	0.08250908
157	0xbd1f65b8	-0.038915366
158	0xbd4305e7	-0.04761305
159	0xbb81adfa	-0.003957507
160	0x3e32c340	0.17457294
161	0xbc7eefbf	-0.01556009
162	0xbc5c8e34	-0.013461638
163	0x3cb815ae	0.022471275
164	0x3e1d4b51	0.15360762
165	0x3dca7790	0.09886086
166	0x3e0ec8e5	0.13943823
167	0x3e2dfbf8	0.1699065
168	0xbce9671d	-0.028491551
169	0x3de8f203	0.11374285
170	0xbcccdc16	-0.025007289
171	0xbc97bfec	-0.018524133
172	0xbd450d59	-0.048108432
173	0x3d8b1b42	0.067923084
174	0x3d5f49e4	0.054513827
175	0x3e1044a8	0.1408869
176	0x3e0b79c1	0.13620664
177	0x3d99f0e3	0.075166486
178	0x3d8ecc98	0.06972617
179	0x3cb5af3e	0.022178289
180	0x3d84f313	0.06491675
181	0x3d839275	0.06424419
182	0x3d226545	0.03964736
183	0xbd01155a	-0.031514503
184	0xbd7ccdb1	-0.0617196
185	0x3db36174	0.08758822
186	0xbcb4b90e	-0.022060897
187	0xbc2ad3dd	-0.010426489
188	0xbd7dba2c	-0.061945125
189	0x3d74d774	0.059775785
190	0x3e672205	0.22571571
191	0xbe083f85	-0.13305481
192	0x3d73cb84	0.05952026
193	0xbdd36b20	-0.10323167
194	0xbd92eea3	-0.071744226
195	0x3c92f42e	0.0179387
196	0x3c14847c	0.00906479
197	0x3deb805b	0.11499091
198	0x3d161d9a	0.036649324
199	0x3de71522	0.11283328

lstm.bias_hh_l1 f4 [200]
0	0xbd4f75c2	-0.050649412
1	0xbdcd26ed	-0.1001719
2	0xbdbbf398	-0.09177321
3	0xbbc27f93	-0.005935618
4	0xbc31c710	-0.010850683
5	0x3dc384b7	0.09546798
6	0xbd8093ba	-0.062781766
7	0x3e046342	0.12928489
8	0xbc9bbfe1	-0.019012393
9	0xbdcae445	-0.0990682
10	0x3d850a96	0.0649616
11	0xbd05bf40	-0.032653093
12	0x3d976f53	0.0739428
13	0xbd3b3d44	-0.045712724
14	0x3d0b730b	0.03404526
15	0xbdc81b17	-0.09770792
16	0xbd0c2725	-0.03421702
17	0xbdb49855	-0.088181175
18	0x3d22749a	0.03966198
19	0x3e1a7243	0.1508265
20	0xbc7f1489	-0.015568861
21	0xbd9a63d1	-0.0753857
22	0x3dbf2ed0	0.09335101
23	0xbd431df6	-0.047635995
24	0xbe2576a1	-0.16158535
25	0xbd9e026e	-0.07715307
26	0x3d0f821d	0.035036195
27	0x3e192514	0.1495555
28	0xbe182a6f	-0.14859937
29	0x3d128ca4	0.035778657
30	0xbd43e45e	-0.04782521
31	0x3dc37914	0.09544578
32	0xbd17f080	-0.037094593
33	0x3da1b04a	0.078949526
34	0x3e28c8e9	0.16482891
35	0x3d33c5ab	0.043889683
36	0xbdb76175	-0.08954135
37	0x3cd5e09c	0.026108079
38	0xbdb0d954	-0.08635202
39	0xbd3a5e9f	-0.045500394
40	0x3c6dcdd0	0.014514402
41	0x3d2b9d30	0.041897953
42	0x3c3e2020	0.011604339
43	0xbd00135b	-0.03126846
44	0x3dba75bd	0.09104488
45	0xbccb2213	-0.024796521
46	0xbdd95b64	-0.106131345
47	0x3da60e17	0.08108156
48	0xbd4e1b2b	-0.05031888
49	0xbc1baa57	-0.009501061
50	0xbdfbad59	-0.12288923
51	0x3e04e164	0.12976605
52	0x3daa6d4d	0.08321629
53	0x3c4c9dc7	0.012488789
54	0xbde4384f	-0.111435525
55	0x3dde72c3	0.10861733
56	0xbe0b23fe	-0.13587949
57	0x3e11b132	0.14227751
58	0x3d03db1e	0.03219139
59	0x3c121058	0.0089150295
60	0xbd360d0b	-0.044446032
61	0xbdcb241b	-0.09918996
62	0xbd905b33	-0.07048645
63	0x3d5f6c84	0.054546848
64	0xbc9d07e1	-0.019168796
65	0xbdb89043	-0.09011891
66	0x3dd3bc6e	0.103386745
67	0xbe090315	-0.13380082
68	0x3da02ad4	0.07820669
69	0x3dd1420a	0.10217674
70	0xbcbb5635	-0.022868255
71	0x3da39335	0.07987062
72	0xbad9e9c1	-0.001662545
73	0xbdd1956e	-0.102335796
74	0x3de0918b	0.1096526
75	0x3d10712a	0.03526417
76	0x3b0ca169	0.0021458513
77	0xbde80c1e	-0.11330436
78	0xbd85139f	-0.06497883
79	0x3d96d23a	0.07364316
80	0xbb54bc2a	-0.0032460787
81	0x3d968769	0.07350046
82	0x3d7b6665	0.061376948
83	0x3d8a15b0	0.06742418
84	0x3d78b546	0.06071975
85	0x3d51b41f	0.051197167
86	0xbd1c23c8	-0.03812006
87	0xba4f73ab	-0.0007913659
88	0x3de409d9	0.11134691
89	0xbda30af4	-0.079610735
90	0xbd3ebbb8	-0.04656574
91	0x3dab9610	0.083782315
92	0xbde753f7	-0.11295312
93	0xbd1e3360	-0.038623214
94	0x3dc4c723	0.09608295
95	0x3dd6abb6	0.1048197
96	0xbde10c1b	-0.10988637
97	0x3d0adacc	0.033900067
98	0x3c931242	0.017953042
99	0x3c2ace4e	0.010425163
100	0x3dabfdb4	0.083979994
101	0xbdc95059	-0.09829778
102	0xbc0e5d6a	-0.008689264
103	0x3dcea8c0	0.1009078
104	0x3dcfcb1a	0.101461604
105	0x3db35898	0.08757132
106	0x3de966f3	0.11396589
107	0xbca6c24b	-0.020356318
108	0xbd91ec5b	-0.07125159
109	0x3d17220b	0.0368977
110	0xbcd7f88d	-0.026363635
111	0x3db40e39	0.08791775
112	0x3c973ba0	0.018461049
113	0xbd574d47	-0.05256393
114	0xbc9f3bb2	-0.019437645
115	0x3e1b4b7a	0.15165511
116	0xbd8c5e5d	-0.06853936
117	0xbdfdf97c	-0.12401101
118	0x3e050ceb	0.12993209
119	0x3cd3bb88	0.025846258
120	0x3e0866b8	0.13320434
121	0x3bcf7c11	0.0063319285
122	0x3db4b393	0.088233136
123	0x3bd03730	0.006354235
124	0x3cb4d7c5	0.022075543
125	0x3e02ffb6	0.12792858
126	0x3d4fa65b	0.05069576
127	0x3d4e69e4	0.050393954
128	0x3dad07f9	0.08448786
129	0x3bba6043	0.005687745
130	0xbd1fe261	-0.03903425
131	0xbccd49b1	-0.025059553
132	0x3ccb6e4f	0.024832873
133	0xbd91ab9e	-0.071128115
134	0x3dd8aece	0.10580216
135	0x3e0ec1dc	0.13941139
136	0xbdab695f	-0.08369707
137	0xbd27da98	-0.04097995
138	0x3d52a6b3	0.051428508
139	0xbc3d9576	-0.011571279
140	0xb9ca5c3c	-0.00038597162
141	0xbd078320	-0.033084035
142	0xbd1af586	-0.037831806
143	0x3d932905	0.07185558
144	0x3c80a82b	0.015705189
145	0x3dc2d424	0.09513119
146	0x3d6f0992	0.058358736
147	0x3dbd5599	0.09244842
148	0xbe0366e8	-0.12832224
149	0x399edf38	0.0003030242
150	0xbdb9be98	-0.09069556
151	0x3e023852	0.12716797
152	0x3dac36d7	0.08408897
153	0x3c279146	0.010227507
154	0xbd5db83d	-0.05413078
155	0xbdc9e67d	-0.09858415
156	0x3d2e5a40	0.042566538
157	0xbdcd860c	-0.10035333
158	0x3db87940	0.090075016
159	0xbd8505a7	-0.06495219
160	0xbda18414	-0.0788652
161	0x3dcb226f	0.09918677
162	0xbdcbeb61	-0.09957004
163	0xbdbf1ea7	-0.09332018
164	0x3d9688ed	0.07350335
165	0xbdb88aa2	-0.09010817
166	0xbc1a1224	-0.009403739
167	0x3d547b91	0.051875655
168	0x3dffe6af	0.12495171
169	0x3e051c14	0.12998992
170	0xbc4f4324	-0.012650285
171	0x3d706c68	0.058697134
172	0x3cef7f7b	0.029235592
173	0x3dde0b5a	0.10842009
174	0x3dc9e2a7	0.09857684
175	0x3d6a98be	0.057274573
176	0x3df2cf80	0.11855984
177	0xbc21d1be	-0.009876667
178	0xbd53fc57	-0.051754322
179	0xbe1233f7	-0.14277636
180	0xbc842fab	-0.016136011
181	0xbcc45559	-0.023966478
182	0xbc9ead78	-0.019369826
183	0xbd05c01e	-0.03265392
184	0x3dd94658	0.1060912
185	0x3d5fb5e5	0.054616828
186	0x3c3272c9	0.010891625
187	0xbe090a0c	-0.13382739
188	0xbdae1895	-0.085007824
189	0xbe19b7ad	-0.15011473
190	0x3e72e3b5	0.23719676
191	0x3d29c298	0.041445345
192	0x3dc6831c	0.09692976
193	0x3e130e55	0.14360936
194	0x382cd3ee	4.120537e-05
195	0xbcd14234	-0.025544263
196	0x3dcab0ab	0.09896978
197	0xbd47bb09	-0.048762355
198	0xbcc5da98	-0.024152085
199	0xbde44ac0	-0.1114707

regressor.1.weight f4 [1, 50]
0	0xbe0b0bef	-0.13578771
1	0x3d9a9dea	0.07549651
2	0xbdcff827	-0.10154753
3	0x3dfec293	0.12439456
4	0x3ca160d0	0.019699484
5	0xbdf8bac6	-0.12144999
6	0xbcc9463f	-0.024569629
7	0xbd5bbec4	-0.053648725
8	0x3d545c44	0.051845804
9	0xbd8f08d4	-0.06984106
10	0x3de8a4a6	0.11359529
11	0x3e2dbaa7	0.16965733
12	0xbe0aec33	-0.13566665
13	0xbdac1ba5	-0.0840371
14	0x3d64da38	0.055872172
15	0x3d9d75a2	0.07688452
16	0xbd9a5af3	-0.075368784
17	0xbe0a10bd	-0.13482948
18	0x3ddd2713	0.107984684
19	0x3da6af85	0.081389464
20	0x3e2f6268	0.17127383
21	0x3d7b00a7	0.06127992
22	0xbd7eda04	-0.062219635
23	0xbde9f853	-0.11424317
24	0xbd68b15c	-0.056809768
25	0x3defdb2d	0.11711726
26	0xbe02f6e6	-0.12789497
27	0x3e36e6a6	0.17861423
28	0xbd858cc7	-0.06520992
29	0xbbc2f9bd	-0.0059501813
30	0xbdbd1e4c	-0.09234294
31	0x3d932e10	0.0718652
32	0xbdd2e638	-0.10297817
33	0xbd39a02c	-0.045318767
34	0x3d9d55f1	0.07682408
35	0x3db4e449	0.088326044
36	0xbdcd1ca8	-0.10015231
37	0xbdf0c5aa	-0.117564514
38	0xbde33d82	-0.11095716
39	0xbb1e9b18	-0.002420133
40	0xbe8352b5	-0.25649038
41	0xbdb5d09c	-0.0887768
42	0xbcba15a4	-0.022715397
43	0x3dd0f7a3	0.10203483
44	0xbc31cb43	-0.010851684
45	0x3d54c52a	0.051945843
46	0xbde7b441	-0.113136776
47	0xbd02f713	-0.03197391
48	0x3d2380d0	0.039917767
49	0xbca898d0	-0.02058068
