process/modelo_lstm.pt (torch, 135920 bytes, 9 tensors)

lstm.weight_ih_l0 f4 [200, 11]
-0.005668675 0.08455031 0.021976907 -0.014072757 0.13221411 0.07182531 0.103935145 0.12885337
0.19336319 0.16402031 0.115471765 -0.12210678 0.024891617 -0.019182118 -0.10164777 -0.0051758145
0.111487396 -0.15719146 -0.08419911 0.10950444 0.069032826 0.1204219 0.01406423 -0.18143071
0.024393862 -0.16343606 -0.018095305 -0.08639337 -0.019226395 0.07524427 0.1295374 -0.1387977
-0.011788294 0.012814767 0.2561917 0.15043077 0.22124091 0.102272846 0.06457333 0.18039465
0.13598076 -0.0520727 0.24215865 0.08772704 -0.11396811 -0.014358648 -0.14328977 -0.08275536
0.046758007 0.038101174 -0.07692809 0.022133585 -0.07381397 -0.0011279797 0.090077564 0.14657468
-0.10076718 0.013029773 -0.0040260633 -0.06361657 0.04579453 -0.058643963 0.034172885 -0.057970993
-0.11891365 0.08282289 -0.011564289 0.067651436 0.048708815 -0.11431576 0.05825429 -0.06937542
-0.07577152 0.12225402 0.15230252 -0.011526122 -0.09242676 0.109562516 0.15296575 0.08366389
0.087793715 0.010340117 0.14719687 0.07877806 0.02464551 0.027938468 -0.0009029357 0.076034606
-0.06279128 0.09829126 -0.03769665 0.01837782 0.14971164 -0.047800694 -0.046619076 0.23264784
0.06939034 0.08253666 0.04301183 -0.11088976 -0.07850339 -0.064580314 -0.10089766 0.039100107
-0.1475554 -0.114008844 -0.03832194 -0.100838855 -0.0984388 0.06544438 0.17381436 0.13745952
0.13047412 -0.044748653 0.067720324 -0.015466402 -0.0016687771 0.048410747 0.14643347 0.075295664
-0.10489876 0.12718946 0.108415335 0.053858023 -0.024083285 -0.12602508 -0.015773606 -0.012414668
0.07323997 -0.12450788 -0.14608195 0.097762346 0.029962774 0.11301535 -0.027508007 0.1865097
0.015651204 0.087342076 0.04840195 0.020924967 -0.0062225056 0.0759077 -0.13109788 0.12690565
0.032253176 -0.03923933 0.067376226 0.028702842 -0.06373366 0.031240998 0.06312934 0.0122683775
-0.025544353 -0.10156757 -0.02056564 -0.0071411463 0.01548235 -0.024902545 0.030369222 0.09103237
0.13667947 0.1393682 0.108133435 0.021581108 -0.03374882 0.0012088389 -0.13866389 0.08708162
-0.033029374 0.0963599 0.0698326 0.011989263 0.19786577 0.070045866 0.08431545 -0.10858086
-0.029586162 -0.08078187 0.12629136 0.016363312 -0.11839935 0.008612254 0.045281738 -0.05230086
-0.0037812863 -0.110921495 -0.11576801 0.08359136 0.05310957 0.10236773 -0.047955 0.004671101
0.107265174 -0.0002550464 0.006072596 0.14464399 -0.051592126 0.11011724 0.07464032 0.09583979
0.073540024 0.060695246 0.056366444 0.08625719 0.05843128 0.027554335 0.054775205 0.010167832
0.09856868 0.070757605 0.08725889 0.03794155 -0.04407834 -0.02740529 0.025484996 0.07865978
0.15261944 0.0895568 -0.0019430933 0.060546115 0.22029682 0.14552994 0.12683657 0.041452453
0.11368261 0.096258216 0.105096534 0.15740064 0.09993896 0.2561886 0.11400999 -0.1163835
0.07889305 -0.061423343 0.038467836 -0.008076688 -0.17004 -0.06857934 0.04532894 -0.09537018
-0.053534057 -0.10661447 -0.12389621 -0.045534167 -0.1530712 0.045440804 0.060905807 -0.014253899
-0.0006022198 -0.10932919 -0.06409183 -0.12753645 -0.01355809 -0.01695245 0.013270623 0.09165737
00000000: 4bc0 b9bb b728 ad3d ea08 b43c 6c91 66bc
00000010: 2363 073e 2619 933d f3db d43d 23f2 033e
00000020: 0001 463e f1f4 273e 767c ec3d 1f13 fabd
00000030: 81e9 cb3c d123 9dbc b52c d0bd e199 a9bb
00000040: 8153 e43d ccf6 20be 9570 acbd dd43 e03d
00000050: 1561 8d3d c29f f63d a86d 663c f9c8 39be
00000060: a3d5 c73c c85b 27be 9b3c 94bc 02ef b0bd
00000070: ac80 9dbc ab19 9a3d 74a5 043e fc20 0ebe
00000080: b023 41bc 07f5 513c 8f2b 833e 860a 1a3e
00000090: fa8c 623e 6d74 d13d 063f 843d 60b9 383e
000000a0: 8a3e 0b3e 2f4a 55bd 70f8 773e 3caa b33d
000000b0: 1d68 e9bd 8940 6bbc 8eba 12be a47b a9bd
000000c0: 5385 3f3d fa0f 1c3d 798c 9dbd 7e51 b53c
000000d0: c72b 97bd b8d8 93ba 967a b83d ac17 163e
000000e0: 065f cebd d47a 553c 11ed 83bb 6749 82bd
000000f0: 0c93 3b3d a734 70bd def8 0b3d fe72 6dbd
00000100: 0089 f3bd 0c9f a93d 2578 3dbc d68c 8a3d
00000110: e582 473d 621e eabd 0d9c 6e3d b314 8ebd
00000120: 192e 9bbd 5160 fa3d 31f5 1b3e 0fd8 3cbc
00000130: 3e4a bdbd 5062 e03d 0ea3 1c3e f957 ab3d
00000140: 31cd b33d 9869 293c c7ba 163e 6456 a13d
00000150: 61e5 c93c 37df e43c fdb2 6cba 08b8 9b3d
00000160: b798 80bd ee4c c93d cd67 1abd 158d 963c
00000170: 024e 193e a9ca 43bd a5f3 3ebd 3c3b 6e3e
00000180: 861c 8e3d fb08 a93d 2c2d 303d 2c1a e3bd
00000190: 63c6 a0bd af42 84bd 6fa3 cebd 6f27 203d
000001a0: c318 17be 787d e9bd 77f7 1cbd 9a84 cebd
000001b0: 489a c9bd b407 863d 64fc 313e 30c2 0c3e
000001c0: 029b 053e 5d4a 37bd f4b0 8a3d cb66 7dbc
000001d0: deba daba 594a 463d a8f2 153e 9d34 9a3d
000001e0: 29d5 d6bd f43d 023e dc08 de3d 3b9a 5c3d
000001f0: 4f4a c5bc b80c 01be a637 81bc e466 4bbc
00000200: d6fe 953d fdfd febd 8296 15be a037 c83d
00000210: 7e74 f53c 9874 e73d 7958 e1bc 66fc 3e3e
00000220: f436 803c 67e0 b23d 2041 463d d66a ab3c
00000230: 29e6 cbbb 7f75 9b3d 863e 06be 8ef3 013e
00000240: e81b 043d 6bb9 20bd 8cfc 893d 3922 eb3c
00000250: cb86 82bd 1fed ff3c f549 813d 4e01 493c
00000260: 6442 d1bc a802 d0bd 4679 a8bc 4700 eabb
00000270: afa9 7d3c 6c00 ccbc e0c8 f83c 2e6f ba3d
00000280: b4f5 0b3e 8ab6 0e3e 1075 dd3d ddca b03c
00000290: 343c 0abd e771 9e3a e8fd 0dbe d957 b23d
000002a0: cf49 07bd 5758 c53d 6504 8f3d 9d6e 443c
000002b0: 539d 4a3e 3574 8f3d 94ad ac3d a45f debd
000002c0: ae5e f2bc f770 a5bd 8652 013e 5a0c 863c
000002d0: 5c7b f2bd 691a 0d3c 5879 393d 6d39 56bd
000002e0: 75cf 77bb cf2a e3bd c717 edbd f231 ab3d
000002f0: 6c89 593d 2ca6 d13d 766c 44bd 0910 993b
00000300: d8ad db3d c0b7 85b9 a1fc c63b 8e1d 143e
00000310: 4452 53bd 2685 e13d 06dd 983d a747 c43d
00000320: 279c 963d 949b 783d 80e0 663d 9ca7 b03d
00000330: a355 6f3d a1b9 e13c f75b 603d fa96 263c
00000340: 60de c93d 5de9 903d cab4 b23d 9968 1b3d
00000350: 7d8b 34bd 0f81 e0bc e9c5 d03c 6118 a13d
00000360: 4548 1c3e 8e69 b73d 64af feba 34ff 773d
00000370: 7d95 613e cd05 153e 72e1 013e 0cca 293d
00000380: 6ed2 e83d 0723 c53d da3c d73d a22d 213e
00000390: ccac cc3d 272b 833e 127e e93d 795a eebd
000003a0: ae92 a13d 0b97 7bbd 7390 1d3d 1654 04bc
000003b0: f71e 2ebe 5373 8cbd d7aa 393d 7151 c3bd
000003c0: 8746 5bbd b058 dabd 4cbd fdbd 0982 3abd
000003d0: b2be 1cbe 2320 3a3d 5e78 793d 3089 69bc
000003e0: 49de 1dba fbe7 dfbd 9442 83bd ea98 02be
000003f0: c022 5ebc dddf 8abc 076d 593c dcb6 bb3d

lstm.weight_hh_l0 f4 [200, 50]
-0.093564466 0.0375927 -0.14120334 0.0040289224 -0.069027595 0.102982804 -0.090456024 -0.05044152
0.11075731 -0.08052602 -0.07695163 0.061066497 -0.06482076 -0.049943846 -0.10658754 0.11122978
0.16250086 0.078158036 -0.047639687 0.029571477 -0.12316269 -0.10423823 0.012756188 0.13376035
-0.07107056 0.049103323 0.030300887 0.0038658236 -0.0043146396 0.017673489 0.05153441 0.033114646
0.121162474 -0.018163284 -0.03633711 0.17006956 -0.075090915 0.13572487 0.09758409 0.11377965
-0.022196606 0.09996893 -0.03136537 0.0349391 0.014148583 0.042449415 0.095245235 0.080928326
-0.06260314 -0.057149343 -0.011523414 0.009411034 -0.0062730825 -0.03245237 -0.09983422 -0.027614905
-0.07221838 -0.040314417 -0.16324629 -0.05101272 0.120245084 -0.0939619 0.038749028 -0.07413031
0.12414605 -0.09072076 0.12197924 -0.15216078 -0.16094461 -0.12462728 -0.090262584 0.080145635
0.13018934 0.00967623 0.07781825 0.31313038 0.0083469665 0.1640415 0.02474166 0.10667432
-0.02582736 0.07696949 -0.086385 0.20585325 -0.050586283 -0.028093532 -0.13730954 0.057365447
0.047757562 -0.009307407 0.0001438411 -0.06267575 -0.035138465 -0.084045045 -0.024437474 -0.045465056
0.31876782 -0.17552744 -0.06909841 0.07298636 -0.14575306 -0.051727533 0.05060477 -0.01827851
0.07157173 -0.095702104 0.15101479 -0.017147955 -0.10741572 0.026012966 0.12210197 0.008201498
-0.061889227 0.120466605 -0.13011408 -0.12869844 -0.10476161 0.062169477 0.042851713 0.027495326
-0.04797932 0.056237828 -0.043842033 -0.18349627 -0.03769901 0.06345871 -0.082829766 -0.08267701
-0.0521204 0.13723597 0.1478382 0.0119706 0.09837684 0.11155752 -0.09509658 0.11990408
0.036278896 -0.15060146 0.07024686 0.10541433 -0.11128105 0.11172672 -0.051787045 -0.15981284
-0.04435562 0.13052787 0.057698216 -0.1170447 -0.08194955 0.0682376 0.15072587 -0.08611971
-0.15135702 -0.09768883 0.17590286 0.16108637 0.05784079 0.039691083 -0.11625829 -0.15343222
0.1955356 0.061198995 0.07584353 0.016106803 -0.17493433 0.15800786 0.25292578 -0.011869424
0.04884159 0.109896444 -0.077703334 -0.09633259 -0.020320438 -0.074048735 -0.01745649 -0.041930087
0.11205637 -0.08011716 0.0350929 -0.027601372 -0.0026669733 0.11095696 0.17578891 -0.09731791
-0.020589486 0.15308984 -0.11102686 0.1106198 -0.11513691 0.09596347 0.12415075 0.082628965
-0.10419055 0.14160258 0.019782595 -0.1646854 -0.07322739 0.18510735 0.04053415 0.21693099
0.06607149 -0.023144402 0.023063848 -0.06009806 -0.14456542 -0.097224385 -0.08096927 -0.024986722
-0.09230806 -0.1345238 0.11559994 -0.0956355 -0.0798232 0.04987658 -0.065342166 0.12655012
0.018519588 -0.106122844 -0.0042036204 0.059484392 0.15426451 -0.07886231 0.00458787 -0.14411815
0.1283352 -0.032329936 -0.05105957 -0.1156977 0.028578892 0.13730045 0.04222641 0.04715696
0.09825323 0.139567 0.12661216 0.08557251 -0.13392738 0.04501142 0.048197497 -0.12603472
0.1045765 0.057574898 0.1096277 0.056193568 0.057578947 0.06645045 0.021674851 0.068718985
0.10055812 0.11234864 -0.12273331 -0.07695022 -0.18362692 -0.09644436 0.12678042 0.047866706
00000000: ba9e bfbd cefa 193d 9c97 10be 0d05 843b
00000010: 575e 8dbd a6e8 d23d 0241 b9bd c49b 4ebd
00000020: bbd4 e23d d3ea a4bd d198 9dbd dd20 7a3d
00000030: bfc0 84bd eb91 4cbd 914a dabd 70cc e33d
00000040: a066 263e 5211 a03d d521 43bd e23f f23c
00000050: b83c fcbd da7a d5bd 55ff 503c 79f8 083e
00000060: 718d 91bd 9120 493d 9139 f83c c259 7d3b
00000070: d261 8dbb fec7 903c bf15 533d 39a3 073d
00000080: 0824 f83d 2bcb 94bc 39d6 14bd b726 2e3e
00000090: 44c9 99bd 76fb 0a3e 2bda c73d 4e05 e93d
000000a0: a8d5 b5bc 83bc cc3d f978 00bd 4d1c 0f3d
000000b0: 75cf 673c 70df 2d3d ef0f c33d c0bd a53d
000000c0: 1336 80bd 6e15 6abd b4cc 3cbc bd30 1a3c
000000d0: 6e8e cdbb c7ec 04bd e275 ccbd a738 e2bc
000000e0: 3be7 93bd bb20 25bd 092a 27be b7f2 50bd
000000f0: 0e43 f63d 196f c0bd 4db7 1e3d a2d1 97bd
00000100: 4940 fe3d cecb b9bd 40d0 f93d 09d0 1bbe
00000110: aace 24be 963c ffbd 97db b8bd 6523 a43d
00000120: 5b50 053e 0d89 1e3c 2d5f 9f3d a052 a03e
00000130: b7c1 083c 7ffa 273e 06af ca3c 1178 da3d
00000140: e693 d3bc 2ea2 9d3d 9eea b0bd 32cb 523e
00000150: 9033 4fbd 6824 e6bc df9a 0cbe 08f8 6a3d
00000160: 6f9d 433d 187e 18bc 0dd4 1639 255c 80bd
00000170: 5aed 0fbd cf1f acbd 1931 c8bc 9139 3abd
00000180: 8935 a33e 77bd 33be 7883 8dbd df79 953d
00000190: 4a40 15be 40e0 53bd f346 4f3d d0bc 95bc
000001a0: 3394 923d 77ff c3bd 9fa3 1a3e de79 8cbc
000001b0: c6fc dbbd 2519 d53c 9910 fa3d 935f 063c
000001c0: 8f7f 7dbd 32b7 f63d a03c 05be 86c9 03be
000001d0: 418d d6bd 6ca5 7e3d 4785 2f3d e13d e13c
000001e0: f785 44bd a359 663d b493 33bd 72e6 3bbe
000001f0: 476a 1abd a4f6 813d a7a2 a9bd 9052 a9bd
00000200: 337c 55bd 9687 0c3e e662 173e 5620 443c
00000210: cc79 c93d 4578 e43d ffc1 c2bd 4590 f53d
00000220: 2e99 143d 4537 1abe 96dd 8f3d 78e3 d73d
00000230: 52e7 e3bd fbd0 e43d a71e 54bd faa5 23be
00000240: 3dae 35bd 19a9 053e f754 6c3d 22b5 efbd
00000250: 2ad5 a7bd 28c0 8b3d e257 1a3e 885f b0bd
00000260: 56fd 1abe 1511 c8bd e11f 343e d3f3 243e
00000270: 77ea 6c3d 1e93 223d d418 eebd 561d 1dbe
00000280: 7c3a 483e ccab 7a3d da53 9b3d 6af2 833c
00000290: fc21 33be d0cc 213e 7d7f 813e f977 42bc
000002a0: 1e0e 483d 6311 e13d ed22 9fbd 054a c5bd
000002b0: 0c77 a6bc dda6 97bd ea00 8fbc e2be 2bbd
000002c0: cf7d e53d 7714 a4bd 93bd 0f3d 461c e2bc
000002d0: 63c8 2ebb 673d e33d 0202 343e 9d4e c7bd
000002e0: 48ab a8bc 95c3 1c3e 0d62 e3bd a28c e23d
000002f0: e6cc ebbd 7f88 c43d c042 fe3d 6039 a93d
00000300: db61 d5bd 4400 113e 1c0f a23c 4aa3 28be
00000310: 3ef8 95bd c88c 3d3e 2307 263d 2823 5e3e
00000320: 7d50 873d 5499 bdbc 65f0 bc3c 6229 76bd
00000330: f508 14be 941d c7bd 37d3 a5bd f4b0 ccbc
00000340: 020c bdbd 9bc0 09be a9bf ec3d 8cdc c3bd
00000350: 597a a3bd 624b 4c3d 1dd2 85bd 5b96 013e
00000360: 64b6 973c ef56 d9bd 86be 89bb e8a5 733d
00000370: 84f7 1d3e 9082 a1bd d855 963b b593 13be
00000380: 4d6a 033e 656c 04bd d723 51bd eaf2 ecbd
00000390: 481e ea3c 7d98 0c3e 9af5 2c3d a827 413d
000003a0: fd38 c93d a7ea 0e3e 9ea6 013e a440 af3d
000003b0: 4224 09be e55d 383d bd6a 453d 3f0f 01be
000003c0: 342c d63d a8d3 6b3d 7d84 e03d 3a2b 663d
000003d0: e7d7 6b3d 2c17 883d 758f b13c 8abc 8c3d
000003e0: 6af1 cd3d 0b17 e63d 9a5b fbbd 1498 9dbd
000003f0: b208 3cbe 9f84 c5bd bad2 013e e10f 443d

lstm.bias_ih_l0 f4 [200]
-0.057570055 0.079837546 0.14871706 0.20804034 -0.070415765 0.037492104 0.022724396 -0.008467858
-0.06007658 -0.016168592 0.13467246 -0.034895606 0.02113815 -0.12444532 -0.055741124 -0.0785157
0.005445502 0.05138665 -0.0021662381 -0.0017223769 0.156527 -0.059249662 -0.027440382 0.057323296
-0.03784264 -0.086980596 -0.105117135 0.07266081 -0.12638475 0.15946917 0.15492004 0.11148835
0.036704034 0.06571411 -0.06500529 0.104023606 -0.09347328 0.065592505 0.11122254 0.086455345
0.20484424 0.033991445 0.053221963 -0.03859005 -0.11564436 0.09049581 0.24348705 -0.033318844
-0.1373888 0.052459374 0.1529206 -0.079836525 -0.038339395 0.0045623463 0.032614876 -0.13214706
0.058254976 0.06474283 0.13612132 0.0056794593 0.0037842004 -0.09284678 -0.057796743 -0.0048725232
0.052178744 -0.13662416 0.06857193 -0.09594954 -0.12094083 0.044808354 -0.07783474 0.09092121
-0.059135888 0.06730848 0.039447144 0.038663346 0.10428126 0.009908217 -0.0730998 0.027260916
0.08903888 0.022213286 -0.03847089 -0.13432103 -0.09426383 0.047216993 -0.120902196 0.024951827
-0.14461896 0.048227426 -0.05707001 -0.0975993 -0.022497142 0.016746532 -0.022560947 -0.07142251
0.07839219 -0.071654394 -0.06940946 -0.027370045 0.123796515 -0.08750504 -0.08807443 0.07862685
0.06565737 0.046991594 -0.050459437 0.05282555 -0.11863733 0.028160878 -0.102117635 -0.08239855
0.105502695 -0.0421133 0.11964855 0.04552927 0.13323028 0.083440915 0.095171876 0.0498816
-0.011148315 -0.03421423 0.0020502068 -0.031638343 0.14999643 -0.040406983 0.0069620884 -0.035130635
0.07706648 0.08746617 0.029349241 0.05273886 0.114478946 0.03896768 0.14258495 -0.101436585
0.11748209 0.13182747 0.07734324 -0.031447463 0.089215145 0.00012042608 -0.121680506 0.07972439
-0.08016044 -0.074207015 0.05282167 -0.041280404 -0.047049496 0.11240926 -0.01829125 0.006203198
-0.12184721 0.015604147 -0.14114092 0.0038367764 0.084515974 -0.0075825206 -0.017933795 -0.14790723
0.128991 -0.15254793 0.15676652 -0.007813839 -0.0040716575 -0.019179039 0.08666924 0.058775496
0.07486165 -0.11374387 0.12976569 0.02665931 0.057679635 -0.05092182 0.052045252 0.17524037
0.07165323 0.1457509 0.09534373 0.043118544 0.019857995 -0.05887368 0.068660684 0.013042097
0.11809468 -0.11789426 0.118671216 -0.051084336 -0.053682197 0.026091803 0.1228667 -0.00039240587
0.018595519 0.12801293 -0.08828885 -0.035076812 0.08805054 0.11165278 -0.0048773554 -0.0862834
00000000: 94ce 6bbd de81 a33d 4949 183e 8708 553e
00000010: 2436 90bd 5291 193d 8328 ba3c c5bc 0abc
00000020: dc12 76bd ff73 84bc 94e7 093e b2ee 0ebd
00000030: ea29 ad3c 30dd febd ce50 64bd d7cc a0bd
00000040: 2f70 b23b cf7a 523d 72f7 0dbb 61c1 e1ba
00000050: 9d48 203e c6af 72bd a7ca e0bc d5cb 6a3d
00000060: e200 1bbd e222 b2bd a747 d7bd 31cf 943d
00000070: 016b 01be e34b 233e 5ca3 1e3e 0154 e43d
00000080: f856 163d 1f95 863d 7e21 85bd 540a d53d
00000090: eb6e bfbd 5d55 863d a5c8 e33d 800f b13d
000000a0: b0c2 513e 9d3a 0b3d 46ff 593d 9a10 1ebd
000000b0: f3d6 ecbd de55 b93d ab54 793e 5779 08bd
000000c0: a6af 0cbe a4df 563d 3897 1c3e 5581 a3bd
000000d0: c509 1dbd bc7f 953b 2d97 053d 8f51 07be
000000e0: c59c 6e3d e497 843d 6363 0b3e c21a ba3b
000000f0: 5900 783b 7426 bebd 47bc 6cbd b0a9 9fbb
00000100: 61b9 553d 34e7 0bbe 716f 8c3d 3181 c4bd
00000110: d3af f7bd f788 373d d267 9fbd e634 ba3d
00000120: 7938 72bd 07d9 893d 5493 213d 755d 1e3d
00000130: 6a91 d53d 1356 223c 59b5 95bd 4952 df3c
00000140: 045a b63d a3f8 b53c a793 1dbd 748b 09be
00000150: 650d c1bd 9b66 413d 929b f7bd c667 cc3c
00000160: fe16 14be 1f8a 453d 3ec2 69bd 24e2 c7bd
00000170: ed4b b8bc 0630 893c bcd1 b8bc f745 92bd
00000180: 168c a03d 8abf 92bd 8c26 8ebd 2537 e0bc
00000190: 0789 fd3d d835 b3bd 5e60 b4bd 1d07 a13d
000001a0: 5f77 863d 427a 403d 8eae 4ebd 9b5f 583d
000001b0: 21f8 f2bd a4b1 e63c 0d23 d1bd 92c0 a8bd
000001c0: cc11 d83d ff7e 2cbd 4d0a f53d e67c 3a3d
000001d0: 856d 083e 12e3 aa3d 79e9 c23d a650 4c3d
000001e0: 6ca7 36bc 3824 0cbd c35c 063b 3597 01bd
000001f0: aa98 193e cb81 25bd 3b22 e43b 24e5 0fbd
00000200: 08d5 9d3d 7721 b33d d26d f03c b404 583d
00000210: f073 ea3d 939c 1f3d ca01 123e fcbd cfbd
00000220: 739a f03d c8fd 063e 2266 9e3d 0ecf 00bd
00000230: 6eb6 b63d 428d fc38 a133 f9bd 8a46 a33d
00000240: 282b a4bd d9f9 97bd 895b 583d a415 29bd
00000250: f9b6 40bd d336 e63d 88d7 95bc 3244 cb3b
00000260: 088b f9bd 89a8 7f3c 3f87 10be 6d72 7b3b
00000270: b616 ad3d cb76 f8bb e5e9 92bc fe74 17be
00000280: 3716 043e 8635 1cbe 6787 203e 9e05 00bc
00000290: 8a6b 85bb 5c1d 9dbc a47f b13d 93be 703d
000002a0: 1151 993d 8cf2 e8bd 4ce1 043e a064 da3c
000002b0: 7b41 6c3d 6693 50bd 672d 553d 3672 333e
000002c0: eebe 923d b93f 153e 9343 c33d 129d 303d
000002d0: 3cad a23c 8725 71bd f99d 8c3d 85ae 553c
000002e0: a0db f13d 8c72 f1bd e509 f33d cf3d 51bd
000002f0: dde1 5bbd 7abe d53c 89a1 fb3d d3bb cdb9
00000300: a155 983c d215 033e c9d0 b4bd b4ac 0fbd
00000310: d753 b43d 36aa e43d 39d2 9fbb 5ab5 b0bd

lstm.bias_hh_l0 f4 [200]
-0.05511786 0.008367558 0.103208005 0.07692217 -0.04573397 -0.099551536 -0.08507735 -0.11807005
0.09440566 -0.05789537 -0.03663979 0.024668748 -0.014302916 -0.013237864 -0.025675079 0.10301838
-0.11171164 0.11946897 0.006534352 0.07878819 0.14844596 -0.006534106 0.037478752 0.14637138
0.08012577 0.16144328 0.05299822 0.0016170783 0.014390585 0.032934185 0.011365747 -0.0620346
-0.023676354 0.124768235 -0.051951095 0.06704579 -0.08490587 0.058459368 0.022936853 0.11511955
0.21190211 0.06439 -0.09184312 -0.07303899 -0.037192013 -0.05652325 0.23615305 0.07534723
-0.1234892 0.14290719 -0.10221207 0.05164888 0.115600914 -0.014835005 0.07138794 -0.034935612
0.047035646 -0.07288736 0.08332462 0.013484163 -0.021240562 0.10863042 0.108150214 0.10793177
0.13250719 -0.07776689 0.13209847 -0.0851507 -0.0923098 0.0016750365 -0.07388181 -0.083171904
0.11558054 0.053250134 -0.053603657 0.13686317 0.10346232 -0.119507305 -0.09329584 -0.0037926848
-0.08630948 0.09057326 -0.067167 -0.13045716 0.03339759 -0.1320459 -0.11503617 -0.05913351
-0.06326259 -0.13765894 -0.15366575 -0.025818989 0.013857363 -0.080630966 -0.031047564 0.1445929
-0.0026536572 -0.05794878 -0.07172239 -0.09781004 -0.107109785 -0.076901466 0.06986906 -0.0040012435
0.03777649 0.0050460785 0.113261856 -0.070721716 -0.11787277 -0.065398335 0.0012504519 -0.09219633
0.07050325 0.063694544 -0.085508846 -0.040387973 0.071892746 -0.051172372 -0.03533951 -0.0066910223
-0.085540704 -0.12519999 -0.14663965 0.1103735 0.005581766 0.13815379 -0.014492244 -0.073045015
0.13710316 -0.107437976 -0.14905457 -0.007689614 0.03786056 0.023673357 0.12975231 0.09317584
0.066308625 0.01843656 -0.059359577 0.075135946 -0.011910418 0.14047919 -0.018713491 -0.003201713
0.1166442 0.11381955 0.117883265 0.045452178 0.0664209 -0.0354453 0.04613536 -0.12753695
-0.09247493 0.14654413 -0.008479066 -0.013480871 -0.07892486 0.055357542 0.0663352 -0.14661917
0.083594486 -0.055513144 0.005283649 0.10842425 -0.10064579 0.09020583 -0.013077949 0.06452591
0.016167846 0.0004934684 0.016766228 0.01653378 -0.019096805 -0.063032016 0.0991379 -0.04123004
0.11725431 0.0584186 -0.074509524 0.053773455 0.17442526 -0.08086205 0.1647207 0.14602268
-0.0058931294 -0.07271008 -0.09669396 0.15415528 -0.05621509 -0.04117532 0.2751139 0.05015453
-0.12806222 0.058527958 0.14238769 -0.019452682 0.05771112 -0.10369029 0.09783048 -0.12182562
00000000: 44c3 61bd 1518 093c b85e d33d 5f89 9d3d
00000010: 8b53 3bbd ade1 cbbd 093d aebd b6ce f1bd
00000020: c157 c13d b223 6dbd 9b13 16bd 1d16 ca3c
00000030: c756 6abc a0e3 58bc 8b54 d2bc 4dfb d23d
00000040: 13c9 e4bd 26ac f43d 1e1e d63b b45b a13d
00000050: 3802 183e 0e1c d6bb 5283 193d 61e2 153e
00000060: fb18 a43d 6351 253e a914 593d 25f4 d33a
00000070: 7dc6 6b3c ffe5 063d 6637 3a3c fe17 7ebd
00000080: eaf4 c1bc 7d86 ff3d acca 54bd 4e4f 893d
00000090: 21e3 adbd 1773 6f3d 11e6 bb3c ccc3 eb3d
000000a0: defc 583e e8de 833d 3f18 bcbd 7795 95bd
000000b0: a756 18bd ec84 67bd 1bd2 713e a64f 9a3d
000000c0: e8e7 fcbd 4356 123e 9054 d1bd c78d 533d
000000d0: 2cc0 ec3d 850e 73bc d733 923d a518 0fbd
000000e0: 73a8 403d f845 95bd 19a6 aa3d aeec 5c3c
000000f0: b000 aebc a079 de3d dc7d dd3d 550b dd3d
00000100: f7af 073e 3f44 9fbd d244 073e 7d63 aebd
00000110: ec0c bdbd e68c db3a 594f 97bd 0856 aabd
00000120: 7db5 ec3d d01c 5a3d 828f 5bbd dc25 0c3e
00000130: 0ee4 d33d 3fc0 f4bd e411 bfbd b18e 78bb
00000140: 06c3 b0bd 797e b93d da8e 89bd 9096 05be
00000150: e9cb 083d 0a37 07be 1598 ebbd fb35 72bd
00000160: d18f 81bd 77f6 0cbe 8e5a 1dbe 5882 d3bc
00000170: fe09 633c d921 a5bd 7657 febc 2910 143e
00000180: fbe8 2dbb b35b 6dbd 30e3 92bd a150 c8bd
00000190: 605c dbbd 847e 9dbd 8217 8f3d dd1c 83bb
000001a0: 85bb 1a3d 9359 a53b d5f5 e73d 8cd6 90bd
000001b0: 4767 f1bd 90ef 85bd 34e6 a33a 6ed1 bcbd
000001c0: 0264 903d 4972 823d 431f afbd dc6d 25bd
000001d0: 813c 933d 1f9a 51bd 29c0 10bd 5d40 dbbb
000001e0: f72f afbd 6d34 00be b428 16be 800b e23d
000001f0: 3fe7 b63b 3078 0d3e e170 6dbc a098 95bd
00000200: c564 0c3e 7108 dcbd c3a1 18be 28f9 fbbb
00000210: ad13 1b3d a1ee c13c cadd 043e fad2 be3d
00000220: d1cc 873d 4508 973c 0723 73bd e0e0 993d
00000230: ea23 43bc c7d9 0f3e 094d 99bc d5d3 51bb
00000240: 28e3 ee3d 391a e93d c86c f13d 102c 3a3d
00000250: ae07 883d 172f 11bd 6ef8 3c3d 0c99 02be
00000260: 7f63 bdbd aa0f 163e c8eb 0abc dfde 5cbc
00000270: 5ba3 a1bd 97be 623d c0da 873d 5623 16be
00000280: 9633 ab3d c061 63bd 7622 ad3b 880d de3d
00000290: 611f cebd d6bd b83d e544 56bc 2926 843d
000002a0: 6e72 843c 1b5c 013a 5459 893c da71 873c
000002b0: e770 9cbc ee16 81bd d008 cb3d d5e0 28bd
000002c0: 0723 f03d 5848 6f3d 7398 98bd 8e41 5c3d
000002d0: 899c 323e 019b a5bd 8bac 283e f886 153e
000002e0: 271b c1bb 06e9 94bd 7c07 c6bd e2da 1d3e
000002f0: cb41 66bd 74a7 28bd bbdb 8c3e d66e 4d3d
00000300: be22 03be 03bb 6f3d 14ce 113e 3b5b 9fbc
00000310: 7f62 6c3d 935b d4bd 595b c83d b67f f9bd

lstm.weight_ih_l1 f4 [200, 50]
0.021198468 0.025907112 -0.022651793 -0.07990867 0.13957997 0.10839424 0.0058232863 0.04524135
0.07550881 0.041349657 0.13616875 0.02387805 0.04979752 -0.07514924 0.030569505 0.004607013
-0.025399946 -0.09143491 -0.0759591 -0.10288889 -0.033761542 -0.07382497 -0.012353521 0.058150798
-0.07091623 -0.15590152 0.040985722 0.107134394 -0.051459003 -0.18434526 -0.11089722 0.023801347
-0.09550874 -0.15164833 -0.11565035 -0.04936939 -0.05866008 0.117104426 -0.07372462 -0.11131122
-0.04379272 0.09763523 -0.041336734 0.03839675 -0.020907698 -0.14046402 -0.11729516 0.0034741068
-0.06714068 -0.012681205 -0.080265224 -0.028774297 0.09917794 0.052563462 -0.010036305 0.064825974
-0.0054249396 0.16016948 0.08726051 0.025499342 -0.13650091 0.053641986 0.06885862 -0.11354445
-0.14017548 -0.09367874 0.034565214 0.06145895 0.021190375 -0.0035793665 -0.022736028 -0.047465343
0.04582379 -0.028869841 -0.035108455 0.09713398 0.030825643 -0.057243843 0.032719593 0.047211885
-0.029418223 0.049338195 0.15589643 0.050547644 0.031118423 -0.09914058 0.16441208 0.034323122
-0.031448796 0.05471329 -0.12242203 -0.110601135 -0.10701956 -0.055320255 0.07619774 0.095997185
-0.15689142 -0.053051136 -0.15262961 0.1307898 0.12833571 0.104913995 0.015529361 0.102808826
0.12666528 -0.09336557 0.122842 -0.06826804 0.04204715 0.12134851 -0.15393011 -0.031800374
0.04516164 0.04233743 0.13969879 0.087205045 -0.07484572 0.09281437 0.03868689 0.10733508
-0.02516681 0.078974254 0.07178983 0.14804016 -0.13318953 0.034234 0.121324375 -0.14427797
0.015953675 -0.04469757 -0.023590773 -0.024361791 0.1292049 0.016672956 0.09005849 -0.08153028
0.13622546 0.12053355 -0.11475945 0.012331031 -0.12477089 0.11830932 -0.106481224 0.075385004
0.094406955 -0.06322368 -0.006167365 0.08048182 0.12473379 0.08639187 -0.084565215 0.10447649
0.0492674 0.015743915 0.04056089 -0.10010268 0.07582583 -0.02361437 0.03540099 -0.016640166
0.034392796 0.11876225 -0.13089864 0.047039516 -0.08064761 -0.022594778 0.19377777 0.13755725
0.06897714 -0.014992447 -0.021560764 0.027114108 0.08063006 0.1355953 0.18438065 -0.03864985
0.06515796 -0.1457477 -0.044630297 0.02767297 0.019856622 0.19542018 -0.06346203 -0.091115706
0.084578425 -0.069681466 0.050765555 -0.106251575 -0.046160772 0.06008998 -0.12165494 -0.05223713
0.07258656 0.0481492 -0.0401393 -0.08509076 0.06717116 0.20598012 0.12457 0.100640535
-0.10234079 -0.013618423 0.08597609 -0.15967467 0.01964957 0.065359734 -0.038950104 0.04006793
0.093033575 -0.020404473 -0.030663442 0.14589198 0.13811536 -0.025791854 -0.15384926 -0.042543452
0.10871356 -0.07254879 -0.048098825 0.11132304 0.07267013 -0.06489054 -0.09375534 0.1468757
0.07360632 -0.06144943 0.11297343 0.03504574 -0.06272355 -0.07770077 -0.094668984 0.05786198
-0.11445884 -0.08453093 0.03773742 -0.017526178 0.06529496 0.03473818 -0.14554583 -0.0860492
-0.1325886 0.13150422 0.026820488 -0.05469039 -0.05745036 0.102104045 -0.029338812 -0.028908841
0.029163826 0.07121579 0.10187123 0.06857356 -0.119954154 -0.0005305791 -0.11033789 0.05260945
00000000: 69a8 ad3c 273b d43c 4190 b9bc 28a7 a3bd
00000010: 0dee 0e3e cdfd dd3d 44d1 be3b fe4e 393d
00000020: 5da4 9a3d 425e 293d d26f 0b3e e69b c33c
00000030: 7cf8 4b3d d8e7 99bd e66c fa3c 6df6 963b
00000040: 8c13 d0bc 3a42 bbbd 7290 9bbd 69b7 d2bd
00000050: 8b49 0abd 8c31 97bd 6c66 4abc 882f 6e3d
00000060: 873c 91bd a6a4 1fbe a5e0 273d 4769 db3d
00000070: adc6 52bd 01c5 3cbe 151e e3bd 0bfb c23c
00000080: 169a c3bd b349 1bbe 17da ecbd 8f37 4abd
00000090: 8d45 70bd 72d4 ef3d effc 96bd 23f7 e3bd
000000a0: ff5f 33bd fbf4 c73d b550 29bd e945 1d3d
000000b0: 9f46 abbc cdd5 0fbe 7238 f0bd d7ad 633b
000000c0: 0e81 89bd d4c4 4fbc 1862 a4bd 13b8 ebbc
000000d0: ce1d cb3d c94c 573d 506f 24bc 7bc3 843d
000000e0: b1c3 b1bb 7803 243e a3b5 b23d ffe3 d03c
000000f0: e5c6 0bbe b3b7 5b3d c005 8d3d fe89 e8bd
00000100: 298a 0fbe a4da bfbd 4194 0d3d 61bc 7b3d
00000110: 7097 ad3c ce93 6abb e840 babc 056b 42bd
00000120: bab1 3b3d 7280 ecbc e2cd 0fbd 2eee c63d
00000130: 0f86 fc3c 8578 6abd fb04 063d 4061 413d
00000140: 7cfe f0bc d916 4a3d 50a3 1f3e 0c0b 4f3d
00000150: 10ec fe3c 370a cbbd a45b 283e 6796 0c3d
00000160: 74d0 00bd 0b1b 603d 67b8 fabd d982 e2bd
00000170: 122d dbbd 7e97 62bd 900d 9c3d 2c9a c43d
00000180: 25a8 20be 264c 59bd f04a 1cbe c3ed 053e
00000190: 706a 033e 26dd d63d dc6e 7e3c 6f8d d23d
000001a0: 8bb4 013e 7336 bfbd 9694 fb3d 1dd0 8bbd
000001b0: a239 2c3d 9185 f83d db9f 1dbe 1c41 02bd
000001c0: 69fb 383d 036a 2d3d 330d 0f3e 8f98 b23d
000001d0: b648 99bd 7615 be3d 2576 1e3d 7fd2 db3d
000001e0: a02a cebc 41bd a13d 8c06 933d d797 173e
000001f0: d662 08be f338 0c3d ea78 f83d 9bbd 13be
00000200: 48b1 823c cd14 37bd 7041 c1bc 6192 c7bc
00000210: 4a4e 043e b995 883c 9670 b83d 59f9 a6bd
00000220: b07e 0b3e 4bda f63d 0107 ebbd 1808 4a3c
00000230: e187 ffbd 284c f23d d412 dabd 7463 9a3d
00000240: 6f58 c13d 6b7b 81bd 9b17 cabb a7d3 a43d
00000250: 6e74 ff3d 39ee b03d 8730 adbd c5f7 d53d
00000260: 9dcc 493d 62f9 803c 2d23 263d a202 cdbd
00000270: 934a 9b3d ec72 c1bc a100 113d f550 88bc
00000280: 76df 0c3d 9f39 f33d 4b0a 06be 82ac 403d
00000290: 932a a5bd af18 b9bc ae6d 463e cfdb 0c3e
000002a0: e343 8d3d e1a2 75bc 33a0 b0bc 681e de3c
000002b0: 5f21 a53d 7fd9 0a3e 48ce 3c3e 4e4f 1ebd
000002c0: 8971 853d e33e 15be 42ce 36bd 6db2 e23c
000002d0: 5baa a23c 3a1c 483e 61f8 81bd df9a babd
000002e0: 7437 ad3d 28b5 8ebd 8bef 4f3d 6d9a d9bd
000002f0: 1413 3dbd e920 763d 3a26 f9bd 9af6 55bd
00000300: 43a8 943d 1838 453d 1b69 24bd 1044 aebd
00000310: 0891 893d 74ec 523e 8e1e ff3d a01c ce3d
00000320: 0c98 d1bd ce1f 5fbc 3b14 b03d c281 23be
00000330: 23f8 a03c 53db 853d 258a 1fbd 451e 243d
00000340: 6388 be3d 4827 a7bc e631 fbbc b564 153e
00000350: 1d6e 0d3e 7049 d3bc a98a 1dbe 0b42 2ebd
00000360: 37a5 de3d 7694 94bd 4603 45bd 56fd e33d
00000370: 14d4 943d 55e5 84bd cd02 c0bd 9566 163e
00000380: e9be 963d 66b2 7bbd 9d5e e73d 1f8c 0f3d
00000390: 3475 80bd 9521 9fbd d0e1 c1bd af00 6d3d
000003a0: 6569 eabd 8d1e adbd 8e92 1a3d 0f93 8fbc
000003b0: 5db9 853d 9f49 0e3d f709 15be 903a b0bd
000003c0: 4ec5 07be 0ba9 063e a4b6 db3c 0803 60bd
000003d0: 1251 6bbd ed1b d13d f357 f0bc 3cd2 ecbc
000003e0: fae8 ee3c 96d9 913d dda1 d03d 4b70 8c3d
000003f0: 86aa f5bd 9016 0bba d5f8 e1bd 027d 573d

lstm.weight_hh_l1 f4 [200, 50]
0.13310955 -0.010206132 -0.036782537 0.045990743 0.03562617 0.012399917 -0.016836016 0.0977596
-0.015312284 0.027657917 -0.020474602 0.14929484 -0.07306696 -0.033989847 -0.12562704 0.07148065
0.106239624 -0.1196281 0.0013135755 -0.014356885 0.1253286 -0.08029941 0.08377054 -0.02042061
-0.059544265 -0.07392242 -0.082969226 -0.059159327 -0.05963552 0.1332742 -0.030332586 -0.03464024
0.010941895 -0.047392964 0.025625832 0.0018648009 -0.035679776 -0.087562464 0.06654457 -0.010101475
0.12555352 -0.01482976 -0.1045736 0.07873649 -0.13920717 -0.093159825 0.05081466 -0.12831596
0.062925525 0.10869993 -0.0052197017 0.025383309 0.006782433 0.09464536 0.090607 0.12459165
-0.057043668 0.018223254 -0.11870181 -0.008264539 -0.009866893 0.13606061 -0.134784 -0.0002836034
-0.09902391 0.095254496 0.011557276 0.0030437787 0.122031756 -0.045293942 -0.0860074 -0.001507865
0.06489211 -0.03477313 0.12182042 -0.012639621 0.088423215 -0.009702387 -0.014802535 -0.033707418
-0.13072197 -0.0026515282 0.0015064998 0.09060995 0.060852442 -0.012029022 0.05112053 0.043078884
0.06637629 0.14344092 -0.107441485 0.084700346 -0.017052606 -0.028011119 0.036349934 -0.14776886
0.05841878 -0.065374605 -0.11123607 0.09600627 -0.12657513 0.053850584 -0.06126858 -0.099078245
0.06470915 0.11410285 -0.01818169 0.11550497 0.021052288 -0.10517997 0.07967846 -0.036258306
0.12577543 0.043212 0.111244865 -0.13921207 0.06272775 -0.06816696 0.08737448 -0.128704
0.026563995 0.13307984 0.07505315 -0.008164454 -0.038384505 -0.11617555 0.043043073 -0.050591018
0.1293021 -0.049895488 -0.045728665 -0.032763243 0.073858485 0.054555684 0.01815724 0.056412317
0.1282705 0.03057421 -0.14623563 -0.004470856 0.0973746 -0.03324094 0.039710436 -0.015601595
-0.04062568 0.0014795203 0.07840408 0.038848914 -0.029907025 0.040645953 0.04094614 0.10628637
-0.11938705 -0.10098558 0.0935283 0.05164969 -0.029064262 0.15774934 -0.04536878 -0.026661268
-0.029402966 0.08935054 -0.10543903 0.037042532 0.015354539 -0.0149817895 0.040116575 0.091450535
0.112418115 0.04265683 0.15331551 -0.11616586 -0.038388286 0.06293515 -0.15892033 0.13245563
0.083090164 -0.051482666 -0.018871753 -0.09022051 -0.019358516 0.045833632 -0.11475429 0.041210614
-0.055470668 0.12520675 -0.10408031 0.16068523 0.040355716 -0.28472662 0.1498661 -0.12488853
0.15118472 0.04774998 0.06806185 0.0009967607 -0.016372973 0.09255972 0.059506327 -0.054424793
0.12776218 0.0679796 -0.038606152 0.018785186 -0.013341949 0.010023391 0.15061373 0.11338764
0.08177089 0.043160804 0.0031820592 -0.06382024 -0.10791714 -0.007062781 0.1010104 -0.0436821
-0.10842289 -0.12760286 0.11426638 0.11266878 0.12759186 0.05316737 0.049171254 -0.050112654
-0.13063286 0.08439111 0.05124421 -0.1705173 -0.032404467 -0.06620946 0.13325237 -0.052737396
-0.0959985 0.07436864 0.11299606 0.08825821 -0.031969227 0.015218993 -0.10643212 0.0035512086
0.104818776 -0.087653086 0.024811823 -0.092105344 0.010405626 0.103113316 -0.076690726 0.12422333
0.040506493 -0.12960997 0.11432401 -0.08126729 -0.030626599 -0.1739638 -0.07564395 -0.042641778
00000000: df4d 083e 9f37 27bc 49a9 16bd ca60 3c3d
00000010: bfec 113d 0529 4b3c afeb 89bc 2f36 c83d
00000020: 60e0 7abc db92 e23c 5aba a7bc bfe0 183e
00000030: 21a4 95bd f038 0bbd 60a4 00be 7264 923d
00000040: 2994 d93d 94ff f4bd 482c ac3a 2439 6bbc
00000050: 2456 003e 0474 a4bd e48f ab3d 2049 a7bc
00000060: b0e4 73bd a364 97bd c5eb a9bd 0d51 72bd
00000070: 6044 74bd 0879 083e 0b7c f8bc ede2 0dbd
00000080: a245 333c 201f 42bd 44ed d13c 566c f43a
00000090: f524 12bd f353 b3bd 8548 883d a880 25bc
000000a0: 1a91 003e 86f8 72bc af2a d6bd 9940 a13d
000000b0: 538c 0ebe 94ca bebd 0823 503d 4265 03be
000000c0: 19df 803d 129e de3d 080a abbb a8f0 cf3c
000000d0: 2c3f de3b 6dd5 c13d 2a90 b93d e829 ff3d
000000e0: 9fa6 69bd ef48 953c ef19 f3bd fd67 07bc
000000f0: c0a8 21bc 7953 0b3e d104 0abe 9bb0 94b9
00000100: 0ccd cabd ca14 c33d bb5a 3d3c 227a 473b
00000110: c9eb f93d 2486 39bd a624 b0bd 8ea3 c5ba
00000120: 28e6 843d 456e 0ebd fc7c f93d 6a16 4fbc
00000130: 3b17 b53d c3f6 1ebc 5586 72bc ca10 0abd
00000140: fbdb 05be 43c5 2dbb bf75 c53a b691 b93d
00000150: 6940 793d 6015 45bc c363 513d 7c73 303d
00000160: 4bf0 873d 2de2 123e 480a dcbd 6077 ad3d
00000170: e8b1 8bbc 9377 e5bc abe3 143d b850 17be
00000180: 8848 6f3d 1fe3 85bd bdcf e3bd ef9e c43d
00000190: e99c 01be 6e92 5c3d c3f4 7abd 89e9 cabd
000001a0: 3b86 843d c1ae e93d c4f1 94bc df8d ec3d
000001b0: d975 ac3c 9968 d7bd 762e a33d 9783 14bd
000001c0: 46cb 003e 11ff 303d 59d4 e33d 9c8d 0ebe
000001d0: 6877 803d 1e9b 8bbd 64f1 b23d fbca 03be
000001e0: bc9c d93c 1546 083e 77b5 993d 34c4 05bc
000001f0: 1239 1dbd 72ed edbd ef4d 303d 8738 4fbd
00000200: c567 043e 365f 4cbd fb4d 3bbd c032 06bd
00000210: 1e43 973d c875 5f3d 7ebe 943c 9a10 673d
00000220: 5859 033e c476 fa3c cbbe 15be 4280 92bb
00000230: 566c c73d a727 08bd 69a7 223d d59d 7fbc
00000240: 1d67 26bd 77ec c13a 5192 a03d 0a20 1f3d
00000250: 94ff f4bc 5f7c 263d 24b7 273d abac d93d
00000260: 3381 f4bd 87d1 cebd c48b bf3d a08e 533d
00000270: 2d18 eebc 0b89 213e 9dd4 39bd bb68 dabc
00000280: 7dde f0bc 6afd b63d 6bf0 d7bd e9b9 173d
00000290: 9b91 7b3c 2e76 75bc 4751 243d 6b4a bb3d
000002a0: 783b e63d eeb8 2e3d befe 1c3e 5ee8 edbd
000002b0: 093d 1dbd 25e4 803d 03bc 22be 73a2 073e
000002c0: 2d2b aa3d 7ddf 52bd ef98 9abc 88c5 b8bd
000002d0: c095 9ebc 0cbc 3b3d 4c04 ebbd 76cc 283d
000002e0: 3635 63bd 3336 003e 0f28 d5bd ab8a 243e
000002f0: 094c 253d b0c7 91be 8076 193e 8fc5 ffbd
00000300: 2bd0 1a3e 7c95 433d 0364 8b3d bda5 823a
00000310: 9d20 86bc f38f bd3d e8bc 733d 88ec 5ebd
00000320: 17d4 023e e338 8b3d 7c21 1ebd 64e3 993c
00000330: 3198 5abc 2639 243c 7c3a 1a3e c737 e83d
00000340: 7f77 a73d 62c9 303d 188a 503b 30b4 82bd
00000350: a903 ddbd e76e e7bb 8ade ce3d 00ec 32bd
00000360: d20c debd 53aa 02be 7e04 ea3d e4be e63d
00000370: 71a7 023e 07c6 593d cc67 493d ed42 4dbd
00000380: 9fc4 05be 3fd5 ac3d 73e5 513d 169c 2ebe
00000390: 8cba 04bd d398 87bd 4f73 083e 2b03 58bd
000003a0: dd9a c4bd 964e 983d 7a6a e73d b8c0 b43d
000003b0: 2af2 02bd 1559 793c 15f9 d9bd 65bb 683b
000003c0: 3aab d63d 7683 b3bd 2a42 cb3c baa1 bcbd
000003d0: 5c7c 2a3c 132d d33d 0710 9dbd cd68 fe3d
000003e0: 23ea 253d 7ab8 04be b522 ea3d 776f a6bd
000003f0: a2e4 fabc 9123 32be 37eb 9abd 25a9 2ebd

lstm.bias_ih_l1 f4 [200]
-0.10195317 0.04173364 -0.0098935 -0.11794805 -0.09032024 -0.12174192 -0.11563821 0.06629808
0.14040323 0.11807478 -0.0023944962 0.09499913 -0.035889443 0.10157512 0.029711366 -0.071873605
-0.13837938 0.047889043 0.03731446 -0.07722374 0.015747905 0.012457813 0.11594024 -0.028634561
0.100582846 -0.099901676 0.10245648 -0.015239408 -0.093833275 -0.013386083 0.07233814 0.01847841
0.08820481 0.11405664 -0.025088781 0.07728069 0.09617592 -0.010910752 -0.07978742 -0.054070886
0.06918253 -0.006067391 0.043168407 0.010537731 0.08323064 -0.08853267 -0.050138716 -0.0009149327
-0.007232497 -0.0843773 0.038098715 0.059195194 0.011394035 0.06753424 -0.058227282 0.11590217
0.022523517 0.07845219 -0.04988405 0.03670208 0.061083358 -0.11926069 -0.061619658 0.037804138
-0.0026276812 0.05017409 0.1097058 0.107199006 -0.13077381 -0.038793176 0.08781275 0.13514628
0.030462973 0.045391813 -0.0862605 -0.038460884 0.030336512 -0.13909484 0.058660924 -0.10307102
0.1231879 -0.043718226 0.08736898 0.060908917 0.12857816 -0.028130304 -0.017328147 -0.05737122
0.07226247 -0.13120669 0.007990218 0.0078062285 0.07361119 -0.029924227 0.014836851 0.09046686
0.10535554 -0.078324616 0.047439314 -0.025644256 0.14516452 -0.14501731 0.06571557 -0.042439446
-0.06521751 -0.015489498 -0.030115653 0.052750938 0.0934204 -0.109241925 0.14144519 0.053087175
-0.13559298 0.009523561 0.07117267 -0.07294405 -0.04902992 -0.10684318 0.0091172345 -0.13041782
0.07438048 -0.14570548 0.055129696 -0.052449096 0.07658998 -0.09031048 0.017429722 -0.06690343
-0.03698537 -0.04031724 0.11161634 -0.10671598 -0.07372475 -0.038532913 0.13523696 -0.03597952
-0.01994028 0.13785887 0.12776251 0.085347384 -0.06380958 0.01891592 -0.030905126 -0.11711832
-0.014885599 -0.02421852 -0.05056152 0.07088347 0.022974001 0.05367534 -0.086758554 -0.06320646
-0.04652899 -0.11084747 -0.12352274 0.07145139 -0.026169518 -0.056132514 0.12763159 0.065139346
0.109133735 0.018177114 -0.118400805 0.106776685 -0.1227334 -0.12056946 0.105914935 0.11319417
-0.10979493 -0.0062580514 0.019333206 0.063612 -0.062409684 -0.060266577 -0.07973668 0.12915285
-0.045453712 -0.078096665 -0.12062385 -0.07122881 -0.087150484 -0.12736672 -0.062083732 -0.07398649
0.0747956 -0.13485843 0.07041355 0.07712913 0.15758571 -0.055028714 -0.14765348 0.09627874
0.042683117 -0.009840139 0.013241839 0.05105134 -0.014292818 0.077223316 -0.043530017 0.011292389
00000000: d3cc d0bd e5f0 2a3d 5918 22bc bf8e f1bd
00000010: d1f9 b8bd d453 f9bd bad3 ecbd 4ac7 873d
00000020: ddc5 0f3e 31d1 f13d fbec 1cbb e78e c23d
00000030: cf00 13bd 9e06 d03d 4065 f33c 7832 93bd
00000040: 53b3 0dbe 4d27 443d 0cd7 183d 7b27 9ebd
00000050: c001 813c db1b 4c3c 1472 ed3d 0793 eabc
00000060: 61fe cd3d 4099 ccbd b4d4 d13d b6ae 79bc
00000070: a92b c0bd 4d51 5bbc 0526 943d 0960 973c
00000080: b9a4 b43d 8796 e93d fd86 cdbc 5745 9e3d
00000090: e1f7 c43d 03c3 32bc 9667 a3bd 6f79 5dbd
000000a0: 92af 8d3d f7d0 c6bb 5bd1 303d 73a6 2c3c
000000b0: d374 aa3d 9e50 b5bd 415e 4dbd 18d8 6fba
000000c0: 95fe ecbb 02ce acbd 660d 1c3d a976 723d
000000d0: 0cae 3a3c 644f 8a3d bb7f 6ebd 1e5e ed3d
000000e0: 3d83 b83c 8bab a03d 3853 4cbd ec54 163d
000000f0: 8b32 7a3d f33e f4bd e564 7cbd 83d8 1a3d
00000100: 2d35 2cbb 5983 4d3d 6fad e03d 278b db3d
00000110: 92e9 05be 98e5 1ebd 2cd7 b33d c963 0a3e
00000120: 7c8d f93c c4ec 393d 58a9 b0bd 2989 1dbd
00000130: 4784 f83c e16e 0ebe 7046 703d e616 d3bd
00000140: f049 fc3d e211 33bd 82ee b23d a17b 793d
00000150: fea9 033e 8671 e6bc c2f3 8dbc 16fe 6abd
00000160: 59fe 933d 0c5b 06be 67e9 023c 64cb ff3b
00000170: 77c1 963d a723 f5bc 4316 733c b046 b93d
00000180: a5c4 d73d a868 a0bd ba4f 423d e713 d2bc
00000190: 02a6 143e 6b7f 14be e295 863d fcd4 2dbd
000001a0: c290 85bd aac7 7dbc 1ab5 f6bc 5e11 583d
000001b0: 3253 bf3d 3bba dfbd 02d7 103e f071 593d
000001c0: e3d8 0abe b608 1c3c fac2 913d b163 95bd
000001d0: 99d3 48bd 99d0 dabd 7460 153c 408c 05be
000001e0: cb54 983d d133 15be adcf 613d ddd4 56bd
000001f0: 35db 9c3d b3f4 b8bd c7c8 8e3c aa04 89bd
00000200: f97d 17bd b123 25bd 1c97 e43d e88d dabd
00000210: 00fd 96bd b0d4 1dbd 8f7b 0a3e 435f 13bd
00000220: cc59 a3bc e02a 0d3e 2dd4 023e 9cca ae3d
00000230: 99ae 82bd 8ff5 9a3c bf2c fdbc bbdb efbd
00000240: bae2 73bc eb65 c6bc 9919 4fbd 5a2b 913d
00000250: f933 bc3c acda 5b3d 78ae b1bd 6372 81bd
00000260: 2f95 3ebd 0004 e3bd 7ef9 fcbd 1b55 923d
00000270: 7561 d6bc 35eb 65bd dbb1 023e c767 853d
00000280: 8281 df3d 2ce8 943c 1f7c f2bd bcad da3d
00000290: a65b fbbd 1fed f6bd eee9 d83d 58d2 e73d
000002a0: 2adc e0bd 5710 cdbb ac60 9e3c 0247 823d
000002b0: 4ca1 7fbd 16da 76bd fc4c a3bd a540 043e
000002c0: ac2d 3abd 25f1 9fbd a309 f7bd 69e0 91bd
000002d0: f47b b2bd 6c6c 02be 834b 7ebd 3b86 97bd
000002e0: 6f2e 993d 5418 0abe fb34 903d e1f5 9d3d
000002f0: 265e 213e ca65 61bd 7932 17be ca2d c53d
00000300: 7ed4 2e3d 8938 21bc 4cf4 583c 361b 513d
00000310: 6c2c 6abc 4227 9e3d 884c 32bd b603 393c

lstm.bias_hh_l1 f4 [200]
0.10492053 -0.008726231 -0.06641929 0.071838036 -0.10232581 -0.02178341 0.112892985 -0.058886446
-0.0842695 -0.102042906 0.05319925 -0.028184896 -0.011831067 0.041515447 0.1350347 -0.012198652
0.1212403 -0.023103084 -0.067262776 0.097971745 0.13514246 -0.029257406 -0.08444313 -0.050772786
0.007602569 0.15426497 0.14781307 -0.09646509 -0.051297326 0.005914478 -0.057230003 0.03455598
-0.09729109 -0.04374959 0.02207215 0.12391863 -0.07110686 -0.01748419 0.0042834575 -0.119632006
0.001650021 -0.110788204 0.032108814 0.02324744 0.0828247 -0.04792066 -0.035286117 0.061490927
0.03476274 -0.12213018 0.070536695 0.10208042 0.044742692 0.058709346 -0.0009346676 0.103808194
-0.054889467 0.11576568 0.12622215 0.015881281 0.010723312 -0.07382322 0.036666576 0.053816866
0.07109227 0.06814868 0.014438535 0.11064599 -0.08480504 -0.0040526106 0.029614968 -0.04092699
-0.006558201 0.021167455 0.0936434 -0.07746519 -0.020328412 0.07137683 -0.11169773 -0.08177967
0.009094413 0.119581215 0.07129221 0.056606818 -0.14146861 0.04865382 -0.01040263 0.046938427
-0.10678644 0.08625849 0.023294015 0.14911336 -0.061663937 0.04903783 -0.13741893 0.05739705
-0.11265189 -0.10813933 -0.01624052 -0.13637069 0.08120542 0.071487956 -0.05275505 -0.08404116
0.07969085 -0.028337982 -0.08527112 0.09599734 -0.11849575 -0.07144407 0.08947452 0.09900214
-0.12252964 0.14024933 -0.050504282 0.12927544 -0.06558782 -0.100140385 -0.065683745 -0.110898994
-0.07611201 -0.0045920117 0.054479826 0.0057994733 0.020523887 -0.04596828 -0.088933185 0.047401786
-0.021311728 0.11202887 0.0062960433 0.02103319 -0.07292779 0.008273494 0.105290055 0.09559584
0.059879832 -0.11978174 -0.11445041 -0.15106037 -0.081297375 0.026911171 -0.10493661 0.06841995
-0.08281543 -0.119020656 0.030681806 0.016304562 0.039092313 0.012956401 0.035599705 -0.07418313
-0.08618866 0.06615656 -0.13495213 0.10793268 0.058544155 -0.093039125 0.04537445 -0.14952543
-0.03207753 0.05557614 -0.08306614 0.0950751 0.03864577 0.025978643 0.099112764 0.006115807
0.03289749 0.10759235 0.14767912 0.10993448 0.15186153 -0.032041088 -0.025377069 -0.03264056
-0.004230537 0.14763047 0.1027137 0.11871564 0.028257366 0.12505598 -0.12502794 0.019889705
-0.027758773 0.07477127 -0.018069642 -0.108484656 0.015984504 -0.11606882 0.0004656957 -0.051950283
0.091767125 -0.060768507 -0.014442267 0.13582233 -0.1370092 -0.119232126 -0.068878286 -0.029391611
00000000: 93e0 d63d 77f8 0ebc d606 88bd d21f 933d
00000010: 3290 d1bd 1f73 b2bc 7034 e73d ea32 71bd
00000020: 7d95 acbd dffb d0bd 75e7 593d 03e4 e6bc
00000030: 17d7 41bc 1a0c 2a3d 8946 0a3e dbdc 47bc
00000040: d64c f83d ae42 bdbc 11c1 89bd 69a5 c83d
00000050: c962 0a3e 3aad efbc 85f0 acbd 20f7 4fbd
00000060: f91e f93b a3f7 1d3e 4f5c 173e 7d8f c5bd
00000070: 251d 52bd 3dce c13b 026a 6abd 928a 0d3d
00000080: 8d40 c7bd c532 33bd a7d0 b43c 0dc9 fd3d
00000090: 79a0 91bd 013b 8fbc 3f5c 8c3b a001 f5bd
000000a0: 8445 d83a ede4 e2bd 8884 033d 6a71 be3c
000000b0: ff9f a93d 7448 44bd 2d88 10bd e9dd 7b3d
000000c0: 6063 0e3d 631f fabd 8b75 903d 8a0f d13d
000000d0: 1d44 373d 3679 703d 7b04 75ba 6499 d43d
000000e0: c7d3 60bd 8f16 ed3d 6140 013e 7619 823c
000000f0: d5b0 2f3c a130 97bd b12f 163d 136f 5c3d
00000100: d398 913d 8991 8b3d 9b8f 6c3c 5d9a e23d
00000110: 44ae adbd c3cb 84bb 179b f23c 0fa3 27bd
00000120: 2de6 d6bb 5f67 ad3c 1cc8 bf3d 12a6 9ebd
00000130: c587 a6bc 042e 923d c8c1 e4bd 1a7c a7bd
00000140: bc00 153c ffe6 f43d a601 923d 8ddc 673d
00000150: 26dd 10be 3a49 473d cb6f 2abc 8242 403d
00000160: d9b2 dabd 4ba8 b03d 17d3 be3c 2cb1 183e
00000170: 5393 7cbd e4db 483d 8cb7 0cbe 2b19 6b3d
00000180: 09b6 e6bd 2778 ddbd d70a 85bc c2a4 0bbe
00000190: 074f a63d 4768 923d ae15 58bd c61d acbd
000001a0: f534 a33d 0e25 e8bc a0a2 aebd 419a c43d
000001b0: e6ad f2bd 4551 92bd 6b3e b73d a2c1 ca3d
000001c0: d2f0 fabd 859d 0f3e 94dd 4ebd c860 043e
000001d0: e852 86bd 6716 cdbd 3385 86bd 031f e3bd
000001e0: 9de0 9bbd 9678 96bb 3d26 5f3d 8209 be3b
000001f0: b621 a83c 3c49 3cbd 9a22 b6bd 6028 423d
00000200: ef95 aebc 646f e53d 0a4f ce3b cc4d ac3c
00000210: 2a5b 95bd 8d8d 073c 50a2 d73d c0c7 c33d
00000220: 8e44 753d 2150 f5bd fa64 eabd 92af 1abe
00000230: 3d7f a6bd d174 dc3c 01e9 d6bd c21f 8c3d
00000240: 239b a9bd 1ac1 f3bd 6958 fb3c 2591 853c
00000250: 431f 203d 1647 543c ffd0 113d 53ed 97bd
00000260: ae83 b0bd 177d 873d e430 0abe cf0b dd3d
00000270: ffcb 6f3d 4c8b bebd 8fda 393d 321d 19be
00000280: ba63 03bd cea3 633d 951e aabd bcb6 c23d
00000290: 074b 1e3d 2ad1 d43c a2fb ca3d 1c67 c83b
000002a0: 85bf 063d 6159 dc3d 3239 173e 5425 e13d
000002b0: 9781 1b3e 843d 03bd 92e3 cfbc 1cb2 05bd
000002c0: 51a0 8abb 712c 173e 8f5b d23d 2f21 f33d
000002d0: fe7b e73c ad0e 003e 5307 00be bcef a23c
000002e0: 5e66 e3bc ae21 993d c906 94bc 342d debd
000002f0: eff1 823c 7db5 edbd 9e28 f439 d2c9 54bd
00000300: 67f0 bb3d 66e8 78bd 429f 6cbc 0215 0b3e
00000310: 244c 0cbe f92f f4bd 0f10 8dbd adc6 f0bc

regressor.1.weight f4 [1, 50]
0.08239525 -0.14200287 0.006041995 0.1255878 -0.06458802 -0.060257554 0.051749073 0.09166726
0.12954643 -0.013810276 0.037193496 0.11887015 -0.11392472 0.06402129 -0.13041669 0.070896484
0.11701984 -0.15705974 -0.017397057 -0.08112252 0.15817894 -0.078540206 0.11325192 0.012194671
-0.04576222 0.07175654 -0.10287333 -0.1122472 -0.08523914 -0.08392327 0.14462468 0.07329701
-0.0001947641 0.119653895 -0.0048823166 0.039834738 -0.0350894 0.032504294 0.16903178 -0.03478873
0.0024459644 -0.10911971 -0.029130874 -0.082644306 0.11286337 0.06625635 -0.05363152 0.061096903
0.08832019 -0.012600582
00000000: d7be a83d 3369 11be edfb c53b 179a 003e
00000010: b946 84bd a0d0 76bd d6f6 533d 0bbc bb3d
00000020: d2a7 043e 7f44 62bc 3558 183d 3172 f33d
00000030: 5d51 e9bd 981d 833d f48b 05be 2d32 913d
00000040: 19a8 ef3d 45d4 20be 4684 8ebc 9023 a6bd
00000050: a9f9 213e b0d9 a0bd 9ff0 e73d 28cc 473c
00000060: 2a71 3bbd 18f5 923d 41af d2bd dce1 e5bd
00000070: dc91 aebd f7df abbd 7e18 143e be1c 963d
00000080: 9739 4cb9 1a0d f53d d7fb 9fbb c029 233d
00000090: e7b9 0fbd 3923 053d ab16 2d3e a17e 0ebd
000000a0: 794c 203b 287a dfbd dfa3 eebc 6b41 a9bd
000000b0: e924 e73d 69b1 873d baac 5bbd bf40 7a3d
000000c0: 37e1 b43d ac72 4ebc
