process/modelo_lstm.pt (torch, 561906 bytes, 12 tensors)

lstm.weight_ih_l0 f4 [400, 4]
00000000: d87d be3d ba5a 063c aee5 ecbc 2c17 9f3b
00000010: db12 91bb 1547 84bc d248 933d 8770 cf3a
00000020: 1f9e 55bd 8b45 a6bd 0541 623d 631d ccbd
00000030: 250b c53d 44de 89bd f770 8cbd c08a b33d
00000040: d6f8 7e3c f7cc ae3c 8576 a8bd eade 21bd
00000050: e0fe dc3b 3238 7b3d 3310 853d 90ae 683c
00000060: 4edf 3d3d b70a b63c b06e 4abd 2564 45bd
00000070: f0d7 553d c8e1 8e3d 9872 353c da4d 9abc
00000080: 4d73 c93d 46c0 023d 71b2 963d 6c25 9cbc
00000090: e80f 003e faa5 03bc 6829 70bb e07a 56bd
000000a0: 529a 57bd de68 1b3d 7435 5a3d a3d7 db3c
000000b0: 449e 5fbc bfbd 7b3d 904d a0bb dadf 853c
000000c0: 1ba6 72bc 64d7 b73c 55c0 00bd bb28 8cbd
000000d0: d38c ca3d 69b9 ca3d d002 b7bb 7857 9fbc
000000e0: 8d85 3cbd 455f b83c 050d aebc 8fe0 b4bc
000000f0: 6a7b 1f3e 9ebc 0dbd 952a 953b b6d9 05bd
00000100: 8e8c 83bd 19fa 923d 4c54 ecbc 401d a7bd
00000110: 4ad5 97bd f1bf 26bd 106a 463c 9cba 8dbd
00000120: 7b6e 093d 9116 8e3d 85b5 46ba 78f3 d4bc
00000130: 5938 7c3d f9ff efbd f0fb b73c 0bf7 fabd
00000140: 1e5b c53d 0bbd 85bc fc65 8c3c 1d1a 453d
00000150: 46ce 83bd fad2 c73d 5dd7 a33d 192f 6a3d
00000160: 2fdf bb3d 83e8 4cbd 269f 5e3d 4db0 cc3d
00000170: e4f2 c8bc a705 863d a6b6 823c 93b2 f83c
00000180: f357 1d3d 46ca b13d 702b 9bbd 3473 dc3d
00000190: 54e4 df3d f7df 1bbd 422e 803d 64c0 bc3c
000001a0: 509b 463c 37d5 043e 26ea ce3d 41a7 ebbb
000001b0: ae89 7f3c abed 2bbd d1ae f73b 15c8 8ebd
000001c0: 1043 9f3d 4fa0 32bc 0193 343d d7d7 e3bc
000001d0: c0dd c53c 0eb9 733d 6dd4 933c a7db 23bb
000001e0: f542 17bd 0544 f63d 5289 f1bb 6a42 9b3c
000001f0: 1916 1bbd 2943 47bd 629c 893c 60e2 d0bd
00000200: abd7 c53d 82ac 453d b0c2 60bd 5c7b 4f3d
00000210: 562c 8fbb 48d3 893d 9d8a 883c f2f4 efbc
00000220: d3ef 1d3d 3b58 17bd b43f e13d e72d 50bd
00000230: 4015 6c3c 251f 9c3d b93c ad3d 83a7 8d3d
00000240: 03a9 1cbd 62ec 183d 739c b6bd e5da 86bd
00000250: 31c3 bf3d 0015 feb9 625f 2c3d 957e 833d
00000260: 5750 843d 01a1 303d 1694 58bc 750f bbbc
00000270: d93e 5a3c cae3 a63b 9275 62bd 1471 95bd
00000280: 8a50 efbd 06f0 a2bc 2ce5 173c 0243 c43c
00000290: 7aad 6d3d 2bd8 c03d e1de b43d 80cf 99bc
000002a0: f81b 91bd 9caf 13bd 9fb3 ae3d 8b16 ccbd
000002b0: e625 9cbd f836 debd 6433 933b 3c26 1dbd
000002c0: 47f3 83bd f854 a7bc 1621 483d 849d a23d
000002d0: 3e76 b83c a1aa 3ebd 7594 b3bc d8a2 80bd
000002e0: 941d 403c 9174 35bd 32e4 d53d 5ebd 9c3d
000002f0: 35f5 963d b2d4 673d c7a6 b63d 009d 23bd
00000300: 60d8 9fbb c0ac 4dbb f1e1 9b3d f160 c43d
00000310: 0dd8 23bd b14c 923d ee6c 433d 6543 8e3d
00000320: f5d0 a73d 73ff 933b d2dd 23bd 2fa6 0c3d
00000330: 34ee aebd d8f0 743c 9318 b6bc fb20 f9bc
00000340: 0e89 2ebd c97e c8bd 8c46 a13d 6f8f f7bc
00000350: 0d53 e83c 6591 9bbd d5ea e93c d7da b53d
00000360: 6621 933d c0b7 803d 0936 8d3c 63fd 88bb
00000370: 00a7 5fba 3293 313d c916 993d 694b bc3d
00000380: e0ed 85bb 91d6 983d f20e 693d 868d 413d
00000390: 1871 5c3c a5a6 c03d 2242 733d a8af 553c
000003a0: 93e3 803d 1eec e13c 6080 653d 8f3b abbc
000003b0: 0056 953c f4ce 05bd b108 8e3d e440 f73c
000003c0: 3035 12bd abea cb3d f266 063d 7b99 933d
000003d0: 1244 9dbd 4fb6 b33d e714 a33d 9bde a73d
000003e0: 03a2 16bd 94fe 993d 4383 ca3d e193 893c
000003f0: bc2f b7bd b49e 4d3d ae29 503d 31ea c93d
0.093013465 0.008200342 -0.028918114 0.004855057 -0.0044272966 -0.016147176 0.07191624 0.0015826382
-0.05215275 -0.08118733 0.05523779 -0.099665426 0.09621266 -0.06731847 -0.06857484 0.08766699
0.015562257 0.02133797 -0.08225731 -0.039519228 0.0067442507 0.06133289 0.064972304 0.014201775
0.046355538 0.022221906 -0.049421966 -0.04819121 0.052207887 0.06976658 0.011074685 -0.01883595
0.09836445 0.031921647 0.07358254 -0.019060813 0.12506068 -0.008035177 -0.0036645774 -0.052363276
-0.052637406 0.037941806 0.053273633 0.026836222 -0.013648573 0.061460253 -0.0048920587 0.016342092
-0.01481011 0.022441573 -0.031433422 -0.06843706 0.09890141 0.098986454 -0.005585052 -0.019450888
-0.0460258 0.022506366 -0.021246443 -0.022079734 0.15574422 -0.034603707 0.0045521953 -0.03267833
-0.06423293 0.071766086 -0.02884879 -0.08159876 -0.074137285 -0.040710393 0.012110248 -0.069203585
0.033552628 0.06937898 -0.0007580149 -0.025995001 0.061577175 -0.11718745 0.022459 -0.12254151
0.0963652 -0.016325494 0.017138474 0.048120607 -0.06435828 0.097570375 0.08000062 0.057173822
0.09173428 -0.050026428 0.054350995 0.09994564 -0.024529882 0.06544047 0.015956234 0.030358588
0.038413953 0.08681159 -0.075766444 0.10764161 0.10932222 -0.038055386 0.06258823 0.023040958
0.01212199 0.1297196 0.10103254 -0.007191569 0.01559679 -0.041974705 0.0075586815 -0.06971756
0.07776463 -0.010902478 0.044085506 -0.027812881 0.02415359 0.059502654 0.018045628 -0.002500275
-0.03692909 0.120246924 -0.007371106 0.018952567 -0.03786287 -0.048648033 0.016798202 -0.101994276
0.09660276 0.04826022 -0.05487317 0.050654754 -0.004369299 0.06729752 0.016667658 -0.029291604
0.038558792 -0.036949378 0.109984785 -0.050825026 0.014409363 0.07623128 0.084588476 0.06916716
-0.03824712 0.037334807 -0.08916559 -0.065847196 0.09363402 -0.00048462301 0.04208315 0.06420628
0.06460636 0.043122295 -0.0132189 -0.022834519 0.013320648 0.0050930725 -0.055287905 -0.072969586
-0.116852835 -0.019889843 0.009270947 0.023957733 0.05802677 0.09416231 0.08831573 -0.018775702
-0.07085413 -0.036056146 0.08530354 -0.09965237 -0.07624416 -0.10850328 0.00449221 -0.03836654
-0.06442886 -0.020426258 0.04885968 0.079402 0.02251732 -0.046549443 -0.021921376 -0.0628106
0.011725802 -0.04430062 0.104439154 0.076533064 0.07370988 0.056599326 0.08918529 -0.03994465
-0.004878089 -0.0031383485 0.07611454 0.095888026 -0.040000964 0.07143534 0.047711305 0.06946448
0.08194152 0.004516536 -0.040006466 0.034338173 -0.085415274 0.01495 -0.022228515 -0.030411234
-0.042611174 -0.09789807 0.07874784 -0.030219762 0.028359914 -0.07596091 0.02855436 0.08879631
0.071841046 0.062850475 0.01723768 -0.0041805967 -0.000853166 0.043353267 0.07475049 0.09194071
-0.004087195 0.074628 0.05689902 0.047254108 0.013454698 0.09406785 0.05938924 0.013042368
0.06293406 0.02757841 0.05603063 -0.020902423 0.018229485 -0.03266807 0.069352515 0.03018231
-0.035695255 0.09956869 0.03281302 0.072070085 -0.07678999 0.08775007 0.07962971 0.081967555
-0.0367756 0.0751926 0.098883174 0.016794147 -0.089446515 0.05020018 0.050821 0.098591216

lstm.weight_hh_l0 f4 [400, 100]
00000000: 7d5b 95bd 3da7 0f3e 8e71 5e3d e64d 4e3d
00000010: 356e c83d d704 a9bc 0738 ebbc bed9 40be
00000020: 96b7 aabd 4f3a 23bd 8c17 383c 3087 b4bc
00000030: 9c0c c33d 80ac 84bd b6e0 933e 0737 77be
00000040: f99e 653e 3106 a63d ab1c b93c 16a6 473c
00000050: 5ad5 2ebe fbdf 83bd 5170 cc3d 9e0a 53be
00000060: e994 d5bb 2d76 17bd 6eea 8bbd 6b12 5a3d
00000070: 7065 bbbd b352 093d 1d47 793c 732e 4dbd
00000080: 3a1e 73bd e2af 023e 9557 143e f8eb 043d
00000090: 559b b4bd 4cc5 1e3e 80dd 4bbe f3d1 603d
000000a0: 4612 273d 7f14 88be d876 f5bc a6ee adbb
000000b0: 52b2 debd 359a 583e 4fe6 a53d 328e 563e
000000c0: 6491 823d 7adf 92bd 2170 a0bb 3b38 913d
000000d0: 570e a5bc 07ae 503d ae31 cabd 755b f83d
000000e0: 0232 883e 2900 65bd ea8d c6bd d0b1 953d
000000f0: b898 75bd 71dc d63c 48ac 2e3e 41c0 c53d
00000100: 1732 c53d febe 11bc 3136 6d3d 1ead 10be
00000110: c802 b7bc 82f2 003e 7472 003e bf8c 46be
00000120: 5a27 e73c 57d5 8ebd 81af 4c3d cb47 eabc
00000130: 386b c5bc 2270 823d 2405 5b3a b95d e03c
00000140: 9ea0 4abe 8ff0 f0bc f990 f4bd 29f2 843e
00000150: e5a4 e43d c328 173d a8bb 823c b7e9 8c3d
00000160: 4a83 14be d2a2 73bd 0ea0 0a3c 823a 4d3e
00000170: c31a 37be 6d60 41bd c169 ae3d f1e2 2ebe
00000180: e85c 40bc 7e7d 093d 035e c93c 0567 fd3d
00000190: 5de9 c63d 0d99 233d 489f 9dbd d854 003c
000001a0: bc70 12bd 4e48 8bbd a273 103d 4ff0 0ebd
000001b0: 4d4e b93d 0fc3 013d c9a3 9c3d f789 1cbb
000001c0: 3254 653d 35af d8bd 4668 613c 96ec 2f3b
000001d0: d693 3bbd 006a a1ba 9def cdbc c6a0 9fbd
000001e0: 6013 1cbe c75f cdbd 7e9f 743d 0db9 6d3d
000001f0: 32c1 34bd 0bba e73d 30e2 94bd ba95 963c
00000200: 1a31 edbc ca5b c83d 6599 d33c 1e1d 8c3d
00000210: 4d36 993c 9d28 e2bc c915 f13d 452f 86bc
00000220: 7095 64bc f800 443e 9c09 c2bd 1cdc 70bd
00000230: c101 89bd 8751 6dbc f5f1 99bd 18a7 19bd
00000240: 6fd0 82bc 1312 e53d bfb3 813d d499 0e3e
00000250: c700 0a3d 5ba7 dbbc 0251 123e a7f4 b1bd
00000260: baa1 7c3d 942e fdbd 266d 813d cd8f 1d3e
00000270: f321 ce3d fc49 73bc 3ee4 89bd 7502 d33c
00000280: 2ef8 f8bc 9505 22bb d36d 553d 896f 23bd
00000290: a4e0 bfbc d1ae 78bd 2c0d 283d baaf 2bbd
000002a0: f8bb 903d 221a 503c 4ae7 5ebd 4d99 f3bd
000002b0: 6c30 1c3d 129e c6bd 332c 833c 66fa bf3c
000002c0: c937 8ebd 28c2 c3bc dbf7 593d 50e9 073e
000002d0: b807 dcbd 51e0 203d f4a6 9ebd 0083 213e
000002e0: 869b 8a3b 2ae8 323d df11 b6bd 04ef 5e3d
000002f0: 009a 35bd 7d77 85bd 2f7c 8cbd 2439 453c
00000300: 73d5 39bc 139a 99bc f2ec c63d 2812 67be
00000310: 47e3 c33d c03d 8b3c b2b4 963d de0b 003b
00000320: 640d e13c 8ea7 aabd 7028 133c fc3b 93ba
00000330: 9881 283c d08b 24bd 9ecb 423d da2f 61bd
00000340: f843 a9bd 99dc 823d 3a0f 50bd 34bd 88bc
00000350: 3667 503d 91d2 b93d 4f78 873d c6b3 8fbd
00000360: 522b 373d 0070 0b3c e0f0 a83c c07f 673c
00000370: 39aa a23d 8020 24bd 10dd 2e3c 2506 a5bd
00000380: d8c8 c1bc 48f2 8bbd 460b abbd 080b afbc
00000390: a92d c53d 709c 1b3c f2e5 6e3d e02d fcbb
000003a0: fb46 8ebd a0d7 c2bc e8e0 b73c fe8d 80bd
000003b0: 84c4 d33c eddb aabd d881 893c c2a8 233d
000003c0: 212a ab3d fd92 8bbd b704 9f3d d8f3 953c
000003d0: ac17 9e3c 276f 24bd f5b5 bcbd 5b43 813d
000003e0: f184 b03d 93d0 27bd 98d4 afbd 9405 17bd
000003f0: 8ba1 ccbd 1f36 b63d 7959 a83d 0748 b93d
-0.07292841 0.1402864 0.054307513 0.05036726 0.09786645 -0.02063219 -0.02871324 -0.18833062
-0.083357975 -0.03985053 0.011236083 -0.022037119 0.095238894 -0.06478214 0.28882378 -0.24142085
0.22423925 0.0810665 0.022596678 0.012185594 -0.17073575 -0.06439205 0.0998236 -0.20609519
-0.0065179956 -0.036977936 -0.06831823 0.05324022 -0.09150207 0.033526134 0.015214709 -0.050093126
-0.059355 0.12762406 0.14486535 0.0324516 -0.0881869 0.1550495 -0.19908714 0.054887723
0.04078891 -0.26578137 -0.029963896 -0.00530799 -0.10873856 0.21152575 0.081005685 0.2095268
0.06375387 -0.07171531 -0.0048961793 0.07090803 -0.02014844 0.050947215 -0.09872757 0.12126819
0.26600653 -0.055908356 -0.09695037 0.07309306 -0.059960097 0.026228162 0.17057908 0.0965581
0.096286945 -0.008895634 0.05791301 -0.14128539 -0.022340193 0.1259251 0.1254366 -0.19389628
0.028217006 -0.06974285 0.04997206 -0.028598687 -0.024098977 0.06369044 0.0008354953 0.02738844
-0.19787833 -0.029411582 -0.11941714 0.25966004 0.11164264 0.036904108 0.015958622 0.06880515
-0.14503208 -0.05948145 0.008461012 0.2004185 -0.17881303 -0.0472111 0.08516265 -0.17078759
-0.011740901 0.033566944 0.024580961 0.12373165 0.09712479 0.039940882 -0.07696396 0.007832728
-0.035752043 -0.068009004 0.035266526 -0.034897145 0.09048138 0.031680163 0.07648427 -0.0023885944
0.055988498 -0.10580293 0.013757771 0.0026843897 -0.045795284 -0.0012314916 -0.02513867 -0.07794337
-0.15241766 -0.10028034 0.059722416 0.058037806 -0.044129558 0.11314782 -0.07269704 0.018381942
-0.028954078 0.097831324 0.02582998 0.06841491 0.01870265 -0.027607257 0.11771733 -0.016379962
-0.013951644 0.19140995 -0.09474489 -0.058803663 -0.06689788 -0.01448477 -0.07516853 -0.03751287
-0.01596853 0.11185088 0.06333112 0.13925868 0.033692148 -0.0268132 0.14288715 -0.08689242
0.061677672 -0.123624 0.063196465 0.15386887 0.10065069 -0.014849182 -0.06732987 0.025758008
-0.030391779 -0.0024722565 0.05210669 -0.03990129 -0.023422547 -0.060713593 0.041028187 -0.041915633
0.07067102 0.012701543 -0.054419793 -0.11894474 0.038132116 -0.09698118 0.016012287 0.023434829
-0.06944234 -0.023896292 0.05321489 0.13272595 -0.1074366 0.039276425 -0.077466875 0.15772629
0.0042299656 0.04367844 -0.088901274 0.05442716 -0.04433632 -0.06516931 -0.06859624 0.012037549
-0.011342394 -0.018750226 0.097131625 -0.2256552 0.09564834 0.016997218 0.07358684 0.0019538323
0.027472205 -0.0833274 0.008981809 -0.0011233087 0.010284804 -0.040172398 0.047557466 -0.054977275
-0.08264917 0.06389732 -0.05079577 -0.016691782 0.05087968 0.090733655 0.06614744 -0.07016711
0.044719048 0.00851059 0.02062267 0.014129579 0.07942624 -0.040070057 0.010672823 -0.080578126
-0.02365534 -0.06833321 -0.083517596 -0.021367565 0.096278496 0.009497747 0.05832476 -0.0076958984
-0.06947132 -0.023784459 0.02244611 -0.06277083 0.025850542 -0.08342729 0.016785547 0.039955862
0.08357645 -0.06815145 0.07764571 0.01830475 0.019298397 -0.040145066 -0.09214393 0.06311675
0.086191066 -0.040970396 -0.08585471 -0.036870554 -0.099917494 0.088970415 0.082201906 0.09046941

lstm.bias_ih_l0 f4 [400]
00000000: f295 7cbc 0f5a 453b 0eff 423d 6061 2cbd
00000010: c8a1 943d 917c bc3d bbb6 f5bd 2674 023e
00000020: 18e1 8a3c ba67 423d 451d cc3d 8cf4 443c
00000030: 5bc1 48bb 4038 45bc d78d 573e 2b7b ac3d
00000040: 9024 c33c 4ac2 c1bd a3f9 99bd 91c9 253d
00000050: b23a b7bd 7465 8abc a21b 663d 9409 483d
00000060: c958 a83d 6003 4f3d db73 6a3c d355 bbbd
00000070: ade6 0c3c c88a c5bd 4b88 9e3a 15c8 303d
00000080: d149 a0bc b61d a4bc 876f 0c3d 305f 733c
00000090: 58b0 393c 8a92 473d d06c 0e3d 8655 c0bc
000000a0: 60fe 07be e19b 923d 62f9 513d aa80 613d
000000b0: fea7 ee3d 5645 943c ba59 80bd c765 873d
000000c0: e07f c53b bbea a63d 0300 6b3c a2b9 683d
000000d0: 614d b63c 3abd 153d 265e ab3d 9927 9c3d
000000e0: 1528 87bd 22d4 633d 4eb7 9a3d bd71 a93d
000000f0: 63f2 19bd 23e3 c5bd 8554 e03d 253d 233d
00000100: 7d27 923c 7d09 1bbd 7afd 0fbd 8afd a13d
00000110: a578 673d b474 f1bc 97dc f63d 00c2 c03a
00000120: 1a40 a8bd a86a 58bd 1d9f ac3d e24c ae3b
00000130: fd32 97bd 0572 bdbd a09d fcbb 49ae 1bbd
00000140: d8d2 803d eb50 0dbd 0bbf 0bbd cf5b e93d
00000150: 1110 113e 8f66 92bc 7d36 53bd e29a 743d
00000160: 373a 7e3b 17e1 d0bc 6ea4 31bd d1ff 6cbd
00000170: 7233 b0bc d24e 0ebd dd61 a4bd 2f45 d43d
00000180: f69c a0bd 19af c23d c8bf 5bbc def0 b33d
00000190: ca5a a83d 4e1c 8f3d 3ab3 88bd 7089 bd3d
000001a0: 9210 b1bd 5006 953d 3b74 c9bd 1fa5 f93c
000001b0: 56e4 3cbd e523 07bd 61c1 b63d 37e2 973c
000001c0: 1c39 4fbd 3b24 22bc 4079 a7ba 0b24 5c3c
000001d0: 5ae4 113c 0d83 c7bd 625c b1bd 151b 05bd
000001e0: 1cf1 99bc 0042 523b 6276 033d 5880 13bd
000001f0: 0b05 063e 59a9 c3bd 9fe2 a83d dd28 33bd
00000200: 2a01 9dbb 9fd9 a5bc 4b4a 86bc 6dd6 b63d
00000210: 0c4d 9a3d ff19 7ebd 791d 9cbd 5e21 54bc
00000220: 0aa5 13bd 51bd ac3d 29a4 81bc cd9b a93a
00000230: 1b90 8d3d 0d3b d53d 8073 543c 1d5f c43d
00000240: a014 34bb 2b2b 103b 71e1 b13c 9df3 27bc
00000250: 5fbd f93a 8e24 203d 5349 f23d 6ce2 a8bc
00000260: 7ce6 0c3d 38fa 663d 5950 ba3d f392 90bc
00000270: e338 f03d 895e c33d f5ff cd3a e546 b43d
00000280: a8de 163d 4b2e c63c 0e6b 8fbc 6963 c4bb
00000290: f210 523d 2314 7a3d 2193 80bd 6b7a 773e
000002a0: 2214 99bd da99 a7bd 6cae 483d 77cb 0f3c
000002b0: ec2b febb ef92 d93d 1183 013c 89ad d6bb
000002c0: ff52 b73d beea 063d a85a c53c d4da 8d3d
000002d0: 6041 81bc ba5f 31bc 0d2c 093d 2d04 9a3d
000002e0: 7367 013e b726 fd3d 5487 f2bc 405f eebc
000002f0: b333 3a3d 70aa 66bd 51fd b63d 620d 4a3d
00000300: 8cd0 afbc 9d8c 1abd c07d 873d 728b c43d
00000310: 2043 c5bc 1830 88bc 956e 8d3b 4550 c73d
00000320: 60f5 bebc 268e 92bc d805 07bc 8fe4 a0bd
00000330: 9139 b23d e9d0 a53d 04eb 3dbd e8be 44bd
00000340: dcb4 35bc 4d58 68bd 369c 9dbd 7c01 7abd
00000350: 868c 8dbd ea65 c8bd be83 473d 7619 423d
00000360: d094 a8bd 52d9 1c3d f015 a8bd 2af2 493d
00000370: 0669 7d3d a0c6 b2bb b032 09bc 7232 a03d
00000380: 5a5d 6ebd 920d 493d e6fc e93c b6ce 683d
00000390: 0f33 be3d 002b 98bb e8a9 233c f877 b53c
000003a0: 58ef 0abd f727 a63d 9da1 72bc 48a5 81bc
000003b0: 5765 8d3d 8217 3c3d 8d75 99ba 86f8 a5bc
000003c0: aee3 17bc d6fb 233d d758 73bd 6095 20bd
000003d0: 403d 003c c8a8 d7bc 2e29 f1bc f20a 743c
000003e0: a892 a1bd 138e 47bd 5a4e 1c3c 2bb7 bb3d
000003f0: ae71 7e3d 4196 a93d 715b e8bd b893 853d
-0.015416609 0.0030113494 0.04760652 -0.04208505 0.0725742 0.09203447 -0.11997744 0.1273962
0.016953036 0.047462203 0.0996652 0.012021195 -0.0030632827 -0.012037337 0.21050201 0.0842193
0.023821145 -0.09460886 -0.075183176 0.04047543 -0.08946742 -0.01689408 0.056178696 0.04883726
0.082200594 0.050540328 0.014309849 -0.09147229 0.008599919 -0.09645611 0.0012095062 0.043159563
-0.019566448 -0.020033699 0.03428605 0.014854237 0.0113335475 0.048723735 0.03477174 -0.02347828
-0.1328063 0.07158638 0.05126322 0.055054344 0.11653136 0.018099468 -0.06267114 0.06611209
0.006027207 0.0815024 0.0143432645 0.05681766 0.022253694 0.036557414 0.08367567 0.0762474
-0.06599442 0.055622227 0.07554494 0.08273647 -0.037584674 -0.096624635 0.10953621 0.039853234
0.017841095 -0.037850846 -0.035153843 0.07909687 0.05651154 -0.029474594 0.12053793 0.0014706254
-0.082153514 -0.05283609 0.08428786 0.0053192237 -0.07382772 -0.09250263 -0.00770922 -0.03800801
0.06290215 -0.034500998 -0.03411774 0.11394464 0.14166285 -0.01787117 -0.051565636 0.05971802
0.0038792023 -0.025497956 -0.043369703 -0.057861153 -0.021508906 -0.034743138 -0.080264784 0.10364758
-0.07842438 0.095060535 -0.013412423 0.08786176 0.08220442 0.069878206 -0.0667481 0.0925473
-0.08645739 0.07276595 -0.09836622 0.030474244 -0.046116196 -0.032993216 0.08923603 0.018540485
-0.050591573 -0.009896333 -0.0012777224 0.013436328 0.008904541 -0.09741793 -0.08660199 -0.03249653
-0.018791728 0.0032082796 0.03209532 -0.03601107 0.13087861 -0.09553785 0.082463495 -0.043740142
-0.0047913985 -0.020245371 -0.016392848 0.08927617 0.07534227 -0.06203651 -0.07622809 -0.0129474085
-0.036046065 0.08434547 -0.015825348 0.0012940109 0.069122516 0.10411654 0.0129669905 0.09588454
-0.0027478114 0.0021998386 0.021713944 -0.010250953 0.0019053629 0.03909736 0.11830392 -0.020615779
0.034399495 0.05639097 0.09097356 -0.017648196 0.117296 0.095395155 0.001571654 0.088025846
0.036833435 0.024191996 -0.017507102 -0.005993296 0.05128569 0.06105436 -0.062780626 0.24167792
-0.07474543 -0.08183642 0.048994467 0.008776537 -0.0077567007 0.106237285 0.007904784 -0.0065514487
0.08951377 0.03293871 0.02409108 0.06926504 -0.015778244 -0.010826046 0.033489276 0.07520328
0.12637119 0.123609 -0.029605545 -0.029098153 0.04545946 -0.056314886 0.08935035 0.04932917
-0.021461748 -0.037731756 0.06615782 0.095969096 -0.02407986 -0.016624495 0.004316161 0.09732107
-0.023310363 -0.017890047 -0.008241139 -0.07856094 0.08702386 0.08096487 -0.046366706 -0.048033625
-0.0110904835 -0.056724835 -0.076958105 -0.06103657 -0.06911568 -0.097850636 0.048709624 0.047387563
-0.08231509 0.03829319 -0.08207309 0.04930321 0.061867736 -0.005455807 -0.008373901 0.07822122
-0.058194496 0.049085207 0.028562974 0.05683776 0.092870824 -0.004643798 0.009989239 0.022151932
-0.033919662 0.081130914 -0.014809039 -0.015825883 0.06904095 0.045920856 -0.0011708006 -0.020260107
-0.009270592 0.04003509 -0.059410896 -0.039204955 0.007827103 -0.026325598 -0.029438581 0.014895188
-0.078893006 -0.048719477 0.009540165 0.09165796 0.062120132 0.08280612 -0.11345566 0.06522316

lstm.bias_hh_l0 f4 [400]
00000000: 2283 cb3d c81a 013e 2125 833d f919 8c3d
00000010: 7878 79bd 00b8 ca3b 9709 eabd 2217 053e
00000020: d09c 19bd 0699 e23d 5d8e 153d 6ed4 d23d
00000030: 8738 9d3d f455 de3c 2c78 013e 1a59 173d
00000040: 2505 343d a4b2 f03c 8716 e63d 161b e3bd
00000050: 5ba7 d93c 9f11 223d 4a81 4dbd 34bb cc3d
00000060: 5a4c 7b3d 2f44 73bd 7e56 863b 2315 4cba
00000070: 5ce7 0abe 1f2f a6bd 16aa b0bd 8d68 533d
00000080: 110e 96bc 54fd 3dbc 2624 783c de8e 7b3d
00000090: c031 52bd a725 b5bd ab7f 6a3d 3704 bfbd
000000a0: 0775 ddbd cdd0 c43d 922e 0a3d c596 b7bd
000000b0: 3490 ee3d 68c4 143d d568 67bc d489 9e3c
000000c0: 8e23 abbd 5881 33bc 3d10 163e aa10 523d
000000d0: 3749 2cbd da37 963d c7c4 083d 593a aa3d
000000e0: 60ac 4ebb e1c4 853d f40c be3d 3b4d be3d
000000f0: dd58 2dbd eec7 063d 41dd 8e3d 1c9a 88bc
00000100: 19bd 8d3c 804c 49bc 681c a33d 8ec9 bb3c
00000110: 1379 33bd 2084 82bd 33cd 88bb 8ddb b73d
00000120: 64a3 b9bd 3674 9e3d cdbf 4ebd fe72 e03d
00000130: b7bc b23d 0267 c9b9 56ba 683d aeef 41bc
00000140: 9e6e 023e fb4f 7f3d 2a77 e43c eac5 1e3e
00000150: 39fc 903d 8e1f eb3d 1797 79bd b083 f13b
00000160: b34c da3d 5100 cb3d 2051 4cbd 3f70 86bd
00000170: ccb3 9dbc 62a5 0a3d ac6d 8dbc 6c96 eabb
00000180: a652 6abd d28e acbd 4fe8 7abd 68c3 a03c
00000190: a5e7 503b 2123 39bd 8870 9d3c 0b55 323d
000001a0: 0bc8 b03c b1e7 4dbd a924 883d 42c1 a9bd
000001b0: d061 2bbd 4157 bebd 3514 44bd 9113 ba3c
000001c0: 166a 033d 5d6b 5a3d ea57 66bd 887c d83c
000001d0: cdc8 22bd 16a8 103d 7864 8fbd a4d1 bbbc
000001e0: 8fe2 90bd 9a64 9ebd 6e7d 5d3d d4a9 04bd
000001f0: 2f27 753c 43a3 bd3d 2b83 aa3c 557a 72bc
00000200: 0e57 ec3c a81b 07be 1f39 513d 0065 cabd
00000210: 2c03 50bd 262c 023e 0688 80bd a24b 353c
00000220: 0087 42bd ed36 88bd 4be1 74bc 88e7 fb3d
00000230: a0cb c8bc b1c4 d43d bac8 493d 5641 7bbd
00000240: c89b a7bc 4d2b b53d a7ca 70bd b1dc 00bd
00000250: c74e a9bc 7b76 883c be19 8cbc dbfc 99bd
00000260: fea5 303b 5833 073d add6 74bd caf9 78bd
00000270: dee4 f5b9 a052 fdbb 4d69 80bd 98c9 f8bc
00000280: e808 26bb a85c 2f3c 9fbf b2bd 28cb 14bd
00000290: 1145 9b3d adbe 48bb 0de5 ef3c 4130 173e
000002a0: 39fd cb3d a747 5abd 7253 e83d c760 c93d
000002b0: 5c93 a73d 0ddc 533d 9ec3 9b3d ac3c 6ebd
000002c0: c36a 31bc 1674 01bd d065 90bb 7cc4 283d
000002d0: f0ed 5f3d d666 98bd b960 30bd 3b12 bbbd
000002e0: 2c6d 1bbd 6366 613d 0e0e 0b3d 5805 24bc
000002f0: ca1a b7bc dfcb 6abd afec b2bc c895 d5bc
00000300: a0dc 4f3b edbd a5bd 39fb 05bc d690 883d
00000310: 00be 9139 d5c4 89bd 43d3 1dbd 8fdb ea3d
00000320: a8d2 2d3c 0a4f d33c 780a 94bd 3d5e 9c3d
00000330: 325f 673d 189e b2bd b4ef 29bc fb87 c4bd
00000340: 672c 98bd d31b d9bc ed8d b3bd ac7c 793d
00000350: 86ac 9dbd bc17 28bd e3eb 2abd 6034 b4bb
00000360: e10b 51bd c7c2 ac3d 8869 ecbc 20b2 8c3b
00000370: 0049 273c 6c9a 90bc 2883 b0bd bd5c 143d
00000380: 20d9 cfbb c885 c23c a43f d63c c1ad 923d
00000390: 8867 81bc 10db 0a3c 5246 503d 65b7 9b3d
000003a0: 4d67 823d 904a acbb ff01 883d 6462 cf3c
000003b0: fada b6bd f82d c9bd 67c0 203d b096 833c
000003c0: 03b8 903d d473 febc 6db4 3dbd 5ec9 173d
000003d0: d380 913d 09ab b53d 053e 34bc 88f6 82bc
000003e0: 28c6 8d3d 18b8 88bd e1db 88bd 0307 1dbd
000003f0: 871e 3ebd a173 823d 7daf 5c3d 81cf e5bc
0.09937121 0.12607872 0.06403566 0.068408914 -0.060905904 0.0061864853 -0.1142761 0.12997106
-0.037503064 0.11064343 0.03651272 0.10294424 0.07676797 0.027140595 0.12643498 0.03695021
0.04395022 0.029382057 0.112347655 -0.110891506 0.02656906 0.039567586 -0.050172128 0.09996644
0.06135211 -0.059391197 0.004099666 -0.0007785132 -0.13564819 -0.081144564 -0.08626191 0.05161338
-0.018317254 -0.011596043 0.015145337 0.061415546 -0.051316977 -0.08845072 0.05725066 -0.09326976
-0.10813337 0.09610138 0.03373582 -0.08964304 0.11648598 0.03632012 -0.014124115 0.019352831
-0.08356391 -0.010956131 0.14654632 0.051285423 -0.04206201 0.073348716 0.033390786 0.0831191
-0.003153585 0.06531692 0.09279814 0.09292074 -0.042321075 0.03290551 0.069757946 -0.016675048
0.017302083 -0.012286305 0.079644024 0.022923257 -0.043816637 -0.06372857 -0.0041748523 0.08977423
-0.090643674 0.07737009 -0.050475884 0.10959433 0.08727401 -0.00038414454 0.05681833 -0.011836929
0.1273751 0.062332135 0.027888853 0.15505186 0.07079358 0.11480628 -0.060935106 0.0073704347
0.106591605 0.0991217 -0.049882054 -0.06564378 -0.019250773 0.033849128 -0.01726421 -0.007159045
-0.057207726 -0.08425678 -0.061256703 0.019624427 0.0031876352 -0.045199517 0.019218698 0.043538135
0.021579763 -0.050269786 0.06647617 -0.08288814 -0.04184133 -0.09293986 -0.047870833 0.022714408
0.032083593 0.053325046 -0.056236185 0.026426569 -0.03974228 0.03531655 -0.07001585 -0.022927113
-0.070744626 -0.07734032 0.054074697 -0.032388523 0.014962955 0.09259655 0.020814499 -0.014799674
0.028850105 -0.13194144 0.051079866 -0.098825455 -0.050784275 0.12712154 -0.062759444 0.011065396
-0.047492027 -0.06651101 -0.014946292 0.123000205 -0.024511158 0.103890784 0.049263693 -0.061341606
-0.020460024 0.088461496 -0.058787014 -0.031460468 -0.020667447 0.016658058 -0.017102119 -0.075189315
0.0026954408 0.03300795 -0.059775043 -0.060785092 -0.0004690056 -0.007730797 -0.062700845 -0.030369565
-0.0025334898 0.010703243 -0.08727955 -0.036326557 0.07581533 -0.003063123 0.029284025 0.14764501
0.09960408 -0.05329099 0.11344041 0.09832912 0.081824034 0.05172353 0.076056704 -0.05816333
-0.010828677 -0.03160485 -0.0044066682 0.041203007 0.054670274 -0.074414894 -0.043060992 -0.091343366
-0.03794591 0.055029284 0.03394895 -0.01001104 -0.022351641 -0.057323333 -0.021841375 -0.026072398
0.0031717196 -0.08092866 -0.008177572 0.0666825 0.00027798116 -0.06726996 -0.038531553 0.11467659
0.010609306 0.025794525 -0.07228559 0.07635162 0.05648727 -0.0872156 -0.010372091 -0.09596249
-0.07430344 -0.026502525 -0.087673046 0.060909912 -0.07698922 -0.04103826 -0.041728865 -0.0054994076
-0.05103672 0.08435588 -0.028858915 0.004293695 0.010210276 -0.01765176 -0.08618766 0.036221255
-0.006343022 0.023745432 0.026153393 0.07162047 -0.015796438 0.00847508 0.050848313 0.07603339
0.06367359 -0.005257912 0.06641006 0.025315471 -0.08928485 -0.09823221 0.03924599 0.016063064
0.070663475 -0.03106109 -0.046314646 0.037057273 0.071046494 0.08870513 -0.011001115 -0.015986696
0.06922561 -0.06675738 -0.066825636 -0.038336765 -0.046415832 0.06369711 0.053878296 -0.028053047

lstm.weight_ih_l1 f4 [400, 100]
00000000: efad e93c e79a e03a 40bd 9abd fae0 2fbd
00000010: afed a63d c675 d23d 4dea 77bc 57f4 9c3d
00000020: cefb bebd 5c35 02be db9b 87bd c7bc 623d
00000030: 710c 003f ce0d 54ba 801e 183e e7a9 e93d
00000040: 14c3 a93e 20ec 86bb ac1f dd3c 1f5f 54bd
00000050: b95b 993d 1172 393c c114 883d c8f4 59bd
00000060: 9944 b43d f5a9 553d 21b1 cf3c a0b4 c33d
00000070: cd33 fb3c e5ca f43d 2cf9 553d d68a fcbc
00000080: 9279 95bd 80a0 683d e438 e7bc 5749 b1bd
00000090: 8065 92bc d425 5e3d 247c ca3b 5968 cabd
000000a0: 54a3 d93c e52a 0e3e b35b b23d e1fa 34bc
000000b0: 43bf 053e c910 c23d 3e2c c6bc dbb8 4b3d
000000c0: 24b0 d03c 5184 6e3d 03d5 3abd 582e 823c
000000d0: 6046 da3b c740 a9bd d6ab a1bd 55f9 ab3c
000000e0: 9fff ba3e 6925 be3d ae3e c8bd cbc2 8c3c
000000f0: 8c84 f03d 8683 98bc 1f00 a9bd 4cc2 b4bc
00000100: 4cc5 94bd 5d27 923d a52f c3bd adb3 78bd
00000110: 29c7 453d 916f 1b3c 389c b5bd 0af4 bc3d
00000120: da15 873d 689a 82bd 6ccc 993d 5061 e53a
00000130: fd00 8dbd 2be9 8d3c 542b 053d b751 363d
00000140: e24f 7b3d 9d05 c73c 0bb9 2f3d 45e3 3dbd
00000150: 3c3e d23e d395 4d3d a5a6 bfbd 4e47 403c
00000160: 10da ce3c f356 ddbd 78b9 d4bd 9052 513d
00000170: 2c09 9bbd 0638 48bb e041 103d 67be b9bd
00000180: 1a3b 643d 2023 a23c a1e1 0ebf de19 edbd
00000190: 6b7b 05bd d2b3 703d 4a09 203d a93f 9abd
000001a0: dc86 f83c 49b9 efbb 3759 d33d 56cd 143e
000001b0: 740a 9cbd 2dd5 ab3d ce51 90bd 1b86 ce3d
000001c0: 1817 1d3d 998f 61bc 475c 9abe 7d48 be3d
000001d0: 1a34 333f aada bbbd 61fb 01be 92dd 123e
000001e0: 0e61 6fbd d415 17bc b0b8 45bc 122d cd3d
000001f0: b200 ab3d d558 c83c ffd7 58bc b559 c63d
00000200: 142d 9abd d0fe c83d 1588 96bd 2663 463d
00000210: 33fa 1b3e b0bc 59bc c2cc 2ebb ae4d 28bd
00000220: 6390 a2bd c419 3d3c 9554 943d 8ce8 1cbb
00000230: ec09 1f3b a5ae 893d 8c42 f03c 6baa bf3d
00000240: e434 e5bc 8dc2 21bc cce2 0dbe e33e 1f3c
00000250: 7358 3c3d d533 423d a26e c0bd d24e 96bd
00000260: 6392 1e3d af77 45be 8a95 f2bc a138 3d3d
00000270: ea14 8abf 57a1 bd3c b05e a5bb ff80 bdbc
00000280: 0f30 16bd 9841 833e fbb3 32bd e606 98bc
00000290: 32c7 b9bd 6b8b 83bc 4370 953d 9f3e 153e
000002a0: 55b4 a5bc 3193 8cbd a2bd 9f39 a3a8 c33c
000002b0: c9bd f9bd 14bc 21bd de6c 083e a0c0 0bbd
000002c0: ad03 cc3d d794 a33a a5ad c7bd 32f7 f0bc
000002d0: 0678 203d db62 0d3d 0ae2 db3d ccc2 c93c
000002e0: 2d73 a23c 3216 b3bb 00ba 98bd 38e6 bdbd
000002f0: c0a2 da3c 9190 9f3e 1cfa 5fbd 3667 b1bc
00000300: f0b5 17bd 6bbc 98bd 3b15 133d 54b5 833d
00000310: 917b 923d 556b b53d b35f 51bd b31c 023d
00000320: 4593 503d 21f2 ce3c 39ae b63d 8d39 adbb
00000330: e823 a33d 6cd5 d3bc ce1c bcba fbe7 253e
00000340: 0690 de3d 6105 50bd 21c2 5a3d f01e f03b
00000350: 9d8d 25bd d5a4 983c b29e d4ba c881 9d3c
00000360: 15b1 19bd 6b66 9e3d a9dd 55bd fb0c 243c
00000370: fe32 f33d cd3c 5dbd 231f 5cbd 86c9 b43d
00000380: a88b 4bbd 7ed8 833d 016d 47be 307b 6cbd
00000390: 02ea d63d b5d8 33bd 56a8 75bc 1a2b b83d
000003a0: 75ce 64bd a18f 49bd 701a 0b3d 5260 d2bd
000003b0: a068 52bd 76dc 353c fa8a c53c 7f27 b4bd
000003c0: 7b1d 153d 8087 503d 3a77 683d 73e4 88bd
000003d0: 8d0f cf3c 83c1 70bc c866 b8bb 413c 32bd
000003e0: ad16 c73a 8d45 953d cc40 1dbd ff37 c53d
000003f0: f028 d13b 53c5 4d3c 3b66 e23c 0a0b 07bc
0.02852532 0.0017136008 -0.07555628 -0.042939164 0.08150803 0.1027637 -0.015131545 0.076637916
-0.09325372 -0.12715667 -0.06621524 0.055355813 0.50018984 -0.0008089215 0.14855385 0.114093594
0.33156645 -0.0041175038 0.026992641 -0.051848527 0.07488198 0.011318699 0.066445835 -0.053211957
0.088021465 0.052164037 0.025353016 0.09555936 0.030664349 0.119527616 0.052239582 -0.03082792
-0.07298578 0.05679369 -0.02822537 -0.086565666 -0.017870665 0.054235294 0.0061793495 -0.09883184
0.026567139 0.1388355 0.087088965 -0.011046142 0.13061242 0.09475858 -0.024191018 0.04973684
0.025474615 0.058231656 -0.0456133 0.015891239 0.0066612214 -0.082643084 -0.07894103 0.020992914
0.36523148 0.09284479 -0.0977758 0.017182728 0.11744031 -0.018617403 -0.08251976 -0.022065304
-0.07264194 0.07136414 -0.09530572 -0.060718227 0.048285637 0.009487049 -0.08867687 0.09226234
0.06595965 -0.06377107 0.075096935 0.0017500315 -0.06884954 0.017323097 0.032512024 0.044511523
0.06135548 0.024294669 0.04290108 -0.04635932 0.41063106 0.05019171 -0.09357957 0.01173575
0.025250465 -0.108076 -0.10386938 0.05110413 -0.07570109 -0.003055097 0.035219073 -0.090695195
0.055720426 0.01979214 -0.5581303 -0.115771994 -0.032588404 0.05876524 0.03907136 -0.075316735
0.030337743 -0.007315789 0.10319751 0.14531454 -0.07619181 0.083902694 -0.07046853 0.10084172
0.038352102 -0.0137671465 -0.30148527 0.0929117 0.70001376 -0.09172566 -0.1269355 0.14342335
-0.058442168 -0.009221513 -0.012067959 0.10018362 0.08349742 0.02445642 -0.013235091 0.09685079
-0.07528129 0.098142266 -0.07350174 0.0484344 0.15232162 -0.0132896155 -0.0026672338 -0.041089706
-0.07937696 0.011541788 0.07242695 -0.002394232 0.0024267389 0.06722764 0.029328607 0.093586765
-0.027979322 -0.009873045 -0.13856047 0.009719583 0.04598279 0.047412712 -0.093961015 -0.073392525
0.038713824 -0.19283937 -0.029612321 0.046196584 -1.0787632 0.023148222 -0.005046688 -0.0231328
-0.036666926 0.25635982 -0.043628674 -0.018557977 -0.090711966 -0.01605769 0.07296803 0.1457467
-0.02022759 -0.06864012 0.0003046813 0.023884123 -0.12194402 -0.039486006 0.1332278 -0.03411925
0.099616386 0.0012480271 -0.09749917 -0.029414747 0.039176963 0.034518104 0.10736473 0.02462902
0.01983031 -0.0054652924 -0.07457352 -0.09272426 0.026688933 0.31164983 -0.054681882 -0.02165566
-0.037038743 -0.07457813 0.03590892 0.0643107 0.07152475 0.088583626 -0.051116657 0.03176565
0.050921697 0.02526194 0.08919949 -0.0052864016 0.07965833 -0.025858603 -0.0014351846 0.16201775
0.10867314 -0.05078638 0.053407792 0.007327907 -0.040418256 0.018633286 -0.0016221611 0.019226924
-0.037522394 0.077343784 -0.052213345 0.01001286 0.1187496 -0.054013062 -0.05374063 0.088275
-0.049693733 0.06437777 -0.19475175 -0.05773467 0.10493852 -0.04390784 -0.014993748 0.08992596
-0.055860955 -0.04920924 0.03396076 -0.10272278 -0.05136931 0.011099925 0.02411412 -0.08796596
0.036405068 0.050910473 0.05675433 -0.06684198 0.02527597 -0.014694574 -0.005627487 -0.043514494
0.0015189253 0.072886564 -0.038391873 0.09629821 0.006383054 0.012559253 0.027636638 -0.008242378

lstm.weight_hh_l1 f4 [400, 100]
00000000: 5e0c a5bd 7529 f63d 3810 a9bc 9cd9 35bc
00000010: 3271 163d bbeb d6bd 57e9 413e 5b29 08bd
00000020: 8374 1e3d 82df 16bd ee66 563d 4020 bcbd
00000030: 977e 3f3c 9c71 0ebe 5cac 07bd 75d0 aa3c
00000040: 8e5e 05be 1e84 54bd 470b e93a a198 6f3d
00000050: f74d bdbd 5932 013d 3252 373e 2678 873d
00000060: 5595 bb3c 9a08 83bc 89fc dabc ab38 39bc
00000070: ef09 70be 1252 8b3d 8998 b4bc 8799 90be
00000080: 034e 33bb f6a2 5fbd 13ba e13d 8620 8b3d
00000090: cdb0 643d ea0a ddbd 1a3a 32bd cfad 12bc
000000a0: 9488 54bd 4f2d 333d aefe 173b 10de fdbc
000000b0: 7111 42bc 3615 d33c 493d 0a3e d283 ffbd
000000c0: 28a3 6c3d 412f a8bc 706b 0fbe 165e e6bd
000000d0: 1a92 8abd 7665 88bd 7a4a 1fbc f679 403d
000000e0: ac8c 1b3d 6f95 eb3c 12c5 323d f08f 7fbd
000000f0: 7352 2e3d 5b5f 5bbd 30c0 133c 7802 fe3c
00000100: 6260 82be fae0 9a3d eee0 c83d f35c 9e3c
00000110: e192 edbc ead3 eebd 8a64 433e 08d4 e43d
00000120: 1e16 2a3d bce1 103d 9a53 12bd ee35 6bbd
00000130: 56ed 613e 3247 c0bd 86f5 60ba 46e0 d33d
00000140: 585d b3bd 716a 983d 8780 6e3d c374 a8bd
00000150: 810f 053e e420 68be 1cf5 d9bd 94e2 f83d
00000160: b0f3 eb3d d82b 55bd ca2b ed3d 72fc 143e
00000170: b4df abbd 1cae 83bb d3e7 1cbc 5d9d df3d
00000180: 40ab ae3d ef34 91bc e0ff 10be 3650 f0bd
00000190: 7bc0 33bd 4778 5b3d 2c9b 8e3c 58a2 6d3d
000001a0: b237 8abd 55f1 1bbd e046 1fbd 287b edbc
000001b0: f637 fb3c b2bc 003e 152e 89bd 4990 1a3c
000001c0: b975 223e 4960 4b3c 34a8 01be f4ed 093e
000001d0: 6f2b 69bd 6585 b6bd 332b b3bd 64de 31bd
000001e0: 2aee 9a3d ca7f 273e 1b99 f73d 27d5 afbc
000001f0: 00ba 913b b9b6 5d3c 693f 933d 7ee9 74bd
00000200: baea fd3b 5e28 43bc c61b 0d3e f57a 733e
00000210: 7453 b23b f0ba bebd a378 e1bd 3e71 8b3c
00000220: c639 4f3d d9f9 c93c 4ab4 ea3d 3559 983c
00000230: d48c a93d 132f 8dbd 0c87 97bd 8e4d 84bd
00000240: 5227 fcba 3e55 0dbd d125 e33c 9a61 51bb
00000250: 6728 8f3c 6bd9 9c3d d4d5 9fbd be8c a5bc
00000260: 2f40 803d 4948 603d 4929 f3bc 895a 49bc
00000270: fb01 0cbd b558 003e 539a dbbc 4a85 1a3d
00000280: 6241 473d 909e d8bd a91f 683d ddb1 b2bd
00000290: c749 45bd 1422 003e c139 91bd ae25 0338
000002a0: b23f 133c 5e70 21bd 0c99 d43d 9a5a 8c3c
000002b0: be73 be3d d742 b23c 7c4b abbd 4ccb 2abd
000002c0: 9101 d9bd e0bd 6c3d f238 b33c 6000 e13d
000002d0: 1790 68bc e809 f9bb 8fd0 9bbb c067 763b
000002e0: ead6 6a3b b93c 0a3e 0d8e e13c 6fe8 43bd
000002f0: 9490 b1bd 0090 123d 57cd 3e3d b015 ccbc
00000300: fcbe b8bc 9123 583d f4a5 473c d454 9d3d
00000310: 53dc c03d 5d56 07be ad3c c6bc cee1 26bc
00000320: 15f0 e3bc 6e12 2a3e 8d83 5d3d 8c7e 1f3d
00000330: 1004 0a3d dc43 a4bd e671 263b 9830 b6bd
00000340: 81d0 ad3d 3665 0c3e fd1a 04be 158b 50bd
00000350: 7119 2d3e 3f33 7bbd a5b4 03bd 0814 99bc
00000360: 499d 9dbd 1977 043e d902 b43c 239d 2f3d
00000370: 9b72 bfbd 8853 833d a558 66bc f15f 91bd
00000380: 7103 233d c448 e63d aafb e4bb 3f74 193e
00000390: fc8a 3ebc fb56 313e 4153 05bd f19d e7bb
000003a0: 1064 9e3a 56a9 cabb 4275 303c 872d 023d
000003b0: 8040 d23d ad33 c63c 68c3 5d3a 222d 793d
000003c0: 4db0 733c a831 a43d 262e 163e 13c1 d03d
000003d0: 0232 353b cdda 03be 3024 e5bc 7608 38bd
000003e0: 656a f83d 7e8e 90bb 0f12 8fbc 0691 6c3b
000003f0: 3c96 433d ef79 683c 142e 0c3d 6ca1 d4bd
-0.080589995 0.12019626 -0.020637617 -0.011099245 0.036729045 -0.10494181 0.18936668 -0.033242565
0.038685333 -0.036834247 0.052344255 -0.09185839 0.011687896 -0.13910526 -0.03312336 0.020851353
-0.13024351 -0.05188381 0.001777985 0.058495168 -0.09243386 0.031542156 0.17902449 0.06614713
0.022898355 -0.015995312 -0.026731746 -0.011305015 -0.2344129 0.06802763 -0.02204539 -0.28242132
-0.002735973 -0.05459877 0.11021819 0.06793313 0.055832673 -0.10793097 -0.04351244 -0.008952572
-0.051888064 0.04374438 0.0023192572 -0.030989677 -0.011844979 0.02576695 0.13499941 -0.124763146
0.057772785 -0.020530345 -0.14005828 -0.11248414 -0.06766148 -0.06659977 -0.009722346 0.04699131
0.037975952 0.028757779 0.043644972 -0.06239313 0.0425591 -0.053557735 0.009017989 0.031007037
-0.2546416 0.07562442 0.09808527 0.019331431 -0.029000701 -0.11661513 0.19081321 0.11173254
0.041525 0.035371527 -0.03572426 -0.05742448 0.22063193 -0.093885794 -0.0008581508 0.10345511
-0.08758038 0.07442177 0.058228042 -0.082253955 0.12994196 -0.22668797 -0.10642454 0.12152591
0.11521089 -0.052043766 0.11580618 0.14549425 -0.08392277 -0.004018558 -0.009576756 0.109186865
0.08528757 -0.017725436 -0.14160109 -0.11734049 -0.043884736 0.053581502 0.017407976 0.05801615
-0.06748904 -0.03807195 -0.03888595 -0.02898939 0.030666333 0.12571982 -0.066982426 0.009433814
0.1586522 0.012413093 -0.1266182 0.13469678 -0.056926187 -0.08912162 -0.08748474 -0.04342498
0.075649574 0.16357341 0.120897494 -0.021463944 0.0044472218 0.013532334 0.07189829 -0.059792988
0.007748929 -0.01191148 0.13780126 0.23777373 0.0054420773 -0.09312999 -0.11009338 0.017021772
0.050592206 0.02465527 0.11460169 0.018597225 0.08278814 -0.06893744 -0.07398805 -0.06460105
-0.0019237793 -0.03450512 0.027727993 -0.0031949044 0.01747532 0.07658657 -0.07804456 -0.020208713
0.06262242 0.054756436 -0.029682772 -0.012289652 -0.034181576 0.12533839 -0.026806986 0.03772477
0.04864634 -0.105771184 0.05667082 -0.08725331 -0.048166063 0.12513 -0.07091094 3.1267926e-05
0.008987354 -0.039413802 0.10380754 0.017133046 0.0929942 0.021760387 -0.08364007 -0.041697785
-0.10596002 0.057798266 0.02187774 0.109864 -0.01419451 -0.007600058 -0.0047550867 0.003759846
0.0035833665 0.13499726 0.027533555 -0.047829088 -0.08670154 0.03578186 0.046582546 -0.024912685
-0.022552006 0.052768294 0.012185562 0.07682195 0.094170235 -0.13216539 -0.024198854 -0.010185672
-0.027824441 0.16608593 0.054080535 0.038939044 0.03369528 -0.08020756 0.0025397479 -0.08895987
0.084870346 0.13710484 -0.1290092 -0.05091389 0.16904236 -0.06132817 -0.032154698 -0.01868631
-0.076960154 0.12936057 0.021974014 0.042874467 -0.09348031 0.06412417 -0.01405922 -0.070983775
0.039798204 0.11244348 -0.0069880085 0.1498575 -0.011629816 0.17318337 -0.0325501 -0.0070683886
0.0012084264 -0.006184737 0.010770144 0.0317817 0.10266209 0.024194563 0.0008459599 0.060834058
0.014873576 0.08017284 0.14666042 0.10193076 0.0027648215 -0.12876435 -0.027971357 -0.044929944
0.12129668 -0.0044115176 -0.017464666 0.0036097183 0.047750697 0.0141892275 0.03422363 -0.10382351

lstm.bias_ih_l1 f4 [400]
00000000: a18f c3bd 16d6 0fbe 781c 00bd 29a1 b7bd
00000010: 9099 09bd 11a7 2dbc eb98 623c 3075 0f3c
00000020: f468 d0bd ebe5 91bd 1935 f5bb 4ec7 283d
00000030: 11de 7c3d b237 68bc e6a7 87bc 954e 25bd
00000040: e433 973d 9de8 a937 030e 4fbd f84e 713d
00000050: 6269 443d a528 223d 91af be3c 1be9 9f3d
00000060: 91a7 8a3d 9dac f73c ee22 a13d 2fde 3fbd
00000070: bd3d 5e3d 1013 313d 86a6 183d 47d2 10be
00000080: ce70 5bbd f47d 2dbd a81c 6a3d 10c0 cdbd
00000090: 67d8 673d ae64 973d 417a c03d 888c f4bc
000000a0: 80b2 113d b9c7 bd3c 0920 a5bd 94ad c3bc
000000b0: 197f 11bd 04ad 47bd 8630 143e 386c 233d
000000c0: 4b28 79bd 239a cfbd 3a27 273d fe11 9fbc
000000d0: 2ddb efbd 735d a33d 84bc 95bc 697b adbd
000000e0: 3ddd 83bc 5373 4a3c 7928 e13d 85d6 bd3d
000000f0: e746 7b3d f137 0bbe 8a93 08bb 7be6 863d
00000100: a7d5 e4bd 9ffd 2b3d bd62 4bbd 0a43 b83d
00000110: 2e47 853c 9acc a33d 7ae2 cdbc c873 eb3b
00000120: 166a a83d 5c9a 9c3b 2828 b43b 313f 57bd
00000130: 2ff4 583b b3f4 9bbd fdde d93c 2e7c c0bc
00000140: 9f89 b23d 615e b03c d837 edbc 91ab 80bd
00000150: df10 bc3d ca49 613e cfc8 cb3d 3af5 1e3e
00000160: 8616 ca3c 7974 443c cca4 2f3d cf67 863c
00000170: 88d7 a63d 6eee 0a3d 4f46 d9bd b423 87bd
00000180: fe9c 0e3e b88e a3bd e055 e0bc b99c b5bc
00000190: 7f6c c0bd 53c0 a43d ead4 993d a64e 453d
000001a0: 9007 1a3d 8726 a13d 59b4 c33d 989e ce3c
000001b0: a571 b43b b02a 15bd 8da9 cbbc 8e3f 643d
000001c0: 9c12 0a3d b499 ca3c 97a8 bf3c f43a dd3c
000001d0: fd7e a1bc c8ba a63c 7283 52bc 0451 0cbd
000001e0: 4bbb 263e b639 d53d 45db a4bc c770 08bc
000001f0: 8478 623d 588b eabc 9954 ea3c c793 aebc
00000200: 3f24 abbd b1fc 16bc 0646 1bbe 3612 043e
00000210: f6f0 84bd 375a 823d c146 9e3d ad64 b63d
00000220: 5621 55bd c644 ed3c d5f2 e33d 6cf3 86bd
00000230: 11e6 5cbb fec3 123e 028a ee3d bac1 9cbc
00000240: 5fef fe3d f215 b7bc 67c7 fe3d 38f2 6a3d
00000250: ca60 843c c66a 3a3c 7971 213d 7af9 473b
00000260: bba8 1dbd 6264 98bd efcd d9bc 02c0 593c
00000270: 8d5f ba3d e277 e43d 6007 11bd 1032 c13c
00000280: 85f9 73bd fdbc c13d 8513 833d c818 7c3d
00000290: 78bd 38bd 760e 4c3d b924 68bd bb9b dbbc
000002a0: 7811 8f3d 5bcb 61bc 68cf a63c 15bc 4e3d
000002b0: 66e2 4a3c 1816 173c 40b3 bd3d f1c4 47bb
000002c0: ed86 983d e3c4 363e 9ce0 a7bd 0d27 093e
000002d0: 43aa 263e a150 f83d ae4a 113e bcab 42bc
000002e0: 0073 403d e3fa 343e 6317 143d 1ef2 96bb
000002f0: dadc 113d 3fc4 9e3d 6fb3 b03d 2e6c 55bd
00000300: c305 0c3e bebc 863d 3cc8 703d 01ed 89bd
00000310: dfa4 8d3d 5426 48bd 24fd 063e 20be 46bc
00000320: f531 023e 098d c4bd 6f7b 1fbd eab3 d43d
00000330: 401c afbd 2086 cb3d 1ad2 b03d ba7c cb3c
00000340: 791f e4bc 208c 3dbd cf97 b0bd f044 4dbd
00000350: 0724 6e3d 3aa6 223e 6211 253d 6c91 94bd
00000360: c3f5 243e 9c07 d6bd 7539 f6ba 2499 f23d
00000370: dc5a 623d d1f3 4d3c 75f5 a43c e716 3d3d
00000380: 2c76 733d a3f4 e33c 2b23 84bd e77e 4f3d
00000390: 6704 893d d026 083e 1537 3d3d 8ddf 4d3c
000003a0: 1b2b bdbd 9664 babd bc21 d73d 70d8 90bd
000003b0: 1c5e 9a3d 9bad b43c a88a 623d 30e4 503c
000003c0: f1e3 593d 2b44 723d 2ac7 83bd bb4d 043d
000003d0: c82e 593d fc39 4a3d d50b 08be 48a2 403c
000003e0: f455 9fbd d3d7 40bc 058e 92bd 2e86 73bd
000003f0: 8c42 493d 7cb1 0b3b 8177 5fbd 1564 f73c
-0.095488794 -0.14046511 -0.03127715 -0.08966286 -0.033593714 -0.010598914 0.013830404 0.008755967
-0.10176268 -0.071239315 -0.0074831364 0.041205697 0.061735217 -0.014173435 -0.016559552 -0.040358145
0.07382944 2.0254689e-05 -0.050550472 0.0589132 0.047952063 0.039589543 0.023277076 0.07808133
0.06770242 0.030233676 0.078679904 -0.04684275 0.054258097 0.04323107 0.037268184 -0.14142714
-0.053574376 -0.042356446 0.057156235 -0.10046399 0.05660286 0.0739225 0.09398318 -0.029852167
0.03557062 0.023166524 -0.08062751 -0.02388648 -0.0355216 -0.048748985 0.14471635 0.039898127
-0.060829442 -0.10136821 0.040808894 -0.019417759 -0.11711726 0.079768084 -0.018278368 -0.08470804
-0.016096706 0.012356597 0.10994048 0.09269432 0.061346915 -0.13595559 -0.0020839893 0.065869294
-0.111735635 0.04198992 -0.04965471 0.08997162 0.016269293 0.07998009 -0.025132407 0.007185433
0.08223359 0.0047791433 0.005497951 -0.0525505 0.003310453 -0.07615032 0.026595587 -0.023496713
0.087176554 0.021529378 -0.028957292 -0.06282724 0.091829054 0.22000805 0.099504106 0.15523234
0.024668943 0.01199066 0.042881772 0.016406922 0.08146578 0.03391879 -0.106091134 -0.06598607
0.13927075 -0.07986206 -0.027384698 -0.022169458 -0.09395694 0.080444954 0.07511313 0.048170708
0.03760487 0.07868677 0.09555883 0.025222108 0.0055067115 -0.036417663 -0.024861122 0.055724673
0.033709154 0.024731494 0.02339582 0.02700565 -0.019713873 0.020352736 -0.012848722 -0.03425695
0.16282384 0.10411398 -0.020124087 -0.008327669 0.055290714 -0.028630897 0.028604792 -0.0213107
-0.08356523 -0.00921552 -0.1516343 0.12897572 -0.06491272 0.06364863 0.07728339 0.08905921
-0.052033745 0.028963458 0.11130301 -0.06589398 -0.0033706466 0.14332578 0.11647417 -0.019135345
0.12448 -0.022349332 0.12440377 0.057359904 0.016159434 0.011377996 0.039414857 0.003051369
-0.038490992 -0.074410215 -0.026587455 0.013290407 0.09100256 0.11155678 -0.035407424 0.023583442
-0.059564132 0.09459875 0.064002074 0.06154707 -0.045102566 0.04981848 -0.056675646 -0.026807657
0.06985754 -0.013781394 0.02036257 0.050472338 0.012383079 0.009221576 0.09262705 -0.0030482376
0.0744761 0.17848544 -0.08197138 0.13393803 0.16275887 0.12124754 0.14188644 -0.011881765
0.046984673 0.1767383 0.036155116 -0.0046064993 0.03561101 0.07752275 0.08627974 -0.05210512
0.13674073 0.065789685 0.05878471 -0.06734658 0.06916212 -0.048864678 0.13182503 -0.01213029
0.1271437 -0.09597213 -0.038936075 0.103858784 -0.0855031 0.09937692 0.08633824 0.024839748
-0.027847039 -0.04627621 -0.08622705 -0.050114572 0.058139827 0.15883723 0.04029978 -0.072542995
0.16109376 -0.1045067 -0.0018785434 0.118456155 0.05526243 0.012570337 0.020136574 0.04616442
0.05943887 0.027826613 -0.0645202 0.050658133 0.06690293 0.13296056 0.04619511 0.012565506
-0.09236737 -0.091012165 0.10504481 -0.07072532 0.07537481 0.022055438 0.055308014 0.012749717
0.053195897 0.05914704 -0.06434472 0.032300692 0.05302313 0.049371704 -0.13285764 0.011757441
-0.07780066 -0.0117702065 -0.07155994 -0.059454136 0.04913573 0.0021315506 -0.054557327 0.03019909
