process/modelo_lstm.pth (torch, 214896 bytes, 9 tensors)

lstm.weight_ih_l0 f4 [256, 10]
0	0xbe1fbe97	-0.15600048
1	0xbd8abaca	-0.067739084
2	0xbd450458	-0.048099846
3	0x3c46c418	0.012131713
4	0xbdf2a59d	-0.118479945
5	0xbc4b6c60	-0.012415975
6	0x3ce66a23	0.028126782
7	0x3ce90dbe	0.028448936
8	0xbd07dc0d	-0.03316884
9	0xbd869981	-0.06572247
10	0x3d9c3182	0.0762663
11	0xbd59fe7f	-0.053221222
12	0x3c68cb4e	0.014208628
13	0xbd28ff76	-0.04125925
14	0x3da5e4a3	0.081002496
15	0xbcf57c71	-0.029966565
16	0xbd8346a7	-0.0640996
17	0x3d3b11b8	0.045671195
18	0xbc14e23e	-0.0090871435
19	0xbd7ff160	-0.062486053
20	0x3e0e8cdc	0.13920921
21	0xbd1ce350	-0.03830272
22	0x3d28cd03	0.04121114
23	0x3cdc7ed5	0.026915947
24	0xbddbb62d	-0.10728107
25	0xbcc340a4	-0.023834534
26	0x3d3f5d8d	0.046720076
27	0xbcc3a110	-0.023880512
28	0x3d978bd1	0.07399715
29	0xbd0f7219	-0.03502092
30	0xbc40d033	-0.011768389
31	0x3dd1ddbe	0.10247372
32	0x3ca68ee7	0.020331813
33	0x3d5993f2	0.053119607
34	0xbdc2051e	-0.09473632
35	0xbccaff5c	-0.024779968
36	0xbcc35b2a	-0.023847181
37	0x3d999e29	0.0750087
38	0x3d2e5067	0.042557146
39	0xbd8569ad	-0.06514297
40	0xbcb7816a	-0.022400577
41	0xbd7c9902	-0.061669357
42	0xbd427214	-0.047472075
43	0xbc180433	-0.009278345
44	0xbb7a0520	-0.0038150027
45	0x3d81d2e4	0.06339052
46	0xbdc24cfd	-0.094873406
47	0xbc54b744	-0.012983147
48	0x3c8c2e46	0.017111909
49	0xbd029c41	-0.031887297
50	0xbd81e981	-0.063433655
51	0xbd6a2baf	-0.057170566
52	0x3e04c3f5	0.12965377
53	0x3dfec68b	0.12440213
54	0x3c37c8ff	0.011217355
55	0xbd7d82bf	-0.061892267
56	0x3cd93534	0.026514627
57	0x3ddc4270	0.107548594
58	0x3d8923ce	0.06696282
59	0xbd690d11	-0.056897227
60	0x3d58785e	0.052849166
61	0x3d8e49a7	0.06947642
62	0xbddbb503	-0.107278846
63	0xbd9e1d30	-0.07720411
64	0x3c996c63	0.01872844
65	0xbd4cb794	-0.04997976
66	0x3db8ba41	0.090199
67	0x3de3a047	0.11114555
68	0x3df5e504	0.12006572
69	0xbd3e73a1	-0.04649699
70	0xbd93a995	-0.072100796
71	0xbd41440b	-0.04718403
72	0x3d9d6f3c	0.07687232
73	0x3d9279d6	0.071521446
74	0x3d28abff	0.041179653
75	0x3d7d655b	0.06186424
76	0xbdd0cb14	-0.10194984
77	0xbdc278a7	-0.09495669
78	0x3db78fcc	0.08962974
79	0x3dad1907	0.08452039
80	0x3de334bc	0.11094043
81	0xbd76eb17	-0.060282793
82	0x3de466eb	0.111524425
83	0xbd99bb02	-0.07506372
84	0x3dcc8e02	0.09988023
85	0x3c2a6adc	0.010401454
86	0x3d12856d	0.035771776
87	0x3dc8ae2d	0.097988464
88	0x3dd8fe84	0.1059542
89	0x3cd42c9a	0.025900174
90	0xbd8741f0	-0.066043735
91	0xbd69f3da	-0.05711732
92	0x3e0c3398	0.13691556
93	0xbd1cc696	-0.038275324
94	0x3dde2c54	0.10848299
95	0xbd70d445	-0.058796186
96	0x3ca44f8e	0.020057466
97	0xbd26e188	-0.040742427
98	0x3d9c368d	0.07627592
99	0xbb4c4b60	-0.0031172857
100	0x3da759f3	0.08171453
101	0x3ca340e1	0.019928398
102	0x3cab4db3	0.020911073
103	0x3ceac8e8	0.028660253
104	0x3dbd7d5c	0.09252426
105	0xbd051798	-0.032493204
106	0xbd2f737e	-0.04283475
107	0xbd831f67	-0.06402474
108	0x3d8ae7b6	0.067824766
109	0xbc0d0835	-0.008607914
110	0x3e023591	0.12715746
111	0x3d2f4523	0.042790543
112	0xbcb26179	-0.021774994
113	0xbc847309	-0.016168134
114	0x3e080ca5	0.13286074
115	0x3d51b38f	0.05119663
116	0xbdcfeced	-0.10152612
117	0xbd1d7343	-0.03844
118	0xbd3217d2	-0.043479748
119	0x3e077735	0.13229068
120	0x3e0bced6	0.1365312
121	0xbd8539eb	-0.065051876
122	0xbd49deb6	-0.04928466
123	0x3d64970b	0.05580811
124	0x3bf94065	0.0076065534
125	0x3d7efebd	0.062254656
126	0x3d675504	0.05647756
127	0xbd60984b	-0.054832738
128	0x3c89221b	0.016739896
129	0xbc60337f	-0.013684153
130	0x3d5fc3c6	0.054630063
131	0x3d9ae17f	0.07562541
132	0xbcbb3932	-0.022854421
133	0xbd9b194a	-0.07573183
134	0x3ded654c	0.115915865
135	0xbcc811b8	-0.024422511
136	0x3e001cd9	0.12511005
137	0xbd34b39b	-0.044116598
138	0xbdba73fc	-0.091041535
139	0x3da961b3	0.08270588
140	0x3dce23fb	0.100654565
141	0x3dbfe693	0.093701504
142	0x3d37b285	0.044847984
143	0xbcefc60d	-0.029269243
144	0x3da1293e	0.078691944
145	0xbdeb8554	-0.1150004
146	0xbdb6ca9c	-0.089253634
147	0x3dfb4803	0.122695945
148	0x3de1f85a	0.110336974
149	0x3d7acb1a	0.06122885
150	0xbcbb2935	-0.022846797
151	0x3d2ab83d	0.04167961
152	0x3da2b2b2	0.0794424
153	0x3da583cb	0.08081778
154	0x3c9cfe24	0.019164152
155	0xbce7bd5c	-0.028288536
156	0x3d8ba465	0.06818465
157	0xbc15a4b7	-0.009133509
158	0x3e0682f1	0.13135888
159	0x3da9f982	0.08299543
160	0x3cfac007	0.030609144
161	0xbc32b7ab	-0.010908048
162	0x3c3482c8	0.011017509
163	0x3d888b3f	0.06667184
164	0xbd9a70d6	-0.07541053
165	0xbdde513c	-0.10855338
166	0x3d8ae056	0.0678107
167	0x3dd2c9ee	0.10292421
168	0x3dca976e	0.09892164
169	0xbd4869ce	-0.04892903
170	0x3e082751	0.13296248
171	0x3e198526	0.14992198
172	0x3d05f500	0.032704353
173	0x3dd9538c	0.106116384
174	0x3de73470	0.112892985
175	0x3e073be1	0.13206436
176	0x3d42e064	0.047577277
177	0x3dd5e0bf	0.104432575
178	0x3d1908fc	0.037362084
179	0x3d8d4acf	0.06899034
180	0xbd8ee521	-0.069772966
181	0xbd66fdc0	-0.05639434
182	0x3dbb670d	0.09150515
183	0x3dc1496d	0.09437833
184	0x3c1e658f	0.009667768
185	0xbd8952fc	-0.06705281
186	0xbe110367	-0.14161454
187	0xbc91a603	-0.017779356
188	0xbde69fec	-0.112609714
189	0x3ddda366	0.108221814
190	0xbd462b93	-0.0483814
191	0x3ddb2b0b	0.10701569
192	0xbc88ff26	-0.016723227
193	0x3e12310e	0.14276525
194	0x3d57cca7	0.052685406
195	0x3da8526c	0.08218846
196	0x3d5992d8	0.053118557
197	0x3d85aa1c	0.065265864
198	0x3d3752df	0.044756766
199	0x3e0d6e56	0.13811621
200	0xbcf75c6b	-0.030195436
201	0xbd4916d5	-0.04909404
202	0xbdaefd0d	-0.08544359
203	0x3bc11676	0.00589257
204	0x3ce8656d	0.028368676
205	0xbc441055	-0.0119667845
206	0xbd2032da	-0.039110996
207	0xbd834b39	-0.06410832
208	0xbd070171	-0.03296036
209	0x3b00eee5	0.0019673642
210	0x3e0b73b3	0.13618354
211	0x3e5b5215	0.2141803
212	0x3e0d6429	0.1380774
213	0x3d955e52	0.07293381
214	0x3dba3f60	0.09094119
215	0x3d82401a	0.06359883
216	0x3d3803d6	0.044925533
217	0x3d784f7b	0.060622673
218	0x3d6b3e62	0.05743254
219	0x3d12f11b	0.035874467
220	0x3e1b8ff4	0.15191633
221	0x3d66553c	0.05623363
222	0x3d0e8dd9	0.034803245
223	0xbcd449a9	-0.02591403
224	0x3c9137b1	0.017726751
225	0x3dac0378	0.08399099
226	0xbcb9147f	-0.022592781
227	0x3ddedc23	0.108818315
228	0x3d40c86e	0.047066145
229	0xbdac5282	-0.084141746
230	0x3d1bce93	0.0380388
231	0x3dc0fe49	0.09423501
232	0x3e0e579e	0.13900611
233	0x3dceb272	0.100926295
234	0xbd198e10	-0.037488997
235	0xbb0c5192	-0.0021410924
236	0x3dcb382c	0.09922823
237	0xbde0cb25	-0.10976247
238	0xbc080fc6	-0.008304542
239	0x3cf0382f	0.029323665
240	0x3de7cf18	0.11318797
241	0x3992b0b2	0.00027978938
242	0x3c267255	0.010159095
243	0xbd286bd4	-0.041118458
244	0x3d417ae3	0.047236335
245	0x3d0564a9	0.0325667
246	0xbdb25462	-0.08707501
247	0x3e1f8286	0.15577134
248	0xbd848db5	-0.06472341
249	0xbc865998	-0.016400144
250	0x3def2a90	0.1167804
251	0xbd9db8b7	-0.07701247
252	0x3da5ff4a	0.08105333
253	0x3ddde7bf	0.10835218
254	0x3c39b6fd	0.011335132
255	0xbe06e3ac	-0.13172787

lstm.weight_hh_l0 f4 [256, 64]
0	0x3d1bc76e	0.038031988
1	0x3d0039e0	0.031305194
2	0xbd66275c	-0.05618988
3	0xbb4b7f89	-0.0031051359
4	0xbe0ac7d0	-0.13552785
5	0xbc76611b	-0.0150378
6	0xbdad50bc	-0.084626645
7	0x3d9f3d24	0.077753335
8	0x3dad0bea	0.08449538
9	0x3c4ffeec	0.012695055
10	0xbd04c230	-0.032411754
11	0x3d9cec83	0.076622985
12	0x3cf68f89	0.03009774
13	0xbb1774f6	-0.0023110486
14	0xbda4e23d	-0.08050964
15	0xbde04865	-0.10951308
16	0x3d7da400	0.06192398
17	0x3d947a65	0.072499074
18	0x3de7eb6c	0.113242
19	0x3bb00cc2	0.0053726146
20	0x3ceadd81	0.028670074
21	0xbda3adb2	-0.07992114
22	0xbdcfcc32	-0.10146369
23	0x3ddb59eb	0.1071051
24	0x3d14c604	0.036321655
25	0x3d466ffa	0.048446633
26	0xbdaae1fe	-0.08343886
27	0x3caa06a5	0.020755121
28	0x3d9814e5	0.0742586
29	0x3d417d4e	0.04723864
30	0xbdaa03ab	-0.08301481
31	0xbd2cd5d4	-0.04219611
32	0x3cb0faaa	0.021603901
33	0xbc5d7f10	-0.013519064
34	0x3cb1d3ba	0.021707404
35	0x3dac4c59	0.08413
36	0x3df60ee3	0.12014558
37	0xbdb389b4	-0.08766499
38	0xbceffc73	-0.029295182
39	0xbce314ae	-0.027719822
40	0xbd83bfb7	-0.06433051
41	0xbde9aa1f	-0.11409401
42	0x3de6cc16	0.11269395
43	0xbd8b87f5	-0.06813041
44	0xbd4b5a66	-0.049646758
45	0x3dc5eb95	0.09664074
46	0xbd581776	-0.05275675
47	0xbdab8da4	-0.08376625
48	0xbd3ea7eb	-0.046546858
49	0xbde2b810	-0.110702634
50	0xbd449afa	-0.04799936
51	0x3e0a2344	0.13490015
52	0x3deb6b85	0.11495117
53	0x3d5163e6	0.05112066
54	0x3d09d6a7	0.033651974
55	0x3d5bb194	0.05363615
56	0x3cfb3c39	0.030668365
57	0xbd8237b0	-0.06358278
58	0xbd81c07c	-0.063355416
59	0xbddfbc14	-0.10924545
60	0x3d4276e9	0.047476683
61	0xbdaf7d1e	-0.08568786
62	0xbd551f77	-0.05203196
63	0x3dd38b56	0.103293106
64	0x3caf0c90	0.021368295
65	0x3e02367a	0.12716094
66	0xbd5ce24f	-0.053926762
67	0x3dd8c577	0.105845384
68	0xbd6adbd9	-0.05733857
69	0x3df49a99	0.1194355
70	0xbdc07f4b	-0.09399279
71	0xbb3aa28b	-0.002847823
72	0xbc448a41	-0.011995853
73	0x3d81d27b	0.06338974
74	0xbb1a6daa	-0.00235639
75	0xbcb85a5b	-0.022504022
76	0x3d02568b	0.031820815
77	0xbce8e9ac	-0.028431736
78	0x3dcf52f2	0.101232424
79	0x3bd3e006	0.0064659147
80	0x3db8f5ec	0.09031281
81	0xbd7a6092	-0.061127253
82	0xbb2d65e4	-0.0026458437
83	0x3d96fd5d	0.07372544
84	0x3d5a3975	0.05327745
85	0xba936eec	-0.0011248267
86	0x3d8884e3	0.06665971
87	0xbded349f	-0.11582302
88	0xbd947058	-0.0724799
89	0xbdafaaeb	-0.08577522
90	0xbdbead57	-0.09310406
91	0xbdbf458f	-0.09339439
92	0x3d96bcad	0.07360206
93	0x3e010152	0.1259816
94	0xbc33fcef	-0.010985597
95	0xbd3779a5	-0.044793744
96	0x3e067279	0.13129605
97	0x3d8ca7bf	0.068679325
98	0xbdaee726	-0.08540182
99	0xbdd20bd3	-0.102561615
100	0x3d44e733	0.04807205
101	0x3da4ae78	0.0804109
102	0x3decb26b	0.11557468
103	0xbd2d0196	-0.04223784
104	0x3de09090	0.10965073
105	0x3d4b07f6	0.04956814
106	0x3de9369f	0.11387371
107	0x3ca97362	0.020684902
108	0x3d095a23	0.033533227
109	0x3b6ae7e2	0.003584378
110	0xbd8b1e9a	-0.06792946
111	0x3d550f70	0.052016675
112	0x3d2e94e0	0.042622447
113	0xbdcccd1f	-0.10000061
114	0xbda5bfdc	-0.08093235
115	0x3df89f89	0.12139804
116	0xbdf2f375	-0.11862842
117	0x3caa1252	0.020760689
118	0x3d7b83c2	0.06140495
119	0xbd885a15	-0.06657807
120	0x3dac78cf	0.0842148
121	0xbdda2269	-0.106510945
122	0x3d6d8a75	0.05799337
123	0x3da2c19d	0.07947085
124	0x3c90474b	0.01761212
125	0x3d4b4000	0.049621582
126	0x3d9748c0	0.07386923
127	0xbd48ae66	-0.048994444
128	0x3dd5a293	0.10431399
129	0xbb47e769	-0.0030502921
130	0x3da7377e	0.08164881
131	0xbd1b22e4	-0.03787507
132	0xbd494647	-0.049139287
133	0x3dff35e6	0.12461452
134	0x3de636b5	0.11240903
135	0xbd1af0d3	-0.037827324
136	0xbb0eb069	-0.002177263
137	0x3da71973	0.08159151
138	0xbd62dea3	-0.055388104
139	0xbd9ad52c	-0.075601906
140	0x3ced2d3d	0.028952235
141	0xbdd905dd	-0.105968215
142	0xbcf1e7ba	-0.029529441
143	0xbd8f3a70	-0.06993568
144	0x3d112695	0.035437185
145	0x3c8f28f2	0.017475579
146	0x3d7a307c	0.061081395
147	0xbdadc5c1	-0.08484984
148	0xbd4a97bc	-0.04946111
149	0xbd77a695	-0.0604616
150	0xbdd09d74	-0.10186282
151	0x3dc064a3	0.09394195
152	0x3d7533bf	0.059863802
153	0xbcb24c08	-0.02176477
154	0xbd6f8036	-0.05847188
155	0xbd78efbd	-0.060775507
156	0x3d052dc8	0.032514364
157	0xbd5f053b	-0.054448348
158	0xbdcf191c	-0.10112211
159	0xbcc9e0d6	-0.024643343
160	0xbbe01c0b	-0.0068392805
161	0xbd37ac3c	-0.04484199
162	0xbc934a85	-0.01797987
163	0x3dec5692	0.115399495
164	0xbdfa8094	-0.122315556
165	0xbdc6fc72	-0.09716119
166	0xbd8ba06c	-0.068177074
167	0xbd05c68b	-0.03266005
168	0xbb5de853	-0.00338604
169	0x3c194ba2	0.009356411
170	0x3dc71464	0.09720686
171	0x3d962806	0.073318526
172	0x3c2ac852	0.010423737
173	0x3d77294b	0.060342114
174	0xbdbcacc6	-0.092126414
175	0xbd0258e6	-0.03182306
176	0x3df05ebd	0.1173682
177	0x3ddfb274	0.10922709
178	0x3df26f87	0.118376784
179	0x3d9c4780	0.07630825
180	0xbd7842ee	-0.060610704
181	0x3c2286ed	0.009919864
182	0x3ba3f531	0.0050035943
183	0x3d3ca0c2	0.046051748
184	0xbdc8b4a8	-0.098000824
185	0xbd64cd2e	-0.055859737
186	0x3d181b6d	0.03713553
187	0x3c95e5fb	0.01829814
188	0xbd89373e	-0.0669999
189	0x3dd9fb92	0.10643686
190	0x3da611e6	0.081088826
191	0x3cf66b53	0.030080473
192	0xbe817ffa	-0.2529295
193	0x3e5ae76a	0.2137734
194	0xbe2dbb13	-0.16965894
195	0x3cb25b61	0.021772088
196	0xbce7a75d	-0.028278047
197	0xbd01adbf	-0.031659838
198	0x3da6173d	0.08109901
199	0xbdd9f90d	-0.10643206
200	0xbc4d1d1a	-0.012519145
201	0x3d9ffcd0	0.07811892
202	0x3debc219	0.115116306
203	0x3ca768c2	0.020435695
204	0xbe286be7	-0.16447411
205	0xbe127a21	-0.14304401
206	0x3df07f49	0.11743028
207	0xbe0ba586	-0.13637361
208	0xbd49695b	-0.04917274
209	0xbe5dd4f2	-0.21663263
210	0xbe965fca	-0.29369956
211	0xbe568d2e	-0.20952293
212	0xbda036dd	-0.07822964
213	0x3ee97b62	0.45601946
214	0x3a8037ef	0.0009782295
215	0x3d49f8dd	0.0493096
216	0x3b095f06	0.002096118
217	0x3e92ba06	0.2865755
218	0x3acc4110	0.0015583355
219	0xbd3ba42d	-0.045810867
220	0xbe187808	-0.14889538
221	0xbd93ad0b	-0.0721074
222	0x3e3c30c8	0.18377984
223	0x3cd03199	0.025414275
224	0xbe0e1ecf	-0.1387894
225	0xbe855dda	-0.26048166
226	0x3df6893b	0.120378934
227	0x3da8b5ee	0.08237825
228	0xbe022447	-0.12709151
229	0x3e0f1b66	0.13975295
230	0xbdf00e5f	-0.11721491
231	0xbe32997d	-0.17441364
232	0xbd03aa86	-0.032145046
233	0x3ba8d669	0.005152513
234	0xbd63e6db	-0.055640083
235	0xbdbe48dc	-0.092912406
236	0x3d3d00ff	0.046143528
237	0x3cb6eff3	0.022331214
238	0xba84af50	-0.0010123048
239	0x3e4b5fd4	0.19860774
240	0x3e513276	0.20429406
241	0x3dce3734	0.10069123
242	0x3d92162d	0.07133136
243	0xbd85e8fc	-0.06538579
244	0x3e413c00	0.18870544
245	0x3e5b8da5	0.21440752
246	0x3dcf1e86	0.10113244
247	0x3dd183b4	0.102301985
248	0x3c536b93	0.012904066
249	0x3e2c3230	0.1681602
250	0xbdfd6bc6	-0.12374072
251	0x3dae07a7	0.08497553
252	0x3d798ced	0.060925413
253	0x3e203e75	0.15648825
254	0x3ccf1715	0.025279561
255	0xbdeaacfd	-0.11458776

lstm.bias_ih_l0 f4 [256]
0	0x3d254a25	0.040353913
1	0xbe0c673d	-0.13711257
2	0x3c9a7e76	0.01885913
3	0x3daba245	0.0838056
4	0xbb1a54f6	-0.0023549176
5	0x3d585f84	0.052825466
6	0xbba51cfc	-0.0050388556
7	0x3c7d7d6f	0.0154718
8	0x3db5a83a	0.08869977
9	0x3d40b8d1	0.047051255
10	0x3e0ad852	0.13559082
11	0x3e0b2a49	0.1359035
12	0x3db4162e	0.08793293
13	0xbdcf66d5	-0.101270355
14	0x3dd3e9ab	0.10347303
15	0x3e050ff0	0.12994361
16	0x3df140e8	0.11779958
17	0x3e2cc927	0.16873609
18	0x3d5a6796	0.053321443
19	0xbc918792	-0.01776484
20	0xbd7246f1	-0.059149686
21	0x3e44f7c8	0.19235146
22	0xbd1514a8	-0.036396652
23	0x3df3ecc5	0.119103946
24	0x3df75e92	0.12078585
25	0x3d7a86d2	0.06116373
26	0xbd081d9e	-0.03323137
27	0x3da79773	0.081831835
28	0x3de8e64e	0.11372052
29	0xbd18db06	-0.037318252
30	0x3d6cb2a8	0.057787567
31	0xbd8d6233	-0.06903496
32	0x3d534d82	0.05158759
33	0x3c72bd9d	0.014815715
34	0xbd283900	-0.041069984
35	0x3cfbfb39	0.03075944
36	0x3de30ba8	0.11086208
37	0x3d9bc5ee	0.076061115
38	0x3d10f953	0.035394024
39	0xbd872426	-0.06598692
40	0x3b825492	0.0039773667
41	0xba4a33d6	-0.00077134126
42	0x3de86a34	0.11348382
43	0x3d37dbc2	0.04488731
44	0x3d41e714	0.047339514
45	0x3c0c4062	0.008560272
46	0x3d97a130	0.07403791
47	0x3d84888f	0.06471359
48	0xbdd76f18	-0.10519236
49	0xbbe16eea	-0.006879677
50	0x3c081b9f	0.008307367
51	0xbd882de1	-0.06649376
52	0xbda82678	-0.08210462
53	0x3db20747	0.08692794
54	0xbd729e1e	-0.059232824
55	0xbd640bf0	-0.055675447
56	0x3de068ae	0.10957466
57	0x3d18ef2c	0.037337467
58	0xbc99eab3	-0.018788671
59	0xbdf00049	-0.117188044
60	0xbd949199	-0.07254333
61	0xbd9b9047	-0.07595878
62	0xbd4b5757	-0.04964384
63	0x3d51f298	0.051256746
64	0x3db1eaa4	0.08687332
65	0xbd7390be	-0.05946421
66	0xbcd76d12	-0.026297126
67	0x3c096c57	0.008387647
68	0xbd5e1814	-0.05422218
69	0xbc8c552a	-0.017130453
70	0x3ddb6092	0.10711779
71	0xbc8d8217	-0.017273946
72	0xbd0adc96	-0.033901773
73	0x3daac816	0.083389446
74	0x3d372a0a	0.044717826
75	0x3cdef190	0.027214795
76	0x3d8d8f13	0.06912055
77	0x3df54960	0.11976886
78	0xbdd06701	-0.101758964
79	0xbdd9f165	-0.106417455
80	0x3df5decf	0.12005388
81	0xbd72f15a	-0.059312202
82	0xbdb977d6	-0.0905606
83	0x3cf11ec8	0.029433623
84	0xbd54f81e	-0.051994435
85	0x3c381269	0.011234858
86	0x3df30b05	0.11867336
87	0xbdba4724	-0.090956
88	0xbdfae786	-0.12251191
89	0xbda28bfd	-0.07936857
90	0xbd4144f2	-0.047184892
91	0x3dddc159	0.10827894
92	0x3d58efcd	0.052963067
93	0xbd38b24d	-0.045091916
94	0x3d723f9a	0.059142686
95	0xbde993e7	-0.11405163
96	0x3d675455	0.05647691
97	0x3d9f36b7	0.07774108
98	0x3db296b3	0.0872015
99	0x3b30ee6d	0.0026997582
100	0x3d5d3156	0.05400213
101	0x3dcf746e	0.10129629
102	0x3e046b06	0.12931451
103	0x3dce3ef6	0.100706026
104	0x3dd5100c	0.10403451
105	0x3cb2db93	0.021833217
106	0xbd8d2f89	-0.06893832
107	0x3d1bd251	0.03804237
108	0xbd709abf	-0.058741327
109	0x3ccd2538	0.025042161
110	0xbc76a843	-0.015054765
111	0x3d741686	0.059591793
112	0xbd17e686	-0.03708508
113	0x3da5724d	0.08078442
114	0x3dc154b3	0.09439983
115	0x3d67f9c1	0.05663467
116	0x3d759109	0.05995277
117	0xbd989953	-0.07451119
118	0x3da82fa3	0.08212211
119	0xbd787add	-0.060664047
120	0xbd308ca6	-0.043102883
121	0xbcb4822c	-0.022034727
122	0x3cbe15a5	0.02320368
123	0xbd2dce40	-0.042433023
124	0x3ddae48f	0.10688125
125	0x3dcdc971	0.100481875
126	0x3dff5952	0.124682084
127	0xbdd1628f	-0.10223877
128	0xbda65ef3	-0.08123579
129	0x3d1c903f	0.0382235
130	0xbaf09c07	-0.0018357047
131	0x3da40549	0.080088206
132	0xbc15ef1b	-0.0091512455
133	0xbc673f24	-0.014114175
134	0xbdb7643c	-0.08954665
135	0xbb915fd6	-0.0044364734
136	0x3c885853	0.016643679
137	0xbd457b38	-0.048213214
138	0xbe0cf648	-0.13765824
139	0xbd73ddd0	-0.05953771
140	0xbdb706ed	-0.08936868
141	0x3cedd22d	0.029030884
142	0xbd887f28	-0.06664878
143	0xbdcdcc98	-0.10048789
144	0x3ceedde2	0.029158536
145	0xbd399ab3	-0.04531355
146	0xbc9d5752	-0.019206677
147	0x3c5e13fd	0.01355457
148	0x3ddcbd4f	0.10778295
149	0xbe0a2845	-0.13491924
150	0x3d9675e3	0.07346704
151	0x3dbe8621	0.09302927
152	0x3d6ff51a	0.058583356
153	0xbb3c9c72	-0.0028779772
154	0xbc91ba56	-0.017789047
155	0xbdb4a4fc	-0.08820531
156	0xbcff39bd	-0.031155461
157	0xbdfdba97	-0.12389105
158	0xbc0869cf	-0.008326008
159	0xbd595015	-0.053054888
160	0x3d5856a6	0.05281701
161	0xbddb72a2	-0.10715224
162	0x3d15a52b	0.03653447
163	0x3d906a0b	0.07051476
164	0xbda23684	-0.07920554
165	0x3cd5845e	0.026064094
166	0xbd5ebbd8	-0.05437836
167	0xbd33573b	-0.04378436
168	0xbcd25533	-0.025675392
169	0x3e0d024a	0.13770404
170	0xbd9be5d0	-0.07612193
171	0xbd1306d1	-0.035895173
172	0x3d1e82c5	0.03869893
173	0xbc5c2275	-0.01343595
174	0x3bcfb556	0.0063387556
175	0xbcae008e	-0.021240499
176	0x3cd42429	0.025896149
177	0xba9d11f3	-0.0011983499
178	0xbdafd4ec	-0.085855335
179	0xbd82fe58	-0.063961685
180	0x3dfa51b1	0.12222613
181	0x3de28a3b	0.110615216
182	0xbd698972	-0.057015844
183	0xbde1db04	-0.11028102
184	0xbddc222f	-0.107487075
185	0x3ded7b74	0.115958124
186	0xbd15e468	-0.03659478
187	0x3dadd338	0.084875524
188	0xbdb8fb42	-0.090322986
189	0x3cfcb579	0.030848252
190	0xbd3b28c5	-0.045693178
191	0x3d86cae6	0.065816686
192	0x3de93fcb	0.11389121
193	0xbd82abae	-0.063804016
194	0x3d6ac239	0.05731413
195	0xbca6295a	-0.02028339
196	0x3d875039	0.06607098
197	0xbccfc540	-0.02536261
198	0x3e36c6f9	0.1784934
199	0x3d75a57c	0.05997227
200	0xbd5e0fd0	-0.0542143
201	0xbdc4cd17	-0.0960943
202	0x3d16f858	0.036857933
203	0x3d6f2d80	0.058393
204	0xbcc4a0b9	-0.02400242
205	0x3de3c799	0.111220546
206	0xbdc234ad	-0.09482703
207	0xbda7eb25	-0.08199147
208	0x3d99ef98	0.07516402
209	0xba80e57c	-0.0009834017
210	0xbd84e8d1	-0.06489719
211	0x3da8460c	0.082164854
212	0x3c7d19d2	0.015448051
213	0x3cb85d4d	0.022505427
214	0x3e0a7975	0.13522895
215	0xbd762506	-0.060093902
216	0x3df653cb	0.12027701
217	0x3d887f5c	0.06664917
218	0xbd830332	-0.06397094
219	0xbd91d9ed	-0.07121644
220	0xbaaf6f67	-0.0013384641
221	0x3cc9152f	0.024546234
222	0x3bd0d427	0.006372947
223	0xbe020917	-0.1269878
224	0xbc39aaf0	-0.011332259
225	0x3d2da552	0.04239399
226	0x3ddbaecf	0.107267015
227	0xbdb491e2	-0.088168874
228	0xbd8a9911	-0.06767476
229	0x3da87ce0	0.08226943
230	0xbc9f88ec	-0.01947447
231	0xbc122700	-0.008920431
232	0x3d1b78fe	0.037957184
233	0x3e0969dd	0.1341929
234	0x3dfb89a4	0.12282112
235	0x3d540583	0.05176307
236	0xbbee658c	-0.007275289
237	0x3d825e2c	0.06365618
238	0x3bee0785	0.00726408
239	0x3dd70c77	0.10500424
240	0xbdc10af4	-0.09425917
241	0x3d7d7bc7	0.06188562
242	0x3df3337a	0.11875053
243	0xbd35b894	-0.04436548
244	0x3dec030e	0.1152402
245	0xbddb1a8c	-0.10698423
246	0x3d613acf	0.054987725
247	0xbc3d1a30	-0.011541888
248	0x3d8ae986	0.06782822
249	0xbc7d67cb	-0.015466641
250	0x3d68b796	0.056815706
251	0x3ddc2440	0.10749102
252	0x3bc0c49a	0.0058828117
253	0x3d00a329	0.0314056
254	0x3dd88d83	0.10573866
255	0xbc8ffc75	-0.017576436

lstm.bias_hh_l0 f4 [256]
0	0x3da4d5bc	0.08048579
1	0xbe108e06	-0.14116678
2	0xbda896bb	-0.082318746
3	0x3e12d4f6	0.1433905
4	0x3d6362dc	0.0555142
5	0xbcad009f	-0.02111846
6	0xbcaa1f29	-0.020766811
7	0xbd796fba	-0.060897566
8	0x3e04a2f4	0.12952787
9	0xbc352da7	-0.011058248
10	0xbdc57d39	-0.09643025
11	0xbd20bc37	-0.039241996
12	0xbda9d004	-0.08291629
13	0x3d8db907	0.06920057
14	0xbd54357a	-0.05180881
15	0x3cbcde32	0.02305517
16	0xbc8e4907	-0.017368807
17	0x3dd9931d	0.10623763
18	0xbc05b256	-0.008160194
19	0x3d8651a5	0.06558541
20	0x3deed595	0.11661831
21	0x3e3023aa	0.17201105
22	0x3d540e1c	0.05177127
23	0xbdf2729d	-0.11838267
24	0xbd937996	-0.07200925
25	0xbb67f8cf	-0.0035396104
26	0xbda5b166	-0.08090477
27	0x3d497a78	0.04918906
28	0x3dd542ae	0.10413109
29	0xbde8484a	-0.11341913
30	0xbd07f05b	-0.033188205
31	0x3db266fe	0.087110505
32	0xbd18be22	-0.0372907
33	0x3d840a4a	0.06447275
34	0x3c5dd24f	0.013538911
35	0xbddac148	-0.10681397
36	0x3dcc5a8a	0.099782065
37	0x3d594027	0.053039696
38	0x37fef504	3.0393254e-05
39	0xbdd7809c	-0.10522577
40	0x3c22b141	0.009929956
41	0x3daa03c5	0.083015
42	0x3c7344fc	0.01484799
43	0xbd969e66	-0.07354431
44	0x3d107a54	0.03527291
45	0xbc005a37	-0.007834009
46	0x3ddab450	0.10678923
47	0x3de3681f	0.11103844
48	0x3d14cbec	0.036327288
49	0xbdc596e1	-0.096479185
50	0x3ce38c8f	0.027776984
51	0xbd74eec7	-0.05979803
52	0xbd6a08eb	-0.05713741
53	0xbd95dfa4	-0.07318047
54	0xbd6b37f6	-0.057426415
55	0xbd2e543a	-0.042560793
56	0xbd9d77ce	-0.076888666
57	0xbc8ff2ee	-0.017571893
58	0x3d9a09ab	0.07521375
59	0xbdba4f5b	-0.09097167
60	0x3d5916b0	0.053000152
61	0x3c182404	0.009285931
62	0x3df0c824	0.11756924
63	0xbdaddc31	-0.08489264
64	0xbdc8e2a6	-0.09808855
65	0x3dc00a09	0.09376914
66	0x3d85651a	0.06513424
67	0xbd8dfbb8	-0.06932777
68	0xbdf07460	-0.11740947
69	0xbc0f8114	-0.008758802
70	0x3dc09ffe	0.09405516
71	0x3d9e99be	0.07744168
72	0xbde3c50b	-0.11121567
73	0x3dd0a5b4	0.10187855
74	0x3d4afe62	0.049559005
75	0xbdad9341	-0.08475352
76	0xbc87c2f7	-0.016572459
77	0x3cff7a3f	0.031186221
78	0x3db5f92f	0.088854186
79	0x3dbdedcf	0.09273874
80	0xbd50393e	-0.05083584
81	0x3bf745b2	0.00754615
82	0xbd81232d	-0.063055374
83	0x3c0c453f	0.008561431
84	0xbd869b3d	-0.06572578
85	0x3d96a2ea	0.07355292
86	0x3df35811	0.11882032
87	0x3df22f2e	0.11825405
88	0xbdada7fa	-0.084793046
89	0x3d8b824d	0.06811962
90	0xbdf4eb0a	-0.11958893
91	0x3d866041	0.06561328
92	0x3d0d9dfe	0.0345745
93	0x3de90c21	0.113792665
94	0x3dbc23f7	0.09186547
95	0x3db0edf5	0.08639137
96	0xbdb6d6cd	-0.08927689
97	0xbcad320d	-0.02114203
98	0x3e01dd7c	0.12682146
99	0xbcfe104d	-0.031013632
100	0xbc8805ff	-0.016604422
101	0x3b3e3115	0.0029020954
102	0x3dfaf945	0.12254576
103	0xbdc85314	-0.09781471
104	0x3da35548	0.079752505
105	0x3dc1574e	0.0944048
106	0x3da5a077	0.08087247
107	0x3c0eb84d	0.008710933
108	0x3de97f53	0.11401238
109	0xbd9cb235	-0.07651178
110	0x3d56936d	0.05238669
111	0x3d69cf04	0.05708219
112	0xbcb63f5d	-0.02224701
113	0x3d99b717	0.07505625
114	0x3db56fc7	0.088592105
115	0x3de0dcd6	0.10979621
116	0xbc8ee50d	-0.017443204
117	0x3dfe5c5d	0.12419961
118	0xbcb69ce4	-0.022291608
119	0xbdc4cf9e	-0.09609912
120	0xbe026cf3	-0.12736873
121	0xbd2c7afb	-0.04210947
122	0xbc94cd83	-0.018164402
123	0x3dc37f4e	0.09545766
124	0x3d384135	0.04498406
125	0x3ca58c07	0.020208372
126	0x3d141ccb	0.03616027
127	0xbdf10611	-0.11768735
128	0xbe0b65a6	-0.13612995
129	0xbd8b33df	-0.06797003
130	0xbd9ae868	-0.07563859
131	0x3cfa9079	0.030586468
132	0x3c81d384	0.015847929
133	0xbdd575a4	-0.10422829
134	0x3d12e76f	0.035865244
135	0x3d277a77	0.040888276
136	0xbda22b4d	-0.07918415
137	0x3b150b1e	0.0022742222
138	0x3dc08b91	0.0940162
139	0x3d8af203	0.06784441
140	0xbdba37c7	-0.0909267
141	0xbd697a2d	-0.05700128
142	0x3d7c64d9	0.061619613
143	0x3d7dd18b	0.061967414
144	0x3d14106f	0.036148485
145	0xbd6b35df	-0.057424422
146	0x3d08dc3f	0.033413168
147	0x3de26d68	0.11056024
148	0x3e005c4f	0.12535213
149	0x3befcc76	0.007318075
150	0xbd46bc3b	-0.048519354
151	0x3defa477	0.11701291
152	0xbde6a911	-0.112627156
153	0xbda1ae91	-0.07894624
154	0x3d534f6c	0.051589414
155	0x3dfc9cfb	0.12334629
156	0xbd1fc2a8	-0.039003998
157	0xbdce56e0	-0.10075164
158	0xbbd0b192	-0.0063688243
159	0xbdf4d6e6	-0.11955051
160	0x3d077f72	0.033080526
161	0x3dba46cc	0.09095535
162	0xbdae570c	-0.085126966
163	0x3da84509	0.082162924
164	0x3de78c82	0.113060966
165	0xbd0f9918	-0.03505811
166	0x3d441218	0.047868818
167	0x3c38dd5d	0.011283246
168	0x3a0c8918	0.0005361005
169	0xbbe129be	-0.006871431
170	0x3e010055	0.12597783
171	0x3c8a2c1e	0.01686674
172	0xbd6ac957	-0.05732092
173	0xbd95568d	-0.07291899
174	0x3c700426	0.014649427
175	0x3d93e67d	0.072216965
176	0x3cdd8d37	0.027044876
177	0xbcf2f25b	-0.02965658
178	0x3db24a44	0.08705571
179	0x3dda8be8	0.10671216
180	0x3de0e6eb	0.10981544
181	0xbcb03d63	-0.021513646
182	0xbda1c3ac	-0.078986496
183	0xbdd858b2	-0.10563792
184	0x3ccfdd27	0.025374008
185	0x3cb258e0	0.021770895
186	0x3d8684dd	0.065683104
187	0x3d62930f	0.055316027
188	0xbdbcb17c	-0.0921354
189	0x3cd469e6	0.025929403
190	0x3ded71d4	0.115939766
191	0x3da3d848	0.08000237
192	0xbde64c2e	-0.11244999
193	0xbdfae276	-0.12250225
194	0x3d968f56	0.07351558
195	0x3d5345b6	0.051580153
196	0x3d474703	0.048651706
197	0x3ccfcdd8	0.025366709
198	0x3e01a866	0.12661895
199	0xbb164fb5	-0.0022935693
200	0xbd9c3165	-0.07626609
201	0xbc1c4e91	-0.009540216
202	0xbb80992f	-0.003924511
203	0x3d85c012	0.06530775
204	0xbddf7aa4	-0.10912064
205	0x3d464125	0.04840197
206	0xbdddc8eb	-0.10829338
207	0xbb7cfaaf	-0.0038601568
208	0x3e03c452	0.12867859
209	0x3e255918	0.16147268
210	0x3d10df75	0.035369355
211	0x3d5ed418	0.054401487
212	0xbd0920c9	-0.033478532
213	0x3d78768d	0.060659934
214	0xbd5b9fa6	-0.05361905
215	0x3d9e9868	0.07743913
216	0xbdbc784f	-0.092026345
217	0x3cfe6b89	0.031057136
218	0x3d6f5a62	0.058435805
219	0xbdf7669d	-0.12080119
220	0xbd5ca6af	-0.0538699
221	0xbd7292f0	-0.05922216
222	0x3deb26d6	0.11482017
223	0xbdcbe8b5	-0.09956495
224	0x3d598d87	0.053113487
225	0x3dfa3804	0.122177154
226	0x3d7fc49a	0.062443353
227	0xbdf934b2	-0.12168254
228	0x3da6496f	0.08119475
229	0xbdb4a24a	-0.08820017
230	0xbdbfa6df	-0.09358
231	0x3d02862f	0.03186625
232	0x3dbfd3a1	0.09366537
233	0x3e33985e	0.17538592
234	0x3d79ef54	0.061019257
235	0x3d5d480b	0.054023784
236	0x3e055117	0.13019215
237	0xbc821564	-0.01587934
238	0xbddb0eee	-0.10696207
239	0x3d85f9db	0.06541797
240	0xbd6b2571	-0.057408754
241	0xbd4efec6	-0.05053594
242	0xbdcf2870	-0.10115135
243	0xbdb4116e	-0.08792387
244	0x3d530cf1	0.051526014
245	0x3df5e98f	0.120074384
246	0xbde48d69	-0.11159784
247	0xbdb9cb84	-0.09072021
248	0x3d150402	0.036380775
249	0xbd3f3ba7	-0.04668775
250	0xbba0e0e5	-0.004909622
251	0x3dd6ded0	0.10491717
252	0x3d7da626	0.06192603
253	0x3de63d98	0.11242217
254	0xbdbe60b3	-0.09295788
255	0xbe02f8ae	-0.12790176

lstm.weight_ih_l1 f4 [256, 64]
0	0xbe1f7ee7	-0.15575753
1	0x3d8c6172	0.06854524
2	0x3d94110b	0.07229813
3	0xbddf7afd	-0.1091213
4	0x371acfd8	9.227508e-06
5	0x3e0dfb93	0.13865499
6	0x3ce62b51	0.028096827
7	0xbd9df30c	-0.07712373
8	0xbc085ca6	-0.00832287
9	0xbcbc2dcd	-0.022971058
10	0x3d327e0e	0.043577246
11	0xbbbc697c	-0.0057498794
12	0x3df1fcba	0.11815782
13	0x3dfd56ac	0.12370047
14	0xbd8f06fc	-0.06983754
15	0x3d4bc451	0.04974777
16	0xbd9762bf	-0.07391881
17	0x3e413b04	0.18870169
18	0xbda51a19	-0.08061618
19	0x3d90a1e3	0.070621274
20	0x3e040fb2	0.12896612
21	0xbdce8066	-0.10083084
22	0x3d8a9c9e	0.067681536
23	0x3d3baec1	0.045820955
24	0xbcb23e57	-0.021758242
25	0xbe2a0f2b	-0.16607349
26	0x3b25aebe	0.0025281156
27	0x3d894deb	0.06704315
28	0xbd803103	-0.06259348
29	0x3c9e8cf4	0.019354321
30	0xbcb0ad80	-0.021567106
31	0xbdfcd174	-0.123446375
32	0xbc7887b7	-0.015169076
33	0xbd76821c	-0.060182676
34	0xbcc2259d	-0.023699576
35	0x3db361c4	0.08758882
36	0x3dd7c0d4	0.10534826
37	0xbe0c6b1a	-0.13712731
38	0xbd603eb0	-0.054747283
39	0xbc55f1dd	-0.013058153
40	0x3d93fad6	0.072255775
41	0x3e4ee8ba	0.20205966
42	0x3e127388	0.14301884
43	0x3da8a2a9	0.0823415
44	0xbd71f6d5	-0.059073288
45	0xbb3a6e24	-0.0028446997
46	0xbd8c062a	-0.06837113
47	0xbd7e541b	-0.062091928
48	0x3c967567	0.018366529
49	0x3db14d8f	0.08657371
50	0x3d880bca	0.066428736
51	0x3cf7c1fc	0.030243866
52	0xbdc0b106	-0.094087645
53	0xbdef9cb0	-0.11699808
54	0x3c4d5782	0.0125330705
55	0x3d14334d	0.036181737
56	0x3d0d341a	0.034473516
57	0x3d7f8290	0.062380373
58	0xbd733ba3	-0.059383046
59	0xbc430643	-0.011903348
60	0x3dbdd6d0	0.09269488
61	0x3dc6d435	0.09708444
62	0x3dc74ff5	0.097320475
63	0xbd5a10a7	-0.053238537
64	0xbd569091	-0.052383963
65	0xbd3ea5ba	-0.046544768
66	0xbde009a0	-0.10939336
67	0x3dd936b4	0.10606137
68	0xbcc7ee37	-0.024405582
69	0xbcd5df2a	-0.02610739
70	0x3e18b2d0	0.14911962
71	0x3d87137e	0.06595515
72	0xbe084213	-0.13306455
73	0x3bf5497e	0.0074855676
74	0x3d6a6887	0.05722859
75	0x3de8ef9e	0.11373828
76	0x3c4ec0d6	0.012619218
77	0x3d3cbb34	0.04607697
78	0xbda074b9	-0.07834763
79	0x3d20a6d3	0.039221596
80	0xbdb10485	-0.0864344
81	0xbdad8e1e	-0.08474372
82	0x3c00ee09	0.007869252
83	0xbd979729	-0.074018784
84	0x3cfa4c01	0.03055382
85	0xb985fdda	-0.0002555687
86	0xbcd0fc00	-0.025510788
87	0x3ca3b1b2	0.019982193
88	0x3dabcc44	0.0838857
89	0xbdae0cc6	-0.0849853
90	0x3e067f5f	0.13134526
91	0x3da4cf2d	0.08047328
92	0x3cddac10	0.027059585
93	0xbde38cf2	-0.111108676
94	0x3e0d88c0	0.13821697
95	0x3d6e64e8	0.0582017
96	0xbe014715	-0.12624772
97	0xbdac0baf	-0.08400666
98	0xbcb4627b	-0.022019615
99	0xbda948c2	-0.082658306
100	0xbda24825	-0.07923917
101	0x3d59e38c	0.05319552
102	0xbd8ebe3a	-0.069698766
103	0xbdb897e7	-0.09013348
104	0xbd3fbf27	-0.046813156
105	0xbc3511a3	-0.011051568
106	0xbdc214e2	-0.09476639
107	0x3db99867	0.090622716
108	0x3db80aee	0.0898646
109	0xbd1170d6	-0.035508
110	0xbd024455	-0.031803448
111	0x3cf2f8ae	0.029659595
112	0xbd037a20	-0.03209889
113	0xbd973bb4	-0.07384434
114	0xbd617afb	-0.055048924
115	0xbd61e81f	-0.05515301
116	0xbd85189a	-0.06498833
117	0x3c97e221	0.018540444
118	0x3a1aecf0	0.000590994
119	0x3d791dc5	0.060819406
120	0xbdc4f751	-0.09617484
121	0x3deb14d3	0.11478581
122	0x3dd03ecf	0.1016823
123	0xbdb00e4c	-0.08596477
124	0xbdbbc2cd	-0.09168015
125	0x3df69939	0.12040944
126	0x3cc75015	0.024330178
127	0xbd25d206	-0.040483497
128	0xbc0a8e3a	-0.008456761
129	0xbe057c74	-0.13035756
130	0x3cce296b	0.025166234
131	0x3db07c4d	0.086174585
132	0xbd9e717c	-0.07736489
133	0x3dc2bd47	0.09508758
134	0x3ba5db31	0.00506153
135	0xbe160c6b	-0.14653175
136	0xbd82faec	-0.06395516
137	0x3e0fd9e4	0.14047962
138	0x3d41e4f5	0.04733749
139	0x3e0e10e4	0.13873631
140	0xbe157768	-0.14596331
141	0x3d9e5c01	0.07732392
142	0x3d2be0d5	0.041962463
143	0x3d60263f	0.054723974
144	0x3d8f64ca	0.07001646
145	0xbd6ed70f	-0.058310565
146	0x3de0c904	0.10975841
147	0xbde95aff	-0.11394309
148	0xbd2e862a	-0.042608418
149	0x3e20af83	0.15691952
150	0x3cf51df2	0.029921506
151	0x3df346be	0.118787274
152	0xbd94dc65	-0.072685994
153	0x3c25212e	0.010078711
154	0xbd6d7ea5	-0.057982106
155	0x3df1d00f	0.11807262
156	0x3d8c6784	0.068556815
157	0xbd772f14	-0.06034763
158	0xbd8f62c2	-0.070012584
159	0x3d062cfd	0.032757748
160	0xbe0b199e	-0.13583991
161	0x3d225e99	0.039640997
162	0x3e02bf29	0.12768234
163	0xbcd18fb5	-0.02558122
164	0xbde0f33a	-0.10983892
165	0xbd9d77ed	-0.0768889
166	0xbd78030c	-0.06054978
167	0x3d8ff935	0.07029954
168	0xbbd67d10	-0.0065456703
169	0xbcaef1a4	-0.021355458
170	0x3d49e313	0.04928882
171	0xbd84d288	-0.06485468
172	0x3d9eeeca	0.07760389
173	0xbd99ea92	-0.07515444
174	0x3df89fea	0.12139876
175	0xbd2eeed1	-0.04270822
176	0x3d9c9bf3	0.076469325
177	0x3db58086	0.088624045
178	0xbd44ee57	-0.04807886
179	0x3d4d3087	0.050095107
180	0x3dc40fd5	0.09573332
181	0x3d2c9483	0.04213382
182	0x3e06ee7b	0.1317691
183	0xbd3acb3e	-0.045603983
184	0x3deac5e7	0.11463528
185	0x3e1a4e98	0.15069044
186	0x3d7be267	0.06149521
187	0x3e162ee3	0.14666323
188	0x3dc57eeb	0.09643348
189	0x3dbd09e7	0.09230404
190	0x3d311855	0.043236095
191	0xbcb82871	-0.022480221
192	0xbd906625	-0.070507325
193	0xbd50a7fe	-0.05094146
194	0xbd58211d	-0.052765954
195	0x3e0e0212	0.13867977
196	0xbde9f566	-0.11423759
197	0x3dbd9b26	0.09258108
198	0xbe0459fb	-0.1292495
199	0xbd768909	-0.06018928
200	0x3e9eed26	0.31040305
201	0xbe08c7a0	-0.13357401
202	0xbe6e935e	-0.23298404
203	0x3c92cba4	0.017919369
204	0xbe0b0117	-0.13574634
205	0x3e1932d3	0.14960794
206	0xbdd5f8de	-0.10447858
207	0x3e093010	0.1339724
208	0x3a148c2b	0.00056666386
209	0x3e0b668b	0.13613336
210	0xbdeb6b3f	-0.11495065
211	0xbcc70c34	-0.024297811
212	0x3deae790	0.11469948
213	0xbe307b1a	-0.1723446
214	0x3d25fb54	0.04052289
215	0x3dd2b2eb	0.10288032
216	0xbd1fe43a	-0.039036013
217	0xbe2ab41c	-0.16670269
218	0x3e3152e8	0.17316782
219	0xbdb9d263	-0.09073331
220	0x3c4e29d2	0.012583213
221	0xbd799b19	-0.06093893
222	0xbcff4e06	-0.031165134
223	0x3d96362f	0.073345535
224	0x3e2f4793	0.17117147
225	0x3d9c7735	0.076399244
226	0xbd942521	-0.07233644
227	0x3e1f52a9	0.15558876
228	0xbd9f6885	-0.077836074
229	0x3c3dcf18	0.0115850195
230	0x3d1164b7	0.03549644
231	0xbdfa8f34	-0.12234345
232	0x3e10b3c7	0.1413108
233	0x3e3b4920	0.18289614
234	0xbd98b2e3	-0.07455995
235	0xbd875cf4	-0.06609526
236	0x3d617e53	0.055052113
237	0xbdd5634b	-0.10419329
238	0x3ddcee59	0.10787649
239	0x3de20f36	0.110380575
240	0x3df5c410	0.120002866
241	0x3d42ada6	0.047528885
242	0x3d8502d2	0.064946786
243	0x3e1e9a91	0.1548865
244	0x3d3da52f	0.04630011
245	0xbdb21386	-0.0869513
246	0xbe5e35ea	-0.21700254
247	0xbe34bf64	-0.17651135
248	0xbd87fb43	-0.06639721
249	0x3e0019a2	0.12509778
250	0xbc9b5f73	-0.018966412
251	0xbd84ed57	-0.064905815
252	0x3db7f366	0.089819714
253	0xbdd3d4ff	-0.1034336
254	0xbd00a37b	-0.031405907
255	0xbabf21b6	-0.001458219

lstm.weight_hh_l1 f4 [256, 64]
0	0x3d248523	0.04016603
1	0x3bce1f72	0.0062903697
2	0xbc64f32c	-0.013973992
3	0x3c464032	0.012100266
4	0xbcd27153	-0.025688803
5	0xbd4c51dd	-0.04988276
6	0xbd115c5d	-0.035488475
7	0xbdb1b2a2	-0.0867665
8	0x3e0d0354	0.13770801
9	0x3d04824d	0.032350827
10	0x3dd25fae	0.10272156
11	0xbbd0a8fb	-0.0063678003
12	0xbdc72be3	-0.097251676
13	0x3bbeb68f	0.0058201025
14	0x3db6e498	0.089303195
15	0x3d832d7a	0.06405158
16	0x3ce29080	0.027656794
17	0x3d69616f	0.056977686
18	0xbd5e77bc	-0.054313406
19	0x3d6e93ac	0.0582463
20	0xbc0b523e	-0.008503495
21	0xbd61e04e	-0.055145554
22	0xbd71e1d5	-0.05905326
23	0xbd185079	-0.03718612
24	0x3dd6fc39	0.104973264
25	0x3d3113a8	0.043231636
26	0x3d4231d9	0.04741082
27	0x3e0a953b	0.1353349
28	0xbdad746b	-0.084694706
29	0x3c82fc3c	0.015989415
30	0x3d3157f7	0.04329678
31	0xbda02aa4	-0.07820633
32	0x3dba8671	0.09107674
33	0xbdcd107c	-0.1001291
34	0x3ae71578	0.00176303
35	0x3d2241bc	0.03961347
36	0x3dce0afd	0.100606896
37	0xbd24fd7c	-0.040280804
38	0x3c201d12	0.009772556
39	0xbd2a0fe8	-0.041519076
40	0xbe094e96	-0.13408884
41	0x3dab5e7b	0.0836763
42	0xb9add812	-0.00033158116
43	0x3d944e75	0.07241527
44	0xbca2145f	-0.019785104
45	0xbdaf114e	-0.085482225
46	0x3dba9823	0.09111049
47	0xbd99fd3f	-0.07519006
48	0x3da4ac8d	0.08040724
49	0xbd1047c8	-0.035224706
50	0xbdc286be	-0.09498356
51	0x3d394e86	0.0452409
52	0x3cf29325	0.02961118
53	0x3d01fa40	0.031732798
54	0xbdcc01ad	-0.09961257
55	0x3dca2dfe	0.098720536
56	0xbd89c636	-0.06727259
57	0x3e0de249	0.13855852
58	0x3becdc35	0.007228399
59	0x3cfa1392	0.03052691
60	0xbcad1d0d	-0.021132017
61	0x3d96335e	0.07334016
62	0x3c57752e	0.013150496
63	0xbc8023b4	-0.015642025
64	0xbd0fe723	-0.03513254
65	0xbdc7733b	-0.09738775
66	0x3d8e15c4	0.06937745
67	0xbdd9a2e3	-0.10626771
68	0xbd9730e2	-0.073823705
69	0xbdbbaed7	-0.091642074
70	0xbd54c3d2	-0.05194456
71	0x3de94b37	0.11391299
72	0xbdbeb6b0	-0.093121886
73	0x3dd15b49	0.102224894
74	0xbc9871c7	-0.01860894
75	0x3dd3954f	0.10331213
76	0xbe01cb8d	-0.12675305
77	0xbdff1976	-0.12456028
78	0x3c1317b8	0.008977823
79	0xbd5c5b3f	-0.053797957
80	0x3dbae229	0.09125168
81	0x3da056fb	0.0782909
82	0xbda40310	-0.080083966
83	0x3dd8c2d6	0.10584037
84	0xbc930735	-0.017947773
85	0x3d30ad06	0.043133758
86	0x3d102030	0.035186946
87	0x3bd711c9	0.0065633995
88	0xbd9bfa2a	-0.076160744
89	0x3d01a297	0.0316492
90	0x3de562bc	0.11200473
91	0xbdd25e1a	-0.10271855
92	0xbcbbaa7e	-0.022908445
93	0x3d1eb79d	0.038749326
94	0x3e005583	0.1253262
95	0xbcb1b8c1	-0.021694543
96	0xbda7225c	-0.081608504
97	0xbce128de	-0.027485307
98	0x3dc59095	0.096467175
99	0xbd73f553	-0.05956013
100	0x3c84c7a8	0.016208485
101	0xbd3a16cd	-0.0454319
102	0x3e058c2e	0.13041756
103	0x3b7c7af9	0.0038525446
104	0xbd585f9e	-0.052825563
105	0xbda88675	-0.08228771
106	0x3cc05fe5	0.023483226
107	0x3d46ff4c	0.048583314
108	0xbc227aff	-0.00991702
109	0xbce59f98	-0.028030202
110	0x3df8c653	0.12147202
111	0x3cf73e30	0.03018102
112	0xbce2f2f2	-0.027703736
113	0x3ceb8d3e	0.028753873
114	0xbd9293df	-0.071571104
115	0xbd8cc986	-0.06874375
116	0xbd42d4e3	-0.047566306
117	0xbcff551d	-0.031168515
118	0xbc6307e3	-0.013856861
119	0xbd152c27	-0.03641906
120	0x3d06a651	0.032873455
121	0x3daba093	0.083802365
122	0x3d995754	0.0748736
123	0xbd6a871b	-0.057257753
124	0x3cb295ce	0.021799948
125	0x3cb49212	0.022042308
126	0x3de59058	0.11209172
127	0xbdcbddfd	-0.0995445
128	0xbdf80539	-0.12110371
129	0x3d689aec	0.05678837
130	0xbda9fe18	-0.08300418
131	0x3dcf644d	0.10126553
132	0x3c1941e2	0.009354087
133	0xbda92760	-0.08259463
134	0xbddd1e8f	-0.10796844
135	0x3d07f1d1	0.0331896
136	0x3cdfebd4	0.027334131
137	0x3cca3240	0.024682164
138	0xbd04f39e	-0.032458894
139	0x3dc56d4c	0.09639987
140	0xbce93375	-0.02846692
141	0xbc3aec27	-0.011408842
142	0x3d32454b	0.043523114
143	0xbda468fd	-0.080278374
144	0xbca4d72c	-0.020122133
145	0xbd5eea4f	-0.054422673
146	0x3d6bb9fd	0.05755042
147	0xbd51e63c	-0.05124496
148	0xbccec5d5	-0.025240818
149	0xbd133247	-0.03593662
150	0x3c80d22b	0.015725216
151	0x3db1815f	0.08667254
152	0x3d5dbe5d	0.054136623
153	0xbd6ef423	-0.058338296
154	0xbdd7e954	-0.10542551
155	0xbde49e4d	-0.11163006
156	0xbe00fa47	-0.12595473
157	0xbca48a0e	-0.02008536
158	0xbdb35c1f	-0.08757805
159	0x3d8db5a4	0.06919411
160	0xbcd3ebd6	-0.025869291
161	0x3ddb26d8	0.10700768
162	0xbd8d58b5	-0.06901685
163	0x3cce9143	0.02521575
164	0xbd3f5f43	-0.046721708
165	0xbde432ff	-0.11142539
166	0x3d18a177	0.03726336
167	0x3dfe6f30	0.12423551
168	0xbdcf366a	-0.101178005
169	0x3db0afca	0.08627279
170	0x3cf9bfd5	0.03048698
171	0x3d26dd63	0.040738475
172	0xbd78c6f4	-0.06073661
173	0xbc0c9194	-0.00857963
174	0x3d03c003	0.03216554
175	0x3d875b6c	0.06609234
176	0xbd381e1d	-0.044950593
177	0xbd94ffb6	-0.072753355
178	0x3cf1e523	0.029528206
179	0xbd7faa4e	-0.062418275
180	0x3d8ce9c0	0.06880522
181	0x3c810564	0.01574964
182	0xbae1bdd1	-0.0017222707
183	0xbd0c10e4	-0.034195796
184	0xbcca129f	-0.024667082
185	0x3dee4c1e	0.11635612
186	0xbdab26de	-0.08357023
187	0x3df8b1aa	0.12143262
188	0xbd8c8d1e	-0.068628535
189	0x3d1464e9	0.036229048
190	0x3d6cfeed	0.057860304
191	0x3d83beac	0.06432852
192	0x3e58afe9	0.21160854
193	0x3db0622a	0.08612473
194	0x3e12e160	0.14343786
195	0x3d15d32e	0.03657835
196	0x3d512a06	0.051065467
197	0x3dd64cc8	0.104638636
198	0x3e12eb64	0.14347607
199	0xbdfe9242	-0.1243024
200	0x3e21d08c	0.1580221
201	0x3d2541c7	0.040345933
202	0xbca3c746	-0.019992482
203	0xbda2b860	-0.07945323
204	0xbd91b23b	-0.07114073
205	0xbe2a2551	-0.16615798
206	0x3cf1ce16	0.029517215
207	0x3deaf125	0.11471776
208	0x3e29f0e2	0.16595796
209	0xbe116f7c	-0.14202684
210	0xbd20a839	-0.03922293
211	0x3dca768c	0.09885892
212	0xbb15650f	-0.0022795831
213	0x3cf6dffb	0.0301361
214	0x3d543122	0.05180467
215	0xbda9e3bb	-0.08295389
216	0xbc103147	-0.008800811
217	0xbd47113b	-0.048600417
218	0xbcadd325	-0.021218846
219	0x3e07f12d	0.13275595
220	0xbcae675a	-0.021289516
221	0xbd94fbf3	-0.07274618
222	0x3cc34a27	0.02383907
223	0xbcea7a61	-0.028622808
224	0x3c1d6663	0.00960693
225	0xbd8a28a5	-0.067460336
226	0xbd62b2e5	-0.05534639
227	0xbe18d101	-0.14923479
228	0x3c8cefa8	0.01720412
229	0x3da2a912	0.07942404
230	0x3d1c5f37	0.03817674
231	0xbdc61f90	-0.09673989
232	0xbd877938	-0.066149175
233	0x3ccff8f4	0.025387265
234	0x3db18ba8	0.086692154
235	0x3ddb6288	0.10712153
236	0xbdfffbf9	-0.12499232
237	0x3c665e9c	0.014060643
238	0xbc8e1187	-0.017342342
239	0xbd484a55	-0.048899014
240	0xbd5032b4	-0.050829604
241	0xbcb5d9d7	-0.0221986
242	0x3dabe028	0.08392364
243	0xbe43ef4a	-0.1913425
244	0x3e0323bc	0.128066
245	0xbd529580	-0.051412106
246	0xbdf3bfaa	-0.119017914
247	0x3c9f0860	0.019413173
248	0x3d032d06	0.03202536
249	0x3e0b4a0d	0.13602467
250	0xbddcffaa	-0.107909516
251	0xbdc1587d	-0.09440706
252	0xbe789006	-0.2427369
253	0x3d637b81	0.055537704
254	0xbdba7f50	-0.09106314
255	0x3abac3d9	0.0014249041

lstm.bias_ih_l1 f4 [256]
0	0x3d2bb1d1	0.041917626
1	0x3d974be4	0.07387522
2	0x3dfeee1b	0.12447759
3	0x3dbd7e42	0.092525974
4	0x3d16b26b	0.036791246
5	0x3de6a38f	0.11261665
6	0xbcb69942	-0.022289876
7	0x3e0655cc	0.13118666
8	0x3d3441bd	0.044008005
9	0xbd62b1cd	-0.055345345
10	0x3be06de2	0.0068490366
11	0xbdc956ea	-0.09831031
12	0xbd85e909	-0.065385886
13	0xbd9c066b	-0.07618412
14	0xbb7488f8	-0.0037313085
15	0xbddcd455	-0.107826866
16	0x3decb76a	0.11558421
17	0x3d88e5d5	0.06684462
18	0x3d7cc1ef	0.061708387
19	0xbcc3e49a	-0.023912717
20	0x3d72c422	0.059269078
21	0xbd5ee64f	-0.05441886
22	0x3df85ab4	0.12126675
23	0x3dd991c2	0.10623504
24	0xbd26b9c5	-0.040704507
25	0xbddccf72	-0.107817546
26	0x3de343e7	0.11096936
27	0x3d17344b	0.036915105
28	0x3dd127f6	0.102127
29	0xbd265923	-0.04061235
30	0xbd549208	-0.05189708
31	0x3da5cc28	0.0809558
32	0x3c8866bf	0.016650556
33	0xbcdb30bb	-0.026756635
34	0xbdc3f568	-0.09568292
35	0xbd155d78	-0.036466092
36	0xbdd3eb21	-0.10347582
37	0x3d28a649	0.041174207
38	0xbd9ef5de	-0.07761739
39	0xbdca2655	-0.098705925
40	0x3be80970	0.007081203
41	0x3dd5ce78	0.104397714
42	0xbdd14d4d	-0.10219822
43	0xbde49bd9	-0.11162538
44	0xbd2e6f41	-0.04258657
45	0x3e1290cc	0.14313048
46	0x3c0acd69	0.008471825
47	0x3da2e851	0.07954467
48	0x3d6f695e	0.058450095
49	0x3e2043cf	0.15650867
50	0xbdbec0d4	-0.09314123
51	0x3d9eb8ca	0.077500895
52	0xbdd8bcb5	-0.10582868
53	0x3dd24512	0.1026708
54	0xbda3a9e7	-0.07991391
55	0xbdc26ed1	-0.09493793
56	0xbd766051	-0.06015045
57	0x3cfbd862	0.030742828
58	0x3d63e9ce	0.055642895
59	0x3dcce998	0.10005492
60	0x3d44063c	0.047857508
61	0x3d3bc8fa	0.045845963
62	0x3da85fd4	0.08221403
63	0xbd5eb217	-0.05436906
64	0x3a71b4c0	0.0009220354
65	0xbb2e9fba	-0.0026645497
66	0x3cbfac0d	0.02339747
67	0xbd4f6b11	-0.050639216
68	0xbdc749ad	-0.097308494
69	0xbd4162ce	-0.047213368
70	0x3dc29e25	0.0950282
71	0x3da31e8e	0.07964812
72	0xbdb01e90	-0.08599579
73	0xbd8aac93	-0.06771197
74	0xbcbbd40d	-0.022928262
75	0x3d93b737	0.0721268
76	0xbd57bb2c	-0.052668735
77	0xbe0e5362	-0.13898996
78	0x3dac320f	0.084079854
79	0x3befe027	0.007320422
80	0xbc191c04	-0.009345058
81	0xbd94d6ee	-0.07267557
82	0xbdca73c3	-0.09885361
83	0x3c65e0ad	0.014030618
84	0xbdc9db4f	-0.09856283
85	0xbc974950	-0.018467575
86	0xbc841c89	-0.016126888
87	0x3a5166d0	0.00079880375
88	0xbdaed7cb	-0.08537253
89	0x3db5c8b5	0.088761725
90	0x3844daa4	4.6933666e-05
91	0x3ce131b0	0.027489513
92	0x3ca0fe73	0.01965258
93	0x3db70109	0.08935744
94	0x3dc32f55	0.09530512
95	0xbd7c4fd6	-0.061599575
96	0x3dbead0e	0.09310351
97	0x3d654ac6	0.055979513
98	0x3c726424	0.014794383
99	0x3d3e450a	0.04645256
100	0x3d9bf67a	0.07615371
101	0xbd9c27e2	-0.076247945
102	0x3b87d2cc	0.004145002
103	0x3ca5fc5c	0.020261936
104	0x3dda8ea6	0.10671739
105	0x3d82283b	0.063553296
106	0xbe074835	-0.13211139
107	0xbdec4aec	-0.11537728
108	0x3d892297	0.066960506
109	0xbdbb9bb6	-0.09160559
110	0x3a12bd6a	0.0005597683
111	0xbe1e2d53	-0.15446977
112	0x3d08feaa	0.03344599
113	0xbd8d3e10	-0.06896603
114	0xbd8ec763	-0.06971624
115	0xbcf5c91a	-0.03000312
116	0xbd862da0	-0.06551671
117	0xbc94dd37	-0.01817189
118	0xbaf9354c	-0.0019013076
119	0xbdb24b3e	-0.087057576
120	0x3b7742fc	0.0037729135
121	0xbdf1bbb8	-0.11803383
122	0xbe0cb6a6	-0.1374155
123	0xbd82c559	-0.06385297
124	0xbc20fddb	-0.009826149
125	0x3d58abf7	0.052898373
126	0x3de9e923	0.114214204
127	0xbdd74c45	-0.10512594
128	0x3d8f91b8	0.070102155
129	0x3da240e7	0.079225354
130	0x3dbcf550	0.09226477
131	0x3e114b01	0.14188768
132	0x3c969973	0.018383717
133	0xbd33f152	-0.043931313
134	0xbd232b25	-0.039836068
135	0x3c2e4ec9	0.010638901
136	0xbd02e9c8	-0.031961232
137	0xbd5a4c4b	-0.053295415
138	0xbd4f8ef8	-0.050673455
139	0xbdf59462	-0.119911924
140	0x3a2f4631	0.00066861795
141	0xbd846c85	-0.06466011
142	0xbbc29315	-0.0059379437
143	0xbd72d497	-0.059284773
144	0x3d1a14d3	0.037617516
145	0xbdd71e57	-0.10503834
146	0x3dfcce19	0.123439975
147	0xbdb37fba	-0.08764596
148	0x3d200165	0.03906383
149	0x3d115aa8	0.035486847
150	0xbd939181	-0.07205487
151	0x3dcc6a4c	0.09981212
152	0xbdc8c37a	-0.09802909
153	0x3c972424	0.01844985
154	0xbd0c6301	-0.034274105
155	0x3c499d66	0.012305593
156	0x3d1e54bc	0.038655028
157	0xbddc7771	-0.10764969
158	0xbceb4e93	-0.02872399
159	0x3d764460	0.0601238
160	0xbbd39e97	-0.0064581144
161	0xbb82af7d	-0.003988205
162	0xbd79cb88	-0.06098512
163	0xbe081bd4	-0.13291866
164	0xbdbafef1	-0.091306575
165	0xbe07ab57	-0.13248955
166	0x3d7b4ab2	0.061350532
167	0x3cd8a54e	0.02644601
168	0xbd815dc3	-0.06316712
169	0x3d37405f	0.044739123
170	0x3dbb39fc	0.09141919
171	0x3d9b5410	0.07584393
172	0x3dafdcd4	0.085870415
173	0x3da3e7e0	0.08003211
174	0x3dc32b6f	0.09529769
175	0xbccf982d	-0.025341118
176	0xbc8adc7c	-0.016950838
177	0xbd890661	-0.0669067
178	0x3d6db479	0.05803344
179	0xbdb969ec	-0.09053406
180	0x3c8dfbc7	0.01733197
181	0x3d6e8b1e	0.05823814
182	0xbd8a3ff9	-0.06750483
183	0xbdc19155	-0.09451548
184	0x3c10f12a	0.0088465605
185	0xbca27413	-0.01983074
186	0xbd09a9fc	-0.033609375
187	0x3dba7fc8	0.091064036
188	0xbd747902	-0.059685715
189	0xbd90eb8e	-0.070761785
190	0xbdeb88c7	-0.115006976
191	0xbdde9631	-0.108684905
192	0xbde10466	-0.10987167
193	0x3db19a71	0.086720355
194	0xbd744393	-0.059634756
195	0x3cb94b47	0.022618903
196	0x3a4e4c26	0.00078696234
197	0xbddfc2ae	-0.10925804
198	0xbd5fb383	-0.054614555
199	0x3e04f57a	0.12984267
200	0x3dc46797	0.09590071
201	0xbda4a76d	-0.080397464
202	0xbdf4715d	-0.11935685
203	0xbd849ea0	-0.06475568
204	0x3dda9ef5	0.1067485
205	0x3cdde5fa	0.0270872
206	0xbd46cf51	-0.048537556
207	0x3becc783	0.007225932
208	0x3d3ddc3d	0.046352614
209	0xbd5953b0	-0.053058326
210	0x3d9a83a5	0.075446405
211	0x3cb3fce2	0.02197117
212	0x3dd83494	0.105569035
213	0x3d05edaa	0.032697357
214	0xbd0aa253	-0.03384621
215	0xbd3c95c4	-0.046041265
216	0xbd553cff	-0.052060124
217	0xbdd1ed7e	-0.10250376
218	0x3d41cc1a	0.047313787
219	0xbd9c1c2c	-0.07622561
220	0xbe034f34	-0.12823182
221	0x3e1d3ab1	0.1535442
222	0x3d18b548	0.03728226
223	0xbddebb9e	-0.10875629
224	0x3e06fbc2	0.13181975
225	0xbdcc6323	-0.09979846
226	0x3d332ad1	0.043742005
227	0x3c19dcd8	0.009391032
228	0xba4336bf	-0.00074468175
229	0x3d3fc981	0.04682303
230	0x3d9b26f3	0.07575788
231	0x3ded7d2a	0.11596139
232	0x3d40a62f	0.047033485
233	0xbca0df4a	-0.019637723
234	0x3d7703ef	0.060306486
235	0x3d6b2ffb	0.057418805
236	0x3dafec14	0.0858995
237	0xbc90912d	-0.01764735
238	0x3e13cf62	0.14434579
239	0x3db6c3f5	0.089240946
240	0x3d61ae5c	0.055097923
241	0xbc4763b6	-0.012169769
242	0xbcb26beb	-0.021779975
243	0xbda8ba32	-0.08238639
244	0xbc810484	-0.015749224
245	0x3d5926ce	0.053015523
246	0x3ded26ac	0.11579642
247	0x3d99f60e	0.07517634
248	0xbdb1de59	-0.086849876
249	0xbdad514d	-0.084627725
250	0x3cc3e615	0.023913423
251	0xbc88f69e	-0.016719159
252	0xbdd6cbe5	-0.104881085
253	0xbd0b4c65	-0.034008402
254	0xbcd7d6cc	-0.02634754
255	0xbcd81f1e	-0.026382025
